robot_go2/robot_go2_primitives/default_weights.npy (npy, 9728 bytes, 1 tensors)

array f8 [12, 100]
0.11414639111716257 -0.014494661128797688 -0.1141534967881372 0.1667396037346637 0.5289330391205113 0.5944117653430383 0.0025896265727157666 -0.1993707270437788
0.30715425974595156 0.4626958555038246 0.22117465998049768 -0.2729725827577638 0.020447945672506563 0.6720772568596127 0.4850929986395398 -0.20105470214717322
-0.20297078200617968 0.3306093597872312 0.5080947149286197 0.40701711493487075 -0.011684471695095924 0.07492545965524419 0.4749430842495765 0.4401125485063984
0.017235459079618293 -0.30143590486480654 0.27460782140791873 0.6123069245105015 0.15594285387158335 -0.006817309717757204 0.22444464115754534 0.27837299664103426
0.19229145646364074 -0.05947522234823058 -0.42942298121391387 -0.15097915519857488 0.47279976779682953 0.4337011450488273 -0.021815087398143872 -0.032820163186663455
0.6844961579769544 0.4663539825744392 -0.5295987374375702 -0.21531850439407263 0.7663909480686097 0.7557453520179729 -0.10171678063567612 -0.22388337718691884
0.4348474286537687 0.6275183216653698 0.13394556752453962 -0.5405727444638752 -0.10813424041220622 0.7104232084023793 0.640150700974622 -0.05777085040680511
-0.3478652277195287 0.3168988555738053 1.4133687170027849 0.39120340272132753 -0.9941054554560297 0.10884731463173344 0.5011271664096488 0.28877735655520015
0.19952935076027514 -0.69857663632753 -0.25204960770739304 1.3776005265251527 0.9891144549463041 -0.22550779059516132 -0.1344667812759544 0.47717406709183685
0.8629565947899821 0.528832816382338 -0.9665756707781148 -0.5450494906524044 1.1202721343295943 0.6123807155560018 0.04403252917077471 0.7712141711200053
1.6381321418138488 0.3105039795784394 -1.288084496608748 -1.5711238220801333 -0.05146955779085066 1.9634679028038284 1.5812452119016762 -0.0887614139372516
0.7749561023077677 1.2073203691678756 0.5050936520361117 -1.5107126537593902 -1.998094729553278 1.2040910030299727 3.110062381476111 -1.2370706634556266
-8.462254383722732 -9.098817063545294 0.14513424885836823 0.14513424885836823 -0.691020838441984 -1.0319187848669817 -0.9432918810265222 -0.40943001951069585
-0.4536742464604066 -0.8326592840516996 -1.0720938842147962 -0.5327417608346238 0.22994431655653755 -0.4916463876491247 -1.2049655906454357 -0.7030311587137369
-0.01186875973440648 -0.4788588840814715 -1.2740088749988823 -0.9663592777453349 -0.08940625553275464 0.0022695989169044715 -0.6110387700868366 -1.5418540856869933
-0.7231222835725565 0.4428937040504671 -0.3917789948970529 -1.3728325135783719 -0.8270907097879243 0.11777374523015065 -0.2868742074823092 -1.1675739478075127
-1.3676225625510685 -0.46238624263341727 0.006390947213382725 -1.0059667367676712 -0.7297974908040644 0.2660123331026658 0.5701880793312125 0.07870511528679335
-0.7861661711435983 -0.8913040893718982 0.03788600767510686 0.4671699297171072 -0.7339780489580952 -1.1508096938829606 -0.0498706752161405 0.7643750025313535
-0.37123247234165196 -1.6197346837089965 -1.3456970230444993 0.04332807273791107 0.06570923366473522 -0.947276045354536 -0.8175173420306907 -0.13047288700326495
0.624039969563047 -0.012995808163387058 -0.8193870983238966 -0.06116607361263972 -0.03672788524411057 -0.2615378492962066 -1.1435930517629427 -1.2539020912132204
-0.41293120870135835 0.06977119614164395 0.4586785957090183 -0.9794048586220473 -1.5171783554387959 0.4949900024134288 0.8918210223640854 -1.6206007687214536
-1.462689967820917 -0.47978029235668146 -0.17666566600256378 0.1293211118592562 -1.8836852556095487 -1.7039900696448271 0.6913388999892315 0.0889179363088011
-2.4862249879212226 -2.945440804538975 -1.346934570527514 -1.0725734277350023 -0.5637003631562277 -0.8085680460379733 -0.6701991793255174 1.9125678620305273
0.3858885719753949 -1.9330237065971667 -4.754816451430992 -3.688582163226997 0.5573132090059935 1.8614849014471981 -1.188605535441521 -1.8354899419126776
1.0878582056011232 7.718698856650675 8.55809149490534 -15.254665283531793 -17.954087597158455 22.70731562936751 34.857104843176394 34.857104843176394
-0.010132666496727716 -0.025606342244057296 0.020681088579964275 0.019091550896197445 -0.05139024643352443 0.023798421055524967 0.04548827093223868 0.021345891701227113
0.03755055239050126 -0.002249727854393223 -0.006064442657560005 -0.049386907499863866 -0.12560846022324926 -0.017387589040815415 0.09782423276724506 0.08482190482056778
0.05972585658584224 -0.05652093766173356 -0.020234977318383907 0.03547548930035665 0.04987094462698532 -0.015531977951965509 -0.041293032405971056 0.04788502127642019
0.02254487638966567 0.018273849331225746 -0.006185041470913593 -0.04754025111326238 0.036200543639277744 0.018619518693822466 -0.10998916348209903 -0.030134653035631797
0.09359335281876963 0.0462739750772072 0.10226523786827431 0.02703582483270793 -0.046898319409565514 -0.011237871969761835 0.06816816422236639 -0.010699916513368008
-0.09618325552489806 0.047895963085488054 0.09274370952153861 0.013057735343442081 -0.11343889644917837 -0.003642789373105104 0.14116805023958023 -0.03576900728457071
-0.17300283111988357 -0.04642902641813108 0.15279782415675158 0.1328757085729436 -0.05799661441156811 0.08657060805838496 -0.027943164940214073 -0.12782783802582265
00000000: c4fc cda8 b238 bd3f 7149 1e7c 60af 8dbf
00000010: ddd8 6ddf 2939 bdbf 3d83 7e2c b957 c53f
00000020: cd7c 19fb 04ed e03f f430 90d2 6b05 e33f
00000030: ec8e 092e d736 653f 1965 37e0 fa84 c9bf
00000040: a0e6 1b57 6aa8 d33f 058e d813 cf9c dd3f
00000050: ecfa a885 734f cc3f 4c8d e9fe 6178 d1bf
00000060: 2d36 bc67 4ef0 943f 221e d329 a881 e53f
00000070: b039 2b81 c30b df3f bbed 3615 29bc c9bf
00000080: 884a 6153 f2fa c9bf f368 0229 b428 d53f
00000090: 9471 fcd8 4f42 e03f c9ae 6383 910c da3f
000000a0: 8e6b 693e 07ee 87bf 0e67 db9e 502e b33f
000000b0: 2b0d 94ad 7765 de3f 7d3a 99d2 cd2a dc3f
000000c0: 1864 5014 2ca6 913f 3c02 4fd2 b94a d3bf
000000d0: 7a0f 0baf 2c93 d13f da61 fcb0 0498 e33f
000000e0: 9430 b678 eff5 c33f 9b30 8da4 77ec 7bbf
000000f0: cf5d c41c 9aba cc3f a96a 2af9 dcd0 d13f
00000100: b3e0 67a6 019d c83f 94e2 d04d 8973 aebf
00000110: b8bb 1d87 aa7b dbbf b150 faf2 4853 c3bf
00000120: 0a9a 0ff5 5942 de3f e03c 8e72 c2c1 db3f
00000130: e3d5 bcbb b156 96bf 0d7c 12ef cdcd a0bf
00000140: 18f5 977c 64e7 e53f 7d0f e15f bed8 dd3f
00000150: 1d83 290d 79f2 e0bf 704f 4c87 8e8f cbbf
00000160: b0f6 3c4f 4686 e83f aead 60e0 102f e83f
00000170: d7dd 4866 1c0a babf 7f63 91e3 35a8 ccbf
00000180: 0c54 344f 8ad4 db3f bd31 a64d a114 e43f
00000190: b224 fbdb 2025 c13f 159a 5236 5f4c e1bf
000001a0: 39f2 2582 afae bbbf 270b cd73 c9bb e63f
000001b0: bb51 a652 1d7c e43f 8594 5112 2494 adbf
000001c0: 5924 1e84 6c43 d6bf 9913 3523 1248 d43f
000001d0: 8a76 0b84 289d f63f c368 31ff 7909 d93f
000001e0: c1ae 7e3e b6cf efbf 9ec8 99e8 6add bb3f
000001f0: 1ebb dbd6 3b09 e03f f1b6 8e05 547b d23f
00000200: 61c2 0d82 2d8a c93f 7dd8 d863 bd5a e6bf
00000210: 1caa 84ad 9421 d0bf ed0b 86d9 a60a f63f
00000220: 05d9 7f5b d3a6 ef3f 43ba cc74 70dd ccbf
00000230: 1243 fd1d 3536 c1bf f228 2a19 058a de3f
00000240: 27b2 0f26 579d eb3f 273d 6dcc 32ec e03f
00000250: 923d e319 30ee eebf 8eb6 21a1 0b71 e1bf
00000260: 370d 3979 a2ec f13f 8f73 4071 9f98 e33f
00000270: 2f4e 7f81 6e8b a63f 6c82 6557 c9ad e83f
00000280: e2de 790c ca35 fa3f cf4d 6415 4cdf d33f
00000290: 06b5 367d fe9b f4bf a6cf 9cbb 5223 f9bf
000002a0: e80e e7c6 375a aabf 439c d451 5d6a ff3f
000002b0: 4a30 81c7 c74c f93f cad8 016a 11b9 b6bf
000002c0: 75eb 67bd 70cc e83f 46ee d529 2f51 f33f
000002d0: 9731 9d29 ba29 e03f 9bcc 1808 e12b f8bf
000002e0: 57dc db2d 32f8 ffbf c0be 76ed f443 f33f
000002f0: 9dad c762 68e1 0840 8420 a69b 0acb f3bf
00000300: 250b 499b acec 20c0 766d 7026 9832 22c0
00000310: e027 3052 c293 c23f e027 3052 c293 c23f
00000320: 6ecf bebb d71c e6bf a21b 9245 bd82 f0bf
00000330: 67eb 7274 722f eebf 2324 f3f7 1934 dabf
00000340: d76e e5b4 ff08 ddbf 75cf 3615 25a5 eabf
00000350: 481b afea 4b27 f1bf f3f0 ff72 380c e1bf
00000360: 8f75 c1bb d06e cd3f e291 0969 2277 dfbf
00000370: 1e0a caff 8947 f3bf d3d2 5733 3b7f e6bf
00000380: 7c13 3af7 a54e 88bf bada a1bb 9fa5 debf
00000390: 77f1 4e21 5762 f4bf d046 c34a 6aec eebf
000003a0: 122d 920f 54e3 b6bf ebc6 f0a3 b197 623f
000003b0: 878d c32d a18d e3bf 84ac 9330 6fab f8bf
000003c0: b77e de57 d123 e7bf 5911 a0d5 5e58 dc3f
000003d0: 0ced 9534 e812 d9bf f945 cb39 1ff7 f5bf
000003e0: 7eaa abef 8677 eabf 6347 1790 6b26 be3f
000003f0: b8f4 cca2 255c d2bf 05eb 1705 62ae f2bf
00000400: 5bdb 3632 c8e1 f5bf 37c6 8e77 bc97 ddbf
00000410: f3de 59d4 642d 7a3f ee7e b493 7018 f0bf
00000420: 279a 7644 805a e7bf 088d c097 5806 d13f
00000430: d77d 2912 fb3e e23f a747 2fb8 0426 b43f
00000440: be10 49f5 4528 e9bf 7096 5427 9085 ecbf
00000450: e094 e177 cb65 a33f 63d0 73b4 1ce6 dd3f
00000460: 9238 8888 bf7c e7bf 785a f26c b769 f2bf
00000470: ac5f 2a2e a688 a9bf 0b11 b890 c275 e83f
00000480: 6feb fad7 45c2 d7bf f9a1 6bea 6eea f9bf
00000490: 99cf 049a f987 f5bf 41ea d0de 182f a63f
000004a0: 66a0 a201 52d2 b03f 4b9f 62da 1550 eebf
000004b0: c2e8 fd20 1a29 eabf 07cc 58e7 55b3 c0bf
000004c0: a471 95ab 22f8 e33f 34ec 5fd8 8b9d 8abf
000004d0: 5918 c24a 6b38 eabf 1200 95db 2851 afbf
000004e0: 560b f353 ffcd a2bf 342d 593f 09bd d0bf
000004f0: 2513 543a 284c f2bf 4159 a2a3 fb0f f4bf
00000500: 78af 3705 776d dabf d893 a16d 86dc b13f
00000510: 1582 fc77 fd5a dd3f 0368 aadb 4857 efbf
00000520: 67f0 accf 5c46 f8bf db9b 0d8c eaad df3f
00000530: 8c0c 9e3d cc89 ec3f 667f 5812 fbed f9bf
00000540: 6da6 7f98 2d67 f7bf 29fc 3b66 b8b4 debf
00000550: 164e e704 fb9c c6bf 2416 0f1d 988d c03f
00000560: 7dce 8c26 9323 febf 2d55 5d17 8b43 fbbf
00000570: ef00 bdc1 721f e63f 625f 796c 53c3 b63f
00000580: 09f5 2ced c9e3 03c0 ff63 be44 4390 07c0
00000590: 9747 a443 0b8d f5bf 24e3 2ac1 4229 f1bf
000005a0: 71fa 0f58 d509 e2bf e55b 4a18 cadf e9bf
000005b0: d94a a08c 4572 e5bf fdd3 2cc2 e099 fe3f
000005c0: a534 22fb 65b2 d83f f7a3 2344 aaed febf
000005d0: fa83 959a ee04 13c0 e159 7d5d 3782 0dc0
000005e0: dfe7 c982 82d5 e13f 7e6a 5b64 a4c8 fd3f
000005f0: ef0d e93c 8704 f3bf 246e 8ab3 2a5e fdbf
00000600: 83df 7b01 de67 f13f eff2 d397 f2df 1e40
00000610: a096 1d2b be1d 2140 2864 f07c 6382 2ec0
00000620: 9650 b315 3ff4 31c0 4715 18a3 12b5 3640
00000630: c957 8b9c b56d 4140 c957 8b9c b56d 4140
00000640: 3a3a cc79 6fc0 84bf 759c 088a 8c38 9abf
00000650: d5f1 625c 6c2d 953f eb95 ea4a bc8c 933f
00000660: 53de 8787 d24f aabf 1a09 8500 9d5e 983f
00000670: c9d7 0218 3d4a a73f 59fc 0a8b b2db 953f
00000680: 3889 ed74 d339 a33f b094 e771 056e 62bf
00000690: fb7c 1f6e 07d7 78bf 02ff 1fa1 3d49 a9bf
000006a0: 3940 6122 f013 c0bf e877 2559 0dce 91bf
000006b0: 18da 7d48 020b b93f cc52 306b e3b6 b53f
000006c0: d907 8631 6394 ae3f c9c1 97f5 4ff0 acbf
000006d0: 0d63 4557 7ab8 94bf 0792 b5e4 d729 a23f
000006e0: 3716 6338 af88 a93f 505f c4ca 3acf 8fbf
000006f0: 22fe 783f 5c24 a5bf 4873 b3b0 6284 a83f
00000700: 0dd7 240b 0116 973f 37a3 ff44 61b6 923f
00000710: 86bd 786d 7c55 79bf 88d8 8c1f 3257 a8bf
00000720: 9465 0eae e088 a23f 36cd 6dbf fe10 933f
00000730: 5cec 11f4 3f28 bcbf a3b0 0e55 9edb 9ebf
00000740: 64c7 7ae5 bbf5 b73f bf9c 39f3 38b1 a73f
00000750: 3572 29fc 0d2e ba3f 5c4f e87d 47af 9b3f
00000760: b8f0 3378 0e03 a8bf 5fb0 b1a4 e103 87bf
00000770: c1a2 f603 7873 b13f ca71 f57b d6e9 85bf
00000780: c2f9 e640 779f b8bf 610c 20d6 d185 a83f
00000790: ed02 4e3f 0dbe b73f 284a 1492 03be 8a3f
000007a0: 00f3 57de 540a bdbf b392 28a7 7bd7 6dbf
000007b0: 4871 826f cb11 c23f a7c7 feb8 5050 a2bf
000007c0: 643d e3ee f424 c6bf c11b 1a9c 8bc5 a7bf
000007d0: 489c d30c e18e c33f 9b76 603b 1202 c13f
000007e0: 0f52 5a74 bbb1 adbf 3cd5 67ca 7d29 b63f
000007f0: 1a83 420e 229d 9cbf f86d eb9f a95c c0bf
