robot_go2/robot_go2_primitives/point_right_weights.npy (npy, 9728 bytes, 1 tensors)

array f8 [12, 100]
000000 59 b0 d7 eb ac b1 1b c0 3c 83 fe 86 5f 31 1c c0
       -6.923511204757312 -7.0482159703104195
000010 f1 3e c2 c8 4c ea 1c c0 c6 91 b3 c9 f2 91 1c c0
       -7.228808533531024 -7.142527724823998
000020 7b ea 45 0d 5b cb 1c c0 3d 71 1e 7c 08 cc 1d c0
       -7.198589522735911 -7.44925111709409
000030 2d 40 eb 37 e5 8f 1d c0 5f 2f 4e d0 b7 76 1d c0
       -7.390522836431086 -7.365935568592106
000040 8a bd e2 96 7d df 1e c0 f9 7d e4 ab 9b bc 1e c0
       -7.71825252303041 -7.684187589474726
000050 fd ad 1c 78 d2 00 1f c0 a8 95 ec 76 b8 8c 1f c0
       -7.750802876234499 -7.887422426404932
000060 d0 3a 81 63 3a 17 20 c0 84 05 c9 86 92 36 1f c0
       -8.04536734535705 -7.803293329257375
000070 25 69 40 af c9 52 20 c0 b1 24 c0 47 40 e1 20 c0
       -8.161694981205594 -8.439943544583317
000080 9d ad 82 89 42 61 20 c0 d8 77 48 9a 86 cb 20 c0
       -8.189960763170172 -8.397511311861237
000090 e0 1e 18 91 8b 78 21 c0 18 40 42 ed 34 ca 20 c0
       -8.735439809984598 -8.394935049378589
0000a0 2f 57 cb fe a8 fa 20 c0 9d fb b7 dd 8e 3c 22 c0
       -8.489570581743093 -9.11827748175511
0000b0 0b 24 c3 b1 89 0c 22 c0 97 d2 90 1e f5 e1 21 c0
       -9.024488024779222 -8.9413232375894
0000c0 c7 b2 1f ec 05 69 22 c0 8f a4 5a 92 18 85 22 c0
       -9.205123309010913 -9.25995309216003
0000d0 13 50 28 de f1 48 23 c0 a8 c3 70 3a b6 85 23 c0
       -9.642470304890628 -9.761155916466876
0000e0 1c 6c 3b ae be e7 22 c0 30 9e cf 02 f8 7a 23 c0
       -9.4526266524827 -9.740173423618302
0000f0 9c a0 5d 52 5d 16 25 c0 a3 f3 11 94 c2 e2 23 c0
       -10.543680738381504 -9.94289076537263
000100 93 a3 1d 3d 80 d8 23 c0 6a ba f1 a5 1e 73 1b c0
       -9.922853383892095 -6.862421601179998
000110 25 d8 eb 68 f9 98 3a 40 36 23 66 f3 5d 02 55 40
       26.597555692271403 84.03698430036897
000120 43 e5 b4 55 26 98 58 40 d6 e5 00 c1 03 fc 63 40
       98.37733976998884 159.8754582421813
000130 e8 d3 cf 36 16 38 70 40 75 87 a5 37 20 16 75 40
       259.5054233663818 337.38286556873146
000140 30 66 c3 ba ca c4 77 40 22 37 15 72 14 63 79 40
       380.2994945175915 406.19249161040545
000150 7e e2 c6 44 bc 9a 78 40 cd b2 a8 1e af a1 78 40
       393.6709640282569 394.10525384805516
000160 0a f9 01 48 27 73 76 40 6d e0 7e 35 a6 5b 76 40
       359.19709015627507 357.7280783611412
000170 83 e0 e7 63 b5 2f 79 40 df 37 cb 9f 89 87 7c 40
       402.98178473069146 456.47109965688827
000180 96 08 00 41 d7 59 7f 40 12 bb f5 28 71 d4 7d 40
       501.6150522233305 477.277626953016
000190 f0 17 aa 16 24 fb 79 40 90 70 c5 99 51 1d 79 40
       415.69631067698265 401.8324220383156
0001a0 79 ec 04 9a 82 58 7a 40 74 e3 98 96 b5 b5 7b 40
       421.531885165437 443.35683307382646
0001b0 cf ea d0 9d 8f 6e 7c 40 d5 56 93 ca 3b ff 7c 40
       454.91006261452 463.95209748796816
0001c0 11 d0 bb fe b6 5b 7e 40 6c e2 74 de 64 a5 7f 40
       485.7321765266834 506.3371262136268
0001d0 5e 56 f7 f3 c3 10 80 40 a0 d1 30 00 60 15 80 40
       514.0956801722748 514.6718753637288
0001e0 50 a0 ac 63 d8 87 80 40 ab 22 6b 90 2f 01 80 40
       528.9806588636802 512.1482246751742
0001f0 2e 54 06 60 b2 c2 7c 40 21 2e 5c fe 83 ad 7c 40
       460.1685486075611 458.84472499854934
000200 dd 51 7c 05 7a 50 7a 40 1c dc e6 ec c8 4b 75 40
       421.02979038774885 340.73655405215845
000210 7a 70 45 51 98 40 73 40 4c 52 de ca 70 1f 71 40
       308.0371868813014 273.96503722042394
000220 fc d7 a9 15 d1 ed 66 40 07 c1 40 b9 6e 89 60 40
       183.43177302525135 132.29476606986302
000230 77 19 7b 6c 77 4b 53 40 58 ae 5d d3 7f b7 4f c0
       77.17916404744561 -63.4335884292056
000240 f5 b9 35 42 e2 13 6d c0 be b3 ca c8 50 06 77 c0
       -232.62136946195065 -368.3947227399875
000250 e6 03 31 fb d2 89 74 c0 ca 9e 3f 3d 36 a9 70 c0
       -328.6140090860994 -266.5757420048873
000260 ea aa b8 2d 00 51 64 c0 b9 aa d8 52 4a 15 50 c0
       -162.5312718016424 -64.33266135367275
000270 83 03 e3 0d c3 eb 27 40 8e ec f5 4d a6 01 4c 40
       11.96047252079166 56.01288771160135
000280 fe 72 29 bb 7a 50 50 40 e9 d0 ec d3 b8 78 50 40
       65.25749091193936 65.88628099562233
000290 6e 4c bb 04 bd 1f 5e 40 f3 d6 53 d7 b8 29 56 40
       120.49591177264094 88.65190680682626
0002a0 49 9d c1 3a 37 c0 32 c0 46 41 29 25 ad 71 4f c0
       -18.7508427355472 -62.88809647097018
0002b0 35 15 51 16 4d 97 50 c0 9c bc 28 cd 23 d8 3c c0
       -66.36408002775427 -28.84429628605413
0002c0 e8 50 20 ba f1 5c 31 40 3b e1 7f ff ea 16 41 40
       17.363063462152155 34.17904657119876
0002d0 bd da 7a 92 54 81 3a 40 9b 91 8f ec 4b f6 e5 3f
       26.505196719163667 0.6863155002907207
0002e0 93 52 80 02 51 01 30 c0 72 1e fa 7f dd 61 25 c0
       -16.005142361000775 -10.691143035204025
0002f0 c4 db 71 38 0c 90 2b c0 16 d4 bc a2 ef 3c 24 c0
       -13.781343234919298 -10.119015775251722
000300 03 47 03 4e cb af 37 40 e3 9e 77 bd 27 37 39 40
       23.686695934105057 25.215450135902653
000310 bf 68 a2 2d b9 f1 1d c0 bf 68 a2 2d b9 f1 1d c0
       -7.486057961499852 -7.486057961499852
000320 1f 0d 19 0e 8a 6f 24 40 e4 a3 15 30 3f b0 25 40
       10.217850151594176 10.844232084886194
000330 20 d5 54 c4 34 25 27 40 43 72 dc e7 cc 5f 28 40
       11.572668204646618 12.187110181484178
000340 46 52 51 b1 85 de 27 40 eb 2c 7b 11 10 19 28 40
       11.934613743950774 12.048950716291492
000350 79 54 7d f1 45 e2 28 40 63 c3 26 32 5b 7e 28 40
       12.44193987517268 12.246789519531097
000360 55 f1 39 8a ac a3 28 40 0e ca 68 11 b2 9e 29 40
       12.319675750325283 12.80995230106512
000370 78 c3 62 54 dd dc 29 40 82 3e b9 c8 7a 51 2a 40
       12.931376111084077 13.15913989316255
000380 c9 3c 95 3a 2f f7 29 40 bd 3a f8 24 c8 95 29 40
       12.982782202451192 12.792542605687567
000390 95 04 89 a4 2f 52 2a 40 85 62 c3 38 19 c8 2a 40
       13.160519735074823 13.390817426539124
0003a0 c9 06 71 7b 7f 18 2b 40 38 f3 b6 8f d5 27 2b 40
       13.54784761194914 13.57780121906545
0003b0 32 38 83 7a 72 5b 2c 40 04 b5 b7 38 53 fc 2b 40
       14.178607777135856 13.992822430062468
0003c0 93 35 41 1f 33 75 2c 40 8e 63 4e 94 0f 99 2d 40
       14.228905655584446 14.79894698578735
0003d0 cf 74 30 c0 bd b9 2d 40 6d 46 d1 24 5d 79 2d 40
       14.862775808253359 14.73703875593784
0003e0 de 08 b0 6c d8 16 2e 40 68 3e 13 e6 82 3b 2e 40
       15.044619938362697 15.116233053063482
0003f0 49 05 0e b0 df 51 2e 40 16 c8 02 66 4d 79 2f 40
       15.159909726821427 15.736918628539609
000400 4a 95 14 13 31 99 2f 40 b2 62 21 fd d4 bd 2f 40
       15.799202533972352 15.870765600514776
000410 4b bd a9 81 22 b4 30 40 ce d1 a8 e8 10 61 30 40
       16.70365152734784 16.379164258208952
000420 19 9e 68 77 4c 54 30 40 53 b8 0d 5b e4 bc 2d 40
       16.329291785279654 14.868929715561682
000430 56 19 d7 71 d4 24 15 c0 d2 2a a6 eb 49 a0 3b c0
       -5.285966662171935 -27.626127937381916
000440 55 b2 bd d6 23 55 45 c0 da 1c 87 e5 f2 05 53 c0
       -42.665156214356706 -76.09295023150062
000450 c0 b1 bd 47 70 f1 57 c0 26 6e 2f 75 49 64 59 c0
       -95.77247804188573 -101.56698350555288
000460 dc 4f 6f bd d9 e7 57 c0 a7 41 d1 e2 05 d7 55 c0
       -95.62266479368503 -87.35973425326539
000470 09 cc 5d cc 89 47 56 c0 86 ce 08 cd 08 8b 59 c0
       -89.11778554115166 -102.17241216526062
000480 c9 36 9e c8 06 84 5a c0 ae 64 f9 e6 87 41 5b c0
       -106.0629140420016 -109.02391981463254
000490 f5 c0 ff 6a 7a 24 5e c0 d1 b2 56 0d cf bc 61 c0
       -120.56997179962111 -141.9002749150591
0004a0 4a 46 33 0d ab c5 62 c0 20 5f 03 74 5b ad 60 c0
       -150.17713031782688 -133.4174137178279
0004b0 13 d2 75 30 30 95 5f c0 77 fe 53 7c 9b 76 5d c0
       -126.33106624132078 -117.85324009134807
0004c0 db cb 11 50 1d fe 5d c0 31 05 3f 79 fc 11 60 c0
       -119.97053910959168 -128.56206953343056
0004d0 91 b9 a5 41 8f 38 5f c0 22 04 37 dd eb a4 5f c0
       -124.8837436788947 -126.57689600346251
0004e0 c4 5c d1 18 bc b6 60 c0 7a bb dc d4 9e 08 61 c0
       -133.7104610528096 -136.26938860999854
0004f0 01 89 85 c7 84 ed 60 c0 82 9f 0e ac c5 34 61 c0
       -135.42245842057312 -137.64912989479132
000500 1c b8 c2 36 e4 20 62 c0 30 5b 1c 93 0b bb 62 c0
       -145.02785814314927 -149.8451629213173
000510 a8 93 1d 73 c1 32 63 c0 74 54 df e0 0a be 63 c0
       -153.58611446167674 -157.93882793063278
000520 b0 e4 97 31 7d 71 64 c0 48 e9 c2 b9 6c 36 67 c0
       -163.5465324370066 -185.70077217167477
000530 c3 c9 26 0d d8 34 6b c0 ff 33 58 f5 b3 a7 6a c0
       -217.65137345863158 -213.24071757533235
000540 0e a4 83 e5 87 58 69 c0 27 aa 82 0b 68 ee 66 c0
       -202.7665889330969 -183.45020080109063
000550 ca c1 07 83 2e 32 5d c0 ab cd f4 93 79 4e 3f c0
       -116.78408885724562 -31.306542632357075
000560 7e b7 a7 59 5d 8e 44 40 aa df 4b 1a bc 67 58 40
       41.1122238224916 97.62085587892093
000570 37 3e 5a b0 17 14 61 40 2b 0d 46 2c 76 5b 61 40
       136.62789170861808 138.85817540819093
000580 f4 33 e3 8a b0 6f 59 40 1b 86 f4 7a 87 7c 51 40
       101.74515030086314 69.94576906089098
000590 33 09 27 e2 12 b4 59 40 9e 19 12 c0 86 ae 43 40
       102.81365255176642 39.363487252080844
0005a0 86 40 fb 98 72 20 17 40 85 84 1b 44 5c 6b 41 c0
       5.7816871550895765 -34.838753236233096
0005b0 1d f3 94 bc 96 d0 53 c0 66 35 ce 05 bb 35 47 c0
       -79.25920023485055 -46.41976997917918
0005c0 29 bc 0b 25 8e 9e 28 c0 3a d1 00 f1 42 5d 2c 40
       -12.3096782280755 14.182151347493903
0005d0 c5 c4 5c fb 96 7f 2f 40 83 51 99 f5 d4 c5 13 40
       15.749198775362297 4.943195188029111
0005e0 bf 15 ea e4 6a c4 11 c0 01 34 c1 c3 83 d4 19 c0
       -4.441814019000446 -6.4575338923141326
0005f0 8a 12 ea 99 f5 51 1f c0 8b 30 4b 87 6c 44 e8 3f
       -7.830038456832549 0.7583525316672576
000600 c2 92 93 5c 41 04 04 40 99 fd 17 e4 16 44 19 c0
       2.5020777924094952 -6.316493572201034
000610 d7 65 41 bf 8c 5e df 3f 3c 85 e6 69 60 2e 0f 40
       0.4901458614091018 3.8976448319887407
000620 5b 9b 35 37 71 57 1b 40 d2 6b ba 1f 5e 9b 24 40
       6.835392820975211 10.303452483660212
000630 2d f8 63 6b bc e6 f2 3f 2d f8 63 6b bc e6 f2 3f
       1.181332034582293 1.181332034582293
000640 e6 43 eb 6e 70 86 44 40 e5 50 0b d5 a3 bd 44 40
       41.05030619132576 41.48156226208247
000650 04 d0 a9 4e c7 f4 44 40 1a e0 22 e1 0b 25 45 40
       41.912332375446596 42.289425031689646
000660 b4 82 c6 53 12 67 45 40 7a 88 00 66 7c 98 45 40
       42.805246803215965 43.191296339283284
000670 19 da c0 19 d4 d3 45 40 56 88 40 3a 2a 13 46 40
       43.65491029659842 44.14972618247036
000680 ad c3 d7 bd 80 4e 46 40 d1 f9 22 c5 f0 93 46 40
       44.613303881028834 45.15578521926694
000690 c9 c2 d1 bd 49 d6 46 40 5a 15 67 02 d0 19 47 40
       45.67412541143637 46.20166044267053
0006a0 ec b7 f6 cc 6b 57 47 40 b3 a3 dc 95 5e a5 47 40
       46.68297731444167 47.29194901727114
0006b0 89 92 68 a5 bf e6 47 40 d2 5d 34 a7 e0 21 48 40
       47.80272357564997 48.2646683698364
0006c0 66 fc 47 a2 10 6f 48 40 d9 61 bb 77 33 d0 48 40
       48.86769512667597 49.626570669646476
0006d0 dc 70 54 40 14 1e 49 40 70 bf af fe ef 5e 49 40
       50.23499302027787 50.74169906217037
0006e0 23 f6 03 f9 95 b4 49 40 4c bf 8a 05 2e 1a 4a 40
       51.41082680409843 52.20452946924942
0006f0 cd 0e a3 a4 26 4b 4a 40 05 08 4f ed 12 b4 4a 40
       52.58711679422195 53.4068276058097
000700 56 fd a7 c7 6e 26 4b 40 99 ed e9 57 ba 75 4b 40
       54.30025573446862 54.91974924967071
000710 f7 f3 a9 af 15 dd 4b 40 8d 57 49 4b ad 39 4c 40
       55.72722430990682 56.45060101586487
000720 8f fb d3 f9 5e 70 4c 40 fb 4c 30 6a 48 02 4d 40
       56.87789843416896 58.01783492430146
000730 d8 51 09 46 6e 95 4d 40 f8 10 71 2d 95 d1 4d 40
       59.16742778258384 59.637365036209246
000740 68 6e a4 bf 9c 45 4e 40 99 33 4a 1a 01 c3 4d 40
       60.54384608773108 59.523471151572444
000750 d6 55 9a 57 0a f7 41 40 06 f6 56 63 9b 61 45 c0
       35.930003118857414 -42.762554566823425
000760 09 b8 10 9d 46 0d 61 c0 5e 29 89 98 74 2a 6b c0
       -136.4148698164502 -217.32673289098142
000770 3b e3 da 51 e7 44 6d c0 4e 8e 83 03 84 49 69 c0
       -234.15323727370728 -202.2973649568034
000780 38 eb 47 37 7b 14 5d c0 d7 1d de 1e b6 f0 45 c0
       -116.32002050422022 -43.88055787892852
000790 fb ff 1c 62 59 53 1b c0 ec bf ef da 30 26 3d c0
       -6.831395657558455 -29.149182971508637
0007a0 6f a3 7b d2 c1 41 4e c0 a1 41 55 34 0e e8 51 c0
       -60.51372748410255 -71.62586696935479
0007b0 9c ca 56 d7 69 62 52 c0 ea 69 59 99 69 b8 52 c0
       -73.53771003223159 -74.88144525272187
0007c0 35 9e ea a2 1e 2b 53 c0 8d 91 dc e5 1b 8e 53 c0
       -76.67374489700235 -78.22045275249384
0007d0 13 6b a9 88 f9 f0 53 c0 96 08 7a 22 d0 60 54 c0
       -79.76523033661606 -81.51270353238428
0007e0 62 d6 f5 12 18 bb 54 c0 2b 97 88 3b a2 2b 55 c0
       -82.92334436423837 -84.68177688921848
0007f0 fd bd 53 a1 42 b6 55 c0 6c 49 82 4a f1 36 56 c0
       -86.84781678369468 -88.85847723697015
