robot_go2/robot_go2_primitives/point_right_weights.npy (npy, 9728 bytes, 1 tensors)

array f8 [12, 100]
-13.019297577040945 -8.1975469383175 -7.278363523333935 -7.1741624067545775 -7.186947688829836 -7.361955018688347 -7.528150850648126 -7.315138346494168
-7.614582748460015 -7.871223418381124 -7.617425592289974 -7.821137562166753 -8.121885489338004 -7.876056407953088 -8.07957123263953 -8.492906582499765
-8.090281880465055 -8.352615607049517 -8.75838741170353 -8.550511395342314 -8.51203614617848 -9.133819175419875 -8.962081130176118 -8.702477020980757
-9.625807030748543 -9.220610374934525 -9.224371294212869 -9.965365910651165 -9.681462006391904 -9.567755410594964 -10.198429335373923 -10.17908846804907
-10.139235623526348 -9.627885220343508 13.258900981618176 89.81850498937106 90.35094194055117 141.30243461840283 251.97670039284924 330.63917465789814
372.97124780967386 410.97898299252927 390.8354761765312 399.6045109904666 361.8050971283184 353.85830915965823 392.92306808549074 444.70854123539164
510.7120480627784 495.0146070913488 416.710702580964 394.03810145074743 421.3351496074823 443.6439410127846 456.5569552161222 460.87675552563775
485.0178619536587 505.02727862600636 519.0527409117248 512.0498681806214 532.15480060357 530.7317609078133 462.17308467172916 463.28039136646686
445.9137173106431 350.3284634386218 316.50475717121924 301.68153710366994 204.4481435614468 143.448095913978 112.47942027321523 -27.47399519667818
-204.11669417446487 -353.4370897583344 -361.1955673007116 -277.2247949300753 -192.34402787755113 -82.83899076745232 -0.24462624449586612 51.55009211272473
71.00154351842274 45.45282877740433 114.71215662673598 128.27590379236096 -4.1927534919090865 -60.271438199276616 -73.8961701720647 -46.65238487331444
12.992235213940809 33.59274574950221 32.190798363169904 11.462398898201574 -19.30041340662535 -12.386310586888564 -12.769616339514235 -14.492998909956171
23.98353956225966 30.01386784531523 -23.830715860611875 -23.830715860611875 13.157626877393984 11.680402666460912 11.67035907481928 12.172656737411119
11.854154185597421 11.991292569575325 12.53610827309572 12.368163819859602 12.296237335284355 12.944847233162232 12.97778872916557 12.768351522189693
12.989070027080917 13.100253363459979 13.085815251804446 13.662787265499242 13.531481663892217 13.364641303911403 14.160717958125469 14.18249765633016
14.232360185140005 15.042153682291298 14.730828016854966 14.41054362328209 15.431100021811737 15.266268362236238 14.915568532299162 15.864881071424863
16.17948196453487 15.469899835590136 16.525680090663695 17.031408252112378 16.267620004165174 16.52010113442706 1.3747061946705492 -29.28716035061772
-37.21924483792706 -73.8171985598952 -92.91693521091362 -103.55555574881751 -96.48630266754385 -87.71540952321503 -85.266600186626 -104.62393082663736
-104.09008340633623 -105.06385711294081 -121.51443051965302 -136.4841120108591 -154.45565600065117 -136.75786188655033 -128.35984384995896 -116.694926792956
-117.09433527769293 -131.77493131373208 -125.18959562523632 -125.20120691868821 -133.6110569855153 -137.44418741613322 -135.97047730614588 -136.7183854119925
-145.0329065972967 -149.77445131106876 -153.21974746539632 -157.75228437178777 -162.6861905794364 -175.52748928143222 -220.12766195231066 -219.9567200234916
-202.84139445976408 -197.82286817855794 -139.00477032617295 -47.646946426182325 21.065761785768547 95.05962959460909 128.7551714039867 143.19150064550237
117.0201154524172 57.53813724651111 117.57342675452146 47.06137241374312 15.235565325784911 -13.061065672604432 -90.19201328738922 -55.73813700265502
-18.82885379580678 8.46855425371729 22.25121198238499 8.312527704638153 -4.539084736853987 -4.694668019006377 -9.359725645169892 -3.099495075427407
7.605560275547877 -4.324988818604054 -4.740580726689503 1.85037564455005 0.782840914404071 19.24698415035362 28.891245500753904 28.891245500753904
40.51399076996957 41.4484598469227 41.859862488968275 42.26670129614011 42.7381850873185 43.192552462849314 43.686789741725796 44.100771833687304
44.64642260059328 45.1584749606091 45.59843143156847 46.129561415215385 46.69040378042617 47.21005204367206 47.82259116799786 48.2609994116572
48.994386843692496 49.49574421376271 50.18853474849491 50.700884493154916 51.41880272946375 52.05658701213435 52.70194858753328 53.46638488660574
54.14233544518472 54.79823302122264 55.667657958906744 56.466588051708655 57.1651840067093 57.96802664028085 58.83960020591745 59.72403165356472
60.573286146266554 61.249149974961355 49.289090266322916 -29.75247912456699 -122.66013380944092 -218.26289406425187 -244.7715816828337 -210.62204396407014
-123.98521182868616 -51.52101061790149 -1.2952714752458319 -23.363429440259573 -61.028831521030426 -72.02295864809408 -73.64533624905486 -75.02928312185966
-76.54522404441406 -78.28418819353817 -79.96830894409518 -81.50841955352995 -82.85040469719468 -84.83987966718416 -86.74778242764894 -88.80298258782561
00000000: d890 3c5f e109 2ac0 47ff 4edf 2465 20c0
00000010: 6e79 d453 0b1d 1dc0 72d0 44a1 57b2 1cc0
00000020: 0459 0637 6fbf 1cc0 de8e 1f56 a472 1dc0
00000030: 9a8d 9b93 d31c 1ec0 c2a1 6fa0 b342 1dc0
00000040: 4749 152e 5575 1ec0 34d3 e5fd 217c 1fc0
00000050: 3e65 1a6a 3e78 1ec0 ef17 fc48 d848 1fc0
00000060: 9b20 5dc6 673e 20c0 6270 56ee 1481 1fc0
00000070: 44c7 838f bd28 20c0 a5a3 6740 5efc 20c0
00000080: 9f09 386d 392e 20c0 79ac 6808 8ab4 20c0
00000090: f4ed d55a 4b84 21c0 2124 2ea1 dc19 21c0
000000a0: b369 0c9a 2906 21c0 1903 6cf2 8344 22c0
000000b0: 0969 dce5 95ec 21c0 939b 6e11 ab67 21c0
000000c0: fe57 75c7 6940 23c0 1101 d3d7 f370 22c0
000000d0: 669c 55cb e072 22c0 0cd7 cd70 44ee 23c0
000000e0: ecd6 8d96 e85c 23c0 cd43 51d6 b022 23c0
000000f0: fcfe a387 9865 24c0 16b9 d27b b15b 24c0
00000100: b9f7 42e4 4947 24c0 c408 ee2b 7a41 23c0
00000110: 9ce7 61ab 8e84 2a40 8a3d c062 6274 5640
00000120: 925d 2fd5 7596 5640 fd66 5d8b ada9 6140
00000130: e4a8 2e21 417f 6f40 acc1 340f 3aaa 7440
00000140: c6ad 243b 8a4f 7740 0e04 12ea a9af 7940
00000150: 9e6c 441c 5e6d 7840 0762 b713 acf9 7840
00000160: b2c3 86ad e19c 7640 6ea9 62a2 bb1d 7640
00000170: a072 0ae3 c48e 7840 fe9d 552f 56cb 7b40
00000180: 046d 828c 64eb 7f40 203a a5d4 3bf0 7e40
00000190: c566 ab09 5f0b 7a40 3f4e 4410 9ca0 7840
000001a0: 76b6 d5c5 5c55 7a40 6867 1795 4dba 7b40
000001b0: 4e69 df49 e988 7c40 3953 cd30 07ce 7c40
000001c0: e9ac 9d29 4950 7e40 3c69 b6bb 6f90 7f40
000001d0: 2758 6d03 6c38 8040 0ae7 4921 6600 8040
000001e0: e04d 1908 3da1 8040 657c 76a5 da95 8040
000001f0: 40c8 6ef4 c4e2 7c40 e550 a87b 7cf4 7c40
00000200: 05f0 0a96 9ede 7b40 ffec e062 41e5 7540
00000210: ee6c 417c 13c8 7340 5e34 7393 e7da 7240
00000220: 778a 2a31 578e 6940 3700 3ecd 56ee 6140
00000230: ec9f 5ed2 ae1e 5c40 a231 ccbf 5779 3bc0
00000240: bbde 6bf5 bb83 69c0 6897 d451 fe16 76c0
00000250: 938b 2d0b 2193 76c0 ae8f 91c2 9853 71c0
00000260: d25f c046 020b 68c0 a2f6 5406 b2b5 54c0
00000270: 9430 edab e94f cfbf 5af8 186b 69c6 4940
00000280: 5f49 fc49 19c0 5140 d3d1 1a4b f6b9 4640
00000290: 7c5d 63f9 93ad 5c40 0ca1 3034 d408 6040
000002a0: dfc1 df2b 61c5 10c0 9c63 a67c be22 4ec0
000002b0: ca2a 23da 5a79 52c0 33a5 f758 8153 47c0
000002c0: 74a1 0341 06fc 2940 3d7a bc17 dfcb 4040
000002d0: f8f8 ac14 6c18 4040 e2f6 628c bfec 2640
000002e0: 5fbc 9ce4 e74c 33c0 e591 5180 cac5 28c0
000002f0: 9b5c 2127 0b8a 29c0 6873 665a 6afc 2cc0
00000300: 373a ae3f c9fb 3740 4b18 d6d7 8c03 3e40
00000310: b498 6dcb a9d4 37c0 b498 6dcb a9d4 37c0
00000320: 6ac1 5678 b450 2a40 231f 01bd 5d5c 2740
00000330: ebd9 fd4d 3957 2740 c93a c176 6658 2840
00000340: cfc3 89b2 53b5 2740 0a30 1eb3 8afb 2740
00000350: 501f 98c8 7c12 2940 1fbc dbf7 7fbc 2840
00000360: 0dcd 856b ac97 2840 b64b 3c04 c3e3 2940
00000370: b953 6cb9 a0f4 2940 ea45 e75e 6589 2940
00000380: 6288 f762 67fa 2940 cdbf aa68 5433 2a40
00000390: 07ff 07fa ef2b 2a40 8d0c 3bda 5853 2b40
000003a0: 75ae 595d 1e10 2b40 fb23 d643 b2ba 2a40
000003b0: bd0e cc9f 4952 2c40 c211 3355 705d 2c40
000003c0: 3d23 08ea f776 2c40 b7b1 dd2a 9515 2e40
000003d0: 05c9 fe16 2f76 2d40 e527 17c6 32d2 2c40
000003e0: fcf8 5d24 b9dc 2e40 3b87 a753 5488 2e40
000003f0: 78f1 0e66 c5d4 2d40 0166 19b1 d1ba 2f40
00000400: 2be6 af87 f22d 3040 c582 14b6 96f0 2e40
00000410: 138f 6df8 9286 3040 aea5 075f 0a08 3140
00000420: 12a5 9dbe 8244 3040 0afa 1259 2585 3040
00000430: 767f 3bec cbfe f53f 6b9c 3a57 8349 3dc0
00000440: 555b 0037 109c 42c0 a545 30fb 4c74 52c0
00000450: 31db 0511 af3a 57c0 aa11 b339 8ee3 59c0
00000460: bd43 3995 1f1f 58c0 275d 0645 c9ed 55c0
00000470: a2aa 3afa 0f51 55c0 ebd7 8f7b ee27 5ac0
00000480: 1708 31ed c305 5ac0 a8ec 243c 1644 5ac0
00000490: 567e fc6d ec60 5ec0 b3c7 78d8 7d0f 61c0
000004a0: bca0 e4bb 944e 63c0 cb33 9267 4018 61c0
000004b0: b2e7 3fd7 830b 60c0 0d37 3aae 792c 5dc0
000004c0: 3723 d596 0946 5dc0 0524 c13c cc78 60c0
000004d0: b376 b055 224c 5fc0 abdf fb92 e04c 5fc0
000004e0: fa18 61c7 8db3 60c0 c832 87c8 362e 61c0
000004f0: 046d 6c26 0eff 60c0 cd4d 6703 fd16 61c0
00000500: c8e6 2292 0d21 62c0 4fac 1d4e c8b8 62c0
00000510: 3228 d62b 0827 63c0 dac3 acb6 12b8 63c0
00000520: 1630 f245 f555 64c0 be97 3331 e1f0 65c0
00000530: c5c3 84ce 1584 6bc0 658a 4f73 9d7e 6bc0
00000540: 1df7 12b4 ec5a 69c0 6a7a a5ef 54ba 68c0
00000550: ee5c 1914 2760 61c0 cc5b f723 cfd2 47c0
00000560: d533 afc3 d510 3540 11ae a5f8 d0c3 5740
00000570: ea5f 385d 2a18 6040 0f33 f6c5 20e6 6140
00000580: ac91 5292 4941 5d40 2a43 69ae e1c4 4c40
00000590: 8d54 2106 b364 5d40 9ff3 1e0d db87 4740
000005a0: b4a2 b404 9c78 2e40 127d f5ff 431f 2ac0
000005b0: fc6e 19f2 498c 56c0 762f f745 7bde 4bc0
000005c0: d427 2ac3 2fd4 32c0 223c d857 e6ef 2040
000005d0: f5b4 b06d 4f40 3640 9607 9da1 03a0 2040
000005e0: 183e 4ad4 0528 12c0 86d6 9c0d 57c7 12c0
000005f0: 0a13 b3f5 2db8 22c0 1397 f812 c4cb 08c0
00000600: 84f0 2cfe 176c 1e40 5fe1 6dde c94c 11c0
00000610: a2b7 44cb 5af6 12c0 a784 ea7d 239b fd3f
00000620: 51c2 aa63 080d e93f 2e66 705a 3a3f 3340
00000630: f671 46aa 28e4 3c40 f671 46aa 28e4 3c40
00000640: 8abb 1573 ca41 4440 140d dc21 67b9 4440
00000650: 8496 5af9 0fee 4440 7e5c a044 2322 4540
00000660: c436 54d9 7c5e 4540 dd59 218f a598 4540
00000670: 65f8 ebb9 e8d7 4540 c005 6917 e60c 4640
00000680: c278 ccf9 bd52 4640 8686 52e8 4894 4640
00000690: 16be b166 99cc 4640 3796 ec77 9510 4740
000006a0: 8bfb ac26 5f58 4740 c503 41fc e29a 4740
000006b0: be43 daaa 4ae9 4740 e5ab c06d 6821 4840
000006c0: b09d 6e11 487f 4840 63a5 e08b 74bf 4840
000006d0: fd78 19e8 2118 4940 dc2f 4495 b659 4940
000006e0: dc42 ed53 9bb5 4940 693f 433e 3e07 4a40
000006f0: e476 8973 d959 4a40 00a9 fd7f b2bb 4a40
00000700: a310 410c 3812 4b40 885e e87f 2c66 4b40
00000710: 9435 e5d0 75d5 4b40 8265 4328 b93b 4c40
00000720: c151 e1bf 2495 4c40 ddd4 044c e8fb 4c40
00000730: ae10 0105 786b 4d40 26aa b811 addc 4d40
00000740: 7cbb c070 6149 4e40 0e21 7925 e49f 4e40
00000750: 74b9 ebe8 00a5 4840 1cf0 ce78 a2c0 3dc0
00000760: 17a2 e0a1 3faa 5ec0 c708 d0a0 6948 6bc0
00000770: d4be 11cc b098 6ec0 604b bec8 e753 6ac0
00000780: b9f5 e9b5 0dff 5ec0 b960 d679 b0c2 49c0
00000790: d9f5 1995 6eb9 f4bf 8651 38b6 095d 37c0
000007a0: b6f5 53c0 b083 4ec0 5dae 8c27 7801 52c0
000007b0: 4b27 6930 4d69 52c0 92ad 50c6 dfc1 52c0
000007c0: 14f0 63f3 e422 53c0 f849 ad23 3092 53c0
000007d0: 0ad4 13c6 f8fd 53c0 b7c3 2af2 8960 54c0
000007e0: 38b4 d207 6db6 54c0 68c8 a596 c035 55c0
000007f0: a5d1 d3aa dbaf 55c0 fb7d 1411 6433 56c0
