robot_go2/robot_go2_primitives/tilt_left_weights.npy (npy, 9728 bytes, 1 tensors)

array f8 [12, 100]
00000000: 73c8 5de4 97d1 49c0 fae5 e0ae 7bf7 49c0
00000010: 2b66 9114 b2db 49c0 a0fb a2bc 801a 4ac0
00000020: 97d8 eea5 eb9d 4ac0 bb4a 6d65 b9cb 4ac0
00000030: 1d5f 54d9 5cd9 4ac0 5fd9 a5ce 1863 4bc0
00000040: 96a5 3abe 029f 4bc0 2a87 fc3f ade2 4bc0
00000050: f836 66be 795a 4cc0 2414 37d2 768e 4cc0
00000060: 801d 1852 78be 4cc0 be37 b846 ea4b 4dc0
00000070: d4a6 4168 e080 4dc0 138d f87a 7dd9 4dc0
00000080: 4e1f 2ac2 8171 4ec0 0f7d e7fa 098a 4ec0
00000090: a061 2dd5 c802 4fc0 313a bf08 3a99 4fc0
000000a0: 33fd e4ec 0c82 4fc0 a7ec 67ce e177 4fc0
000000b0: d1f3 f6ab 3a59 4cc0 e4df f97d 422f 39c0
000000c0: 1232 dab4 eb32 4c40 8880 10ca bf59 6a40
000000d0: 68dd 382a a994 7840 4ee3 ea79 f60a 8040
000000e0: 8896 3fe0 c701 8340 0637 1f40 f659 8640
000000f0: a504 76be 1dd1 8740 23bb 41c1 9bd3 8540
00000100: 2868 16b1 1b3c 8240 9f97 70fd c94b 7e40
00000110: 3aaf 3e92 31ba 7940 0a3c 9454 f7be 7740
00000120: 2d11 c847 028c 7840 11df 65c7 1e31 7c40
00000130: 3c09 2aba eb98 7e40 0a05 74f5 aa02 8040
00000140: 1826 3c68 ae41 8140 738d 56ea 2fcc 8140
00000150: ae75 d7ff 9561 8140 5fb4 e53a 71a3 8040
00000160: 9b73 d89a 4acb 8040 a651 1b3a d478 8140
00000170: 42f5 36ba 1ddd 8140 3c2e dc69 c746 8240
00000180: 6fd5 575d c8ad 8240 3277 d070 4a1b 8340
00000190: 3a5a 7f5f a982 8340 7621 fdcc acd4 8340
000001a0: c8d0 91d4 1034 8440 8852 6cf9 83ab 8440
000001b0: 879e 2d41 e127 8540 3384 760d f5ac 8540
000001c0: 9f74 dd77 fa39 8640 db9c dc18 17b3 8640
000001d0: 407a e71d 7d2d 8740 5d28 a820 57c6 8740
000001e0: 283a 29f6 7669 8840 438a 20a3 d012 8940
000001f0: 4af8 ec94 90cc 8940 1835 4023 a97c 8a40
00000200: dd46 3243 842c 8b40 7904 ee26 bbfb 8b40
00000210: 86b6 ce7a a2db 8c40 36da c443 abb3 8d40
00000220: f959 2ca3 e05c 8e40 ccd3 43c5 ea39 8e40
00000230: f5b2 5d32 a3c4 8b40 5f05 63c0 1cfe 8540
00000240: e03c 59bc 8961 7d40 7a27 ffad 7e8e 6540
00000250: e369 e50d 222a 68c0 6038 e59b 5214 84c0
00000260: e64e a1be 461d 91c0 64ee de44 c4c3 8fc0
00000270: 2d9f 841c e668 81c0 6c35 cc51 97c8 5fc0
00000280: 1a85 ee1a 4cc7 7140 976b 2ad3 ed3a 8140
00000290: 8e2e aabd 5f8a 7a40 46a7 1744 6bdf 6a40
000002a0: e10f 1747 f261 6140 979e 77cb e2bb 6140
000002b0: fa50 2eb6 44c9 5a40 be05 5ee5 e773 4cc0
000002c0: 4df2 6a99 9124 75c0 bae0 aa82 840f 71c0
000002d0: 79ce d643 dc03 5240 8689 2e35 e348 58c0
000002e0: 143e 6361 af64 73c0 3aef c573 2133 5140
000002f0: f458 656d 2909 6d40 6e2b 3008 1c1e 4940
00000300: 9345 3e71 0e03 2940 17bd ee14 86e2 4940
00000310: ccf2 e79c 1308 5040 ccf2 e79c 1308 5040
00000320: 27b7 58b2 55c3 2a40 00ea 5e09 2c72 2b40
00000330: 54d4 e125 6fb0 2b40 21f9 b3bd 87f1 2b40
00000340: abba fd39 3006 2c40 ce5a 3dee 30c2 2b40
00000350: 9979 d766 8b9d 2c40 cb88 f9e4 c3af 2d40
00000360: cb67 bf81 6349 2d40 0efe e7b4 8996 2c40
00000370: 7724 6cda 258d 2e40 90ec 3b31 da31 2e40
00000380: 0460 6e88 4958 2d40 a184 d447 f7e0 2e40
00000390: b539 4ca3 b63f 2f40 53fa ef23 b706 2f40
000003a0: 48c5 8975 f02b 3040 8762 8396 b48b 3040
000003b0: c770 d1de 5251 3040 61c3 a9a2 2e68 3140
000003c0: a987 2d84 9b98 3040 7816 4635 fb8c 3040
000003d0: 70b2 8bea 8a69 3040 bb46 2c16 05ee 2c40
000003e0: c5b4 aea2 9037 2640 53c9 739a e177 e4bf
000003f0: 2480 be6e 5f95 31c0 90a5 aabc f547 44c0
00000400: 4129 90d7 e096 52c0 463b e0c9 2a08 5bc0
00000410: 90cb 9070 ecef 60c0 4557 3632 ed31 61c0
00000420: 913c 934d 9f46 60c0 2bcb 0658 6f9a 5bc0
00000430: 1e95 9279 b07f 57c0 438b ca22 9e1d 55c0
00000440: 418b 7451 1eb0 54c0 bdb3 1e63 a0a4 54c0
00000450: c48d 1cfe 024b 53c0 0067 a4b7 45bf 52c0
00000460: 2edf 0abd 35c3 54c0 042f 4573 2af9 55c0
00000470: c1bd abbb 8aa3 56c0 b5c6 db14 55dc 56c0
00000480: 95d0 91ed 3ff2 57c0 5be5 5a55 4c9e 58c0
00000490: 4906 9d32 7aee 58c0 eba7 ca5a c86f 59c0
000004a0: 501f a50e 9487 59c0 5a03 9065 aa9d 59c0
000004b0: b6d5 22f8 378a 5ac0 02fb 9737 c40e 5bc0
000004c0: bc1c f73a 5c8b 5bc0 d180 46aa fa6d 5cc0
000004d0: 5977 9045 bda7 5cc0 4f30 316c 0f51 5dc0
000004e0: 79f5 a647 9a78 5ec0 877d cc1d e435 5fc0
000004f0: d5ad 1b4c d201 60c0 e47d 279f cb6e 60c0
00000500: 794a c2e2 4e9c 60c0 40bc 3757 5700 61c0
00000510: 4114 c8cf d982 61c0 4d01 550d fadc 61c0
00000520: bd64 e8f0 214c 62c0 439c cd67 530c 63c0
00000530: d563 e1ee 82a0 63c0 2be2 74f5 17f6 63c0
00000540: fbba 953e 4b66 64c0 f2d3 f35d 73d6 64c0
00000550: e914 373e 56db 64c0 04a4 9309 4e1b 65c0
00000560: b80b 4d29 ce21 65c0 f0cd e333 6bdd 63c0
00000570: 0f3b 9972 31c9 55c0 48a3 2cfc 1856 4a40
00000580: 666a e297 6128 6a40 d6f9 37d7 f35f 7140
00000590: fa4a 19b8 f285 6a40 9671 1e6d 2998 5d40
000005a0: 9e28 696f 3dbc 4140 272a 292f b40a 50c0
000005b0: e0e8 27c5 bc62 4dc0 1c39 066f 8172 33c0
000005c0: 86d1 9dd8 789f 3040 26eb 9fb7 63ba 1e40
000005d0: 02e7 3675 cd38 3bc0 a3dd 0bd4 eb6d 2dc0
000005e0: e511 c353 8e49 1140 9a88 ef96 1e8d 18c0
000005f0: fa32 8c1c a9f8 41c0 6cb4 9a47 3993 36c0
00000600: 2a62 41e7 89dd 2a40 edfd 06ca 0547 0f40
00000610: a272 d1f6 e832 16c0 3c3c 2593 eb8f 2b40
00000620: 6202 c15a 6ed0 4040 a3b8 9c90 8f21 3c40
00000630: b675 b329 5d23 26c0 b675 b329 5d23 26c0
00000640: a1f0 5154 c7ea 3dc0 7bcc 49c8 9f1b 3ec0
00000650: af2a eb1a c77e 3ec0 4147 e4cf 8fcd 3ec0
00000660: 7c5d 43d1 ca13 3fc0 7f67 96b9 f07a 3fc0
00000670: e44a acb3 f0db 3fc0 5e40 e35f d30a 40c0
00000680: 145b ac2b 133b 40c0 db88 1ee2 f861 40c0
00000690: 79de 0e8d fba4 40c0 dd3c cf34 4bc6 40c0
000006a0: 2195 87bb 14f0 40c0 c053 264f 6b3e 41c0
000006b0: 3df1 1b28 3c69 41c0 bd53 35b2 858a 41c0
000006c0: 9db9 c715 f3c4 41c0 13f1 220b ee15 42c0
000006d0: 5373 db6b d84d 42c0 a50b 22ca 1a70 42c0
000006e0: c9ad 576c 6ba9 42c0 96b8 6c53 55db 42c0
000006f0: 1f11 8dfc bbf9 42c0 a828 0ec5 d462 42c0
00000700: 7d15 8b83 897a 37c0 99f9 e115 43e0 3440
00000710: ce7a 2441 7a77 5040 60fd fce3 d198 5b40
00000720: 37a7 20c4 fb3e 6540 ad76 b8c2 2b1b 6c40
00000730: 56c3 be97 f808 7040 ab4e e15c 195b 7140
00000740: ecd2 86ed 4c56 6c40 5ee3 eaed 87e1 6340
00000750: a044 bc7d 19b7 6140 315e bde5 ebf3 5c40
00000760: 35fd d5c4 dace 5c40 9be0 e5f7 1b91 6240
00000770: e569 9036 f7a6 6440 876d 892d 3b5a 6240
00000780: 5fc9 ebe7 5bc4 6240 58bc 875f 22f7 6340
00000790: 16ce 2e7d 976f 6440 03bc 8792 34cc 6440
000007a0: bd79 a028 522d 6540 d7e4 b06f 4096 6540
000007b0: 9aa0 2570 1e03 6640 d1cd 5e70 4466 6640
000007c0: 7d1e 6369 cad8 6640 2f55 9bba ac56 6740
000007d0: d935 bc51 8dc9 6740 fcf0 b418 5f3e 6840
000007e0: 3ec5 d459 c1c6 6840 5e91 9cb7 2f55 6940
000007f0: 57ee 0f8d f6ec 6940 4d3b 8c8d d37b 6a40
-51.63744787768601 -51.93346200925221 -51.71637208079877 -52.20705373724127 -53.23375391161351 -53.591595342984384 -53.69814602489189 -54.774194556218156
-55.24227121223082 -55.77091216879337 -56.70684032431558 -57.11300113381756 -57.488046895766274 -58.59308704371459 -59.006848365837556 -59.69914185653956
-60.886772413795015 -61.07842956832075 -62.02175392833601 -63.19708356225272 -63.016019450961174 -62.93657856058535 -56.69710301931594 -25.18460833883718
56.39781819013673 210.80466178153097 393.29130003178443 513.3703497267359 608.2225956886114 715.2452394903819 762.1395234317939 698.4510522017703
583.5135213614021 484.73681396466594 411.6371023605931 379.9353833952342 392.75055673743447 451.07001437943933 489.5575505868944 512.333475977329
552.2101597499013 569.5233961831967 556.1982418854511 532.4302881189031 537.4114281568794 559.1036264547627 571.639515332565 584.8473698808298
597.7228342878351 611.4113479887367 624.3327016782198 634.5843753600918 646.5082179443207 661.4394405806243 676.984987598801 693.6196545847982
711.2472989369597 726.38627788881 741.6860921940024 760.7925427567785 781.18308670243 802.3518736402697 825.5705965531608 847.5825867668345
869.5645812919498 895.4663828463664 923.4543357991649 950.458625352773 971.6096862282712 967.2396340655337 888.579685909294 703.7640388237013
470.09612688883317 172.4529638274651 -193.31665701682422 -642.5403364093618 -1095.31908657116 -1016.470834485674 -557.112359081371 -127.13423581068281
284.4560803715882 551.3661254228672 424.6483742377976 214.98184399242217 139.0608249140196 141.87143491137678 107.14481882594183 -56.90551440325679
-338.2855467012021 -272.9698511767307 72.06031890847397 -97.13886765999459 -310.2928174854908 68.7989167626337 232.28630704683712 50.235230468292556
12.505969561435256 51.76971685082588 64.1261970772859 64.1261970772859 13.381513188676378 13.722992222629728 13.8445979917689 13.971738746852283
14.01208668920784 13.879279561032856 14.307704175761318 14.84329143091272 14.643337301840708 14.294019368476281 15.275679422093374 15.09736780029769
14.672436011765974 15.43938660115447 15.624440291457043 15.513116000217599 16.171637865195663 16.54572430331839 16.31767075169844 17.406961599775403
16.59612299071856 16.55070813141944 16.41227594290325 14.464882557778187 11.108525356127197 -0.6396339432379058 -17.58348743582623 -40.562186797450636
-74.35747326925504 -108.12761160752879 -135.49761226921373 -137.56020460713822 -130.2069461703982 -110.41304588950577 -93.99514617266365 -84.46277684955298
-82.75185047513243 -82.57228925703289 -77.17205765522436 -74.98863020949284 -83.05015493451785 -87.8932159591314 -90.55534259578327 -91.44269296133537
-95.78515185584759 -98.47340902210765 -99.72620835623196 -101.74660367766016 -102.11841169476725 -102.46352519096163 -106.15966609384381 -108.23072614518972
-110.1775042927938 -113.71842438588216 -114.62092722995784 -117.26656632236084 -121.88441649727419 -124.84204812021026 -128.05692105680524 -131.4623561641048
-132.88462961146777 -136.01066170583545 -140.08908833578064 -142.90552393534236 -146.3791431940971 -152.385181333144 -157.01598304769018 -159.69042466000369
-163.1966851162359 -166.7015828859581 -166.85427771337643 -168.85327605091163 -169.05641617820743 -158.9193362664514 -87.14364304508148 52.67263748340207
209.26191324445534 277.9970314203796 212.18587880077376 118.37752845738427 35.47062485346508 -64.16724757213579 -58.77138580750193 -19.447287501353557
16.622937716035743 7.68202101625028 -27.221885038284206 -14.714689852188547 4.3218319976626605 -6.137812002534838 -35.94266087384854 -22.575092768926353
13.432692743998889 3.9096790107139356 -5.549716812642744 13.781094167990993 33.62836775230677 28.13109687639429 -11.069070151478495 -11.069070151478495
-29.91710402489173 -30.107906835572503 -30.495225603498223 -30.802975648147598 -31.07731349844606 -31.48023567125301 -31.859141568721398 -32.08457563968908
-32.46152254024324 -32.765407814893216 -33.288926727543135 -33.54917011374503 -33.875632706835184 -34.48764981624072 -34.82214833607075 -35.08220508197653
-35.53866836788368 -36.17132701116693 -36.60816715445858 -36.875817553161404 -37.32359079629129 -37.71354143913884 -37.951049393539726 -36.77211821738575
-23.47866079469303 20.87602364317863 65.86683682024452 110.38781070428877 169.9682331693418 224.84909187343638 256.56069159046945 277.6936920929972
226.6968906052856 159.04784294010727 141.72186171313388 115.811273035936 115.23210259339687 148.53466410539554 165.21767738538543 146.81972386208892
150.13621898700782 159.7229459429825 163.48724230901342 166.38141752730016 169.41627913802031 172.69536575841514 176.09746558522312 179.19585436359787
182.7747084556503 186.70858507479122 190.2985008884414 193.94910846080882 198.21110240513548 202.66207485751778 207.40509656058813 211.8695743311786
