robot_go2/robot_go2_primitives/tilt_left_weights.npy (npy, 9728 bytes, 1 tensors)

array f8 [12, 100]
000000 d8 8a f3 23 77 04 46 c0 bd a9 1a c4 e5 49 49 c0
       -44.03488587753026 -50.57732440282732
000010 51 7e fd c3 ed f5 49 c0 0e b2 7a 3d f3 ec 49 c0
       -51.92131852986916 -51.851173100385594
000020 e8 04 2e b1 b5 b1 4a c0 91 bd b0 e3 87 d8 4a c0
       -53.38835730311422 -53.69164701585681
000030 de 7c 82 f2 1b bd 4a c0 6d 01 27 06 3c 8b 4b c0
       -53.477415384020546 -55.08776928810662
000040 18 fa 8a 69 95 ae 4b c0 ca 22 84 96 f1 bb 4b c0
       -55.3639347008322 -55.46831017925213
000050 22 b4 04 73 e7 59 4c c0 fa 58 26 5b 7c a9 4c c0
       -56.70237577180548 -57.324107545589825
000060 a2 62 ee b3 14 a9 4c c0 5b 50 e4 3d 4a 6f 4d c0
       -57.32094430103213 -58.86945317886485
000070 da 6a 6f e8 16 83 4d c0 eb 87 c4 77 7a a9 4d c0
       -59.02413659515669 -59.32404992195355
000080 ae 92 45 bf d4 a4 4e c0 c0 7c c4 46 b7 9c 4e c0
       -61.28774252793424 -61.224343152943675
000090 dc d4 eb 3d d5 d2 4e c0 90 14 4e d1 f5 ba 4f c0
       -61.64713262572488 -63.460626757741124
0000a0 2f 83 4e a8 94 8a 4f c0 b7 89 10 06 ec a4 4f c0
       -63.08266166528335 -63.28845287139432
0000b0 84 88 30 41 50 e9 4d c0 7f ec 92 f1 d4 52 3e c0
       -59.82276167745388 -30.323561762209007
0000c0 86 13 32 57 af 21 49 40 40 54 6a 56 be df 68 40
       50.26316347069864 198.991984565424
0000d0 63 22 50 a3 41 14 78 40 61 ae 77 f8 7f 25 80 40
       385.2660248880622 516.6874856329051
0000e0 49 22 f0 03 8c ef 82 40 4e 38 24 3f 54 38 86 40
       605.9433668861831 711.0411360578235
0000f0 88 6d 16 83 78 ad 87 40 b2 42 e7 1e 33 a7 86 40
       757.6838437797715 724.8999612872342
000100 81 28 22 8a d1 29 82 40 67 4d 0e 55 d7 c7 7d 40
       581.2273142498599 476.4900713499723
000110 1a 41 eb 59 83 09 7a 40 01 b1 0d fa 46 d2 77 40
       416.59456817527973 381.1423283133336
000120 d6 dd b2 df fe e4 77 40 be e1 1f 20 24 60 7c 40
       382.31222505445237 454.0088196988471
000130 2d 68 07 22 1b a7 7e 40 51 f7 ed 87 bb c4 7f 40
       490.44412424939475 508.29578392940044
000140 67 97 3e cc 3d 4e 81 40 16 f9 e3 9a e8 e0 81 40
       553.7801747217135 572.1135766802206
000150 6f 3b 5b 9c b4 82 81 40 dc 5d 21 d8 32 87 80 40
       560.3381888511193 528.8998262984055
000160 c1 f7 47 d6 a7 bc 80 40 69 ae 4b 46 77 80 81 40
       535.5819516775592 560.0582395470238
000170 99 d8 4a 6b fd d8 81 40 35 bb a7 0e 60 4c 82 40
       571.1237398002005 585.5469029525763
000180 50 87 3a 6f 1b b2 82 40 8e 48 82 45 a1 17 83 40
       598.26339574552 610.9537458589928
000190 f1 8b 6b 00 94 80 83 40 c8 de 7a c6 ca d7 83 40
       624.072266426285 634.9740113829839
0001a0 f0 e1 fe 69 be 32 84 40 1c 42 07 e9 5b aa 84 40
       646.3429756081296 661.2948780600595
0001b0 32 c2 af b7 97 27 85 40 30 15 08 47 bc ae 85 40
       676.9490808230532 693.8419323569742
0001c0 9d ec 08 37 8b 36 86 40 e7 4c 6c 52 c4 b3 86 40
       710.8179760644158 726.4708603344887
0001d0 3f 03 fb ae 7d 2b 87 40 3b ac dd 92 a0 c6 87 40
       741.4363689051023 760.8284051244913
0001e0 6a 82 0a 36 f6 6c 88 40 0b 23 a6 07 f8 11 89 40
       781.6202202626275 802.2461083392567
0001f0 7f 1e 60 21 f9 cb 89 40 d3 30 bb 8f 83 7a 8a 40
       825.4966456898982 847.314238989284
000200 ef 94 cb c0 e9 28 8b 40 df d3 4b fe 5d fc 8b 40
       869.1141372589899 895.5458951877625
000210 3a fd 1d 96 ec db 8c 40 39 b0 5e c8 f4 bb 8d 40
       923.4905207007316 951.4945228002099
000220 0b 20 d1 1c e7 7a 8e 40 d4 98 97 f7 8e 89 8e 40
       975.3628479326156 977.1948081820979
000230 22 b1 77 b8 bf 6b 8c 40 a3 ad 80 8f 56 b2 86 40
       909.4686135626728 726.2922658970823
000240 e5 cf bb df 36 6a 7f 40 06 0e 52 b5 d3 56 6b 40
       502.6383969627771 218.71334329630207
000250 e9 a4 27 9e 2a aa 62 c0 cc 77 e2 96 d9 5a 83 c0
       -149.31770236723904 -619.3562448208627
000260 23 52 cc 31 69 b0 90 c0 ee ec 3e eb 89 04 91 c0
       -1068.1027290272839 -1089.1346864540205
000270 1d b0 59 bf 3a ab 83 c0 37 d9 8f a6 6a 06 63 c0
       -629.4036852843161 -152.20051887603196
000280 e9 1c 5e 43 5d 98 70 40 03 2d 19 77 12 87 82 40
       265.5227693249022 592.8840162245618
000290 32 de c6 38 85 66 7c 40 70 1a 36 da a7 eb 69 40
       454.40752484972757 207.36423979346318
0002a0 2d 35 f5 97 29 6a 60 40 c9 ac d4 a0 7c 4c 62 40
       131.31757734195835 146.39021340883326
0002b0 c8 33 ce 0b 43 48 5f 40 cc 15 ec 1a b3 d0 33 c0
       125.12909217011395 -19.815232927930808
0002c0 87 42 5f 3d e5 63 76 c0 10 ab 79 e3 9b f0 75 c0
       -358.243466732129 -351.03805873419424
0002d0 a1 4f f7 f6 e8 c3 61 40 d2 28 b9 9a 46 ac 4a c0
       142.12218807509365 -53.34590467492093
0002e0 48 58 89 e6 1f 13 7a c0 25 f8 73 85 19 e2 51 40
       -417.1952882161172 71.53280769658211
0002f0 d1 4d 95 45 0d 86 72 40 77 23 ff 40 b6 0a 3b 40
       296.37824018785346 27.04184347371071
000300 40 e3 5f 7a 16 3a 1d 40 25 6d 7c b6 8a c6 47 40
       7.306726371862908 47.55110817981248
000310 87 db 8e ae 39 de 57 40 87 db 8e ae 39 de 57 40
       95.47227062178546 95.47227062178546
000320 72 5f 36 c0 6a 09 25 40 fb 4d 55 ff 30 5c 2a 40
       10.518392569196042 13.180061320460473
000330 1e aa fd be d7 96 2b 40 93 17 77 e2 a3 28 2b 40
       13.79461476179591 13.579375340497597
000340 0e a0 5f c6 eb 31 2c 40 31 96 e8 17 27 1c 2c 40
       14.097501944706917 14.054985758916787
000350 33 60 c1 8f 76 03 2c 40 a4 be d7 f6 73 90 2d 40
       14.006763927798692 14.782134736858389
000360 76 07 e4 ed 69 48 2d 40 8f ca 20 fe a2 7c 2c 40
       14.641433176122273 14.243431035521352
000370 4b 91 d9 73 53 cb 2e 40 78 ca 15 07 b3 ee 2d 40
       15.397121067341365 14.966209622774144
000380 37 b5 a1 50 0e 4e 2d 40 45 e3 2c 66 eb 28 2f 40
       14.652452964534502 15.579920952777352
000390 30 e9 d3 3d 47 f7 2e 40 eb c6 8b 86 3f 80 2e 40
       15.482965404623059 15.250484661638856
0003a0 e4 7f 0d 8a 31 66 30 40 21 20 47 d9 7b 69 30 40
       16.399193409248156 16.4120460318228
0003b0 ef 9e 36 e3 dc 50 30 40 67 af 68 17 a6 23 31 40
       16.315870476565518 17.13925310426512
0003c0 66 11 ca 56 f3 c0 30 40 e7 d9 9b e5 d5 9a 30 40
       16.753713058789252 16.604826307820897
0003d0 42 80 e9 97 f1 a4 30 40 97 5b d4 e9 19 fb 2c 40
       16.644311422831613 14.490432078526096
0003e0 7c 88 9f 0a 29 fd 27 40 4a 89 a2 ba 52 db d1 3f
       11.994453746771107 0.27901142335953877
0003f0 19 fb 27 61 41 40 30 c0 eb 1e c9 f2 80 7c 42 c0
       -16.250997612248373 -36.97268519230223
000400 1b 03 f2 7d 69 60 52 c0 bc 34 0c 58 85 d4 5a c0
       -73.50643871912 -107.32063866798393
000410 43 a5 db 60 e6 33 61 c0 2e 81 eb 85 04 2d 61 c0
       -137.6218723573639 -137.40680213925356
000420 7a 52 45 3f d5 05 61 c0 b0 a8 cb d0 90 a3 5a c0
       -136.18228114642608 -106.55571384323662
000430 8b 53 e2 08 cb 6b 57 c0 e9 83 0c 63 f7 23 55 c0
       -93.68426725485021 -84.56197429868884
000440 8c 8a ca 21 76 dd 54 c0 bb ba 00 29 d9 dd 54 c0
       -83.4603352048818 -83.46637940474731
000450 8c 70 d5 bf 5b 43 53 c0 8d 53 d7 ab 48 69 52 c0
       -77.05247493594851 -73.64506050136534
000460 38 ee f5 e9 c5 ce 54 c0 3f 94 85 56 eb 0c 56 c0
       -83.23082970635085 -88.20186389012177
000470 6d dc 4c e4 be ca 56 c0 3e dc dd 29 0f bf 56 c0
       -91.16790111070596 -90.98530050912902
000480 e9 db 32 06 2c e7 57 c0 38 8e 9e ff dc be 58 c0
       -95.61206202475263 -98.98223867877903
000490 d6 ae 36 10 34 f6 58 c0 d8 b1 cf 32 f2 7a 59 c0
       -99.84692769374973 -101.92103262217222
0004a0 f7 8e 0c 90 e8 7b 59 c0 4a 9b 50 94 91 8f 59 c0
       -101.93606950022136 -102.2432604586767
0004b0 61 dc d3 14 0c a4 5a c0 3a d2 17 4b 5d 2c 5b c0
       -106.56323738755738 -108.6931941731099
0004c0 0c 3f 97 9b c1 71 5b c0 4d 99 04 2f 07 73 5c c0
       -109.77744188089508 -113.79731345604996
0004d0 4e c4 30 d9 78 bc 5c c0 ec 5b 63 11 40 56 5d c0
       -114.9448760009993 -117.34766039565119
0004e0 df 97 b5 03 11 7f 5e c0 4c 76 64 eb aa 27 5f c0
       -121.98541348203388 -124.61980709849121
0004f0 95 3c 44 c2 84 e8 5f c0 36 c5 7f 47 10 88 60 c0
       -127.63310295737968 -132.25198721842906
000500 f2 b5 3f 3e 5c af 60 c0 f0 e1 2d 66 9a e9 60 c0
       -133.48001015132428 -135.30009755097808
000510 bc ee e6 02 57 90 61 c0 e3 16 ff a6 11 f4 61 c0
       -140.51062150100722 -143.6271548254218
000520 a6 4d 07 e9 2f 3b 62 c0 88 b8 68 d0 d3 0f 63 c0
       -145.84959842134884 -152.49460621312414
000530 d3 06 98 46 e6 b3 63 c0 41 04 4f 5c a1 07 64 c0
       -157.6218598336478 -160.23844733651097
000540 dd 15 b3 f7 91 55 64 c0 12 fc 13 ed 71 f1 64 c0
       -162.67406830766313 -167.5451569929433
000550 a1 91 78 e1 9a e3 64 c0 36 0b 1c 34 2a 29 65 c0
       -167.1126563410626 -169.28640180089286
000560 69 10 83 43 41 65 65 c0 47 46 ec f6 61 cd 64 c0
       -171.164216762528 -166.418208562349
000570 74 e6 38 fd 5d d0 59 c0 45 d3 41 04 dd ea 42 40
       -103.25573664242421 37.834869892255064
000580 4f 68 b4 f3 49 41 69 40 a0 4e d1 52 99 f2 71 40
       202.04027734027702 287.16243249664876
000590 71 04 d7 53 35 8d 6d 40 96 59 62 40 f6 62 5d 40
       236.41275970454765 117.54627999882209
0005a0 8a 6c 84 e4 29 af 44 40 f1 53 19 cb 20 ca 50 c0
       41.368465962085864 -67.15825154756
0005b0 f3 50 6a 22 49 a2 50 c0 29 aa e4 07 16 9c 38 c0
       -66.53571377165262 -24.609711163832035
0005c0 02 e1 f9 14 31 34 35 40 49 c4 cb 64 61 fa 2c 40
       21.20387393093643 14.48902430522334
0005d0 ce 0e ad 91 a2 99 40 c0 06 a6 e4 c4 fe 98 2d c0
       -33.20027371358957 -14.798818734084318
0005e0 ea a0 c1 88 81 de 10 40 a5 c7 1b e8 b8 0b f6 bf
       4.217291008775854 -1.3778618876208182
0005f0 0b b3 ce 83 67 18 44 c0 05 c7 9a d7 a0 d9 3f c0
       -40.19065902321571 -31.850110507285553
000600 ed 02 10 c1 0f 0a 32 40 1e 8c 4c 9a 1c 56 21 40
       18.03930288926033 8.668186971515805
000610 15 2a 52 72 8a d0 29 c0 e7 4b 64 2b ff 4b 27 40
       -12.907306263475258 11.64843116378138
000620 1d 8d 96 64 77 d9 44 40 9d 45 23 34 40 e7 39 40
       41.69895608283171 25.903323420153914
000630 d2 a3 8f 01 58 68 24 40 d2 a3 8f 01 58 68 24 40
       10.20379643324296 10.20379643324296
000640 6d 20 b7 2a a3 e5 3d c0 56 67 05 d2 aa 37 3e c0
       -29.897020978649767 -30.217450262374165
000650 57 6d 3f cb 9d 7b 3e c0 9d da 6b ee 20 c6 3e c0
       -30.482876494393476 -30.773939992267163
000660 4a 85 71 29 8c 12 3f c0 0a e8 86 80 bb 66 3f c0
       -31.072451200690274 -31.401298554359563
000670 77 34 0d 47 08 e3 3f c0 c6 e0 6f c2 65 07 40 c0
       -31.886845055316794 -32.05779295409006
000680 67 9e 5a df fd 3f 40 c0 b3 b1 cb 40 90 67 40 c0
       -32.49993507313484 -32.809089755497006
000690 28 5c b4 dc 73 99 40 c0 fe 0c ee 14 2c cd 40 c0
       -33.19884833151474 -33.60290776847431
0006a0 7e e9 81 5f cc f5 40 c0 6c de f4 f2 28 33 41 c0
       -33.92029947131503 -34.39968716579901
0006b0 26 56 69 a1 83 5b 41 c0 c3 80 fc 56 bd 95 41 c0
       -34.71495454448113 -35.16984069184539
0006c0 09 eb 1b 24 87 cc 41 c0 21 56 83 68 57 0a 42 c0
       -35.59787417758168 -36.080792488221284
0006d0 8d d7 15 95 fc 41 42 c0 21 e2 d9 60 4e 71 42 c0
       -36.515520702042615 -36.88520441664537
0006e0 74 c3 8c e9 47 b6 42 c0 19 ab 00 4f 43 e6 42 c0
       -37.42406958935945 -37.798929095579474
0006f0 b1 c3 c1 5f 94 00 43 c0 fc 9f 43 ea 02 b2 42 c0
       -38.004528016673596 -37.39071396162032
000700 4a 64 be a6 92 08 3c c0 72 27 fc 27 1f a0 33 40
       -28.033487721903192 19.62547540575128
000710 45 3f a4 a8 87 ee 4f 40 fd 23 52 2c a7 56 5b 40
       63.86351497669106 109.3539534380106
000720 dc bc cb 07 c5 9c 64 40 96 f5 4b 64 69 e2 6b 40
       164.8990515689137 223.07536520801358
000730 c3 e8 a6 62 e6 65 70 40 78 5a 06 25 3f 20 71 40
       262.3687464256183 274.01541616899294
000740 ac 85 84 ad 7a ee 6d 40 c0 07 68 8c 77 36 63 40
       239.45247531779512 153.70209331816113
000750 26 05 d4 f5 f9 dc 61 40 1e 0e 37 b0 86 39 5c 40
       142.9055127278345 112.89884572388152
000760 80 3e 25 8c 2d 23 5c 40 f6 21 09 07 14 7c 62 40
       112.54965499531863 147.877444761121
000770 14 e1 0b 30 92 84 65 40 66 02 16 dc da d7 61 40
       172.14284517593535 142.74546627329545
000780 16 76 7f 2e b3 c0 62 40 7f 43 01 3e 8d 09 64 40
       150.0218727578619 160.29849148032005
000790 67 10 75 76 fd 72 64 40 82 3d 5c 8d 12 cf 64 40
       163.593440273896 166.4710146714752
0007a0 39 57 f0 0e fc 2c 65 40 24 b8 18 94 09 96 65 40
       169.40576884213968 172.6886692507552
0007b0 24 e3 31 f3 45 01 66 40 28 3e 73 03 71 69 66 40
       176.03978881591422 179.2950455904804
0007c0 51 db 5a 31 6a da 66 40 4d 8a 96 1d 31 4d 67 40
       182.82546298737955 186.41224555399313
0007d0 5a d0 fc 88 5c ca 67 40 f6 7f b3 ab 49 45 68 40
       190.32379578950605 194.16524300631107
0007e0 03 80 bb 13 60 ca 68 40 35 97 9d 94 bf 58 69 40
       198.32422815915206 202.77338629512238
0007f0 de e0 25 31 07 eb 69 40 83 d8 ed ef e1 79 6a 40
       207.34462792776225 211.80883022741554
