old_robot_pepper/primitive_saved/06_Looking_around_01_weights.npy (npy, 38528 bytes, 1 tensors)

array f8 [48, 100]
000000 e7 b1 8e aa 67 d5 16 40 98 eb 4a 84 b9 4f 03 40
       5.7084032678217005 2.4139280639041765
000010 aa c4 57 d4 8e 01 0c c0 ca 96 75 90 7d bb 20 c0
       -3.5007607068333373 -8.366192354539994
000020 f0 4d 29 06 d0 45 25 c0 a1 78 ce 2e aa 2d 24 c0
       -10.636352722684904 -10.089189017013554
000030 6b e8 9a 40 61 89 1c c0 8d 6b 1f 8d 9a 54 0a c0
       -7.1341600508259075 -3.291310408135763
000040 bb 4a 29 b9 dd 1b d5 bf 63 5c 26 94 8e d1 f3 3f
       -0.32982581216962686 1.2386613642791182
000050 0c 7a 86 53 c0 a9 fe 3f 88 fe 27 8a 22 de 00 40
       1.916443182249739 2.1084643166976242
000060 90 da 9f f4 05 fe fd 3f 18 42 a3 00 59 82 f2 3f
       1.8745173984185932 1.1568231606398793
000070 48 57 bc b8 32 9b 9d bf 62 5d 37 26 97 24 f6 bf
       -0.028912346387264948 -1.3839332096884722
000080 46 e3 07 6f 0b 41 02 c0 f3 cf 7f 14 b1 77 01 c0
       -2.281760089328972 -2.1834432221894473
000090 6a 06 dd fd 92 49 ef bf 91 e8 f0 89 c4 3a f4 3f
       -0.9777312238949893 1.264347590286466
0000a0 4c 3c 24 e4 fe 42 12 40 aa 8c 60 af e0 12 22 40
       4.565425457679407 9.036870461021255
0000b0 a9 a9 46 d1 99 90 2d 40 47 47 da 82 03 bb 35 40
       14.782423534274885 21.730522325792915
0000c0 a6 b7 4b 47 e3 65 3d 40 c3 f5 06 46 f9 81 42 40
       29.397999244676292 37.0154197248444
0000d0 03 f3 73 64 96 0f 46 40 62 b1 8a ce 12 5f 49 40
       44.12177711164079 50.74276143810381
0000e0 d6 86 52 ce 92 7d 4c 40 a0 b4 8d ea 37 66 4f 40
       56.98104266194939 62.798581427757426
0000f0 26 df d8 4a be 04 51 40 f7 f0 31 8c 60 2a 52 40
       68.07411452463984 72.6621428001125
000100 3d 7d 96 85 09 1a 53 40 70 05 59 30 25 c9 53 40
       76.40683116623127 79.14289482778054
000110 df 2f d4 e4 79 2c 54 40 ba c1 ba 57 1c 38 54 40
       80.69493981095682 80.87672990072215
000120 66 b7 4b d4 7b df 53 40 14 7c e2 1b 86 16 53 40
       79.49193293947391 76.35193535916943
000130 38 38 9f b7 92 d8 51 40 f2 ba 0c c3 0c 3a 50 40
       71.38395491169729 64.9070289253539
000140 15 d1 5c bb c7 df 4c 40 46 89 3a 49 d9 56 49 40
       57.74828283340518 50.678506043989316
000150 00 e5 0a c8 21 ec 45 40 70 30 1b 66 5f 89 42 40
       43.8447809270092 37.07322384193037
000160 59 0a e6 7a 26 4f 3e 40 84 be 54 15 90 a4 37 40
       30.309180909311497 23.642823537053587
000170 f2 bd 23 53 2d 37 31 40 a4 98 1b f4 fc 5e 26 40
       17.215535351015156 11.185523632401164
000180 e2 14 e1 4a 0e e5 16 40 3d c6 56 66 6a 3b f0 3f
       5.723687334049119 1.0145057675948828
000190 fb b6 93 82 c5 f0 05 c0 a0 55 8d 1b 8f 53 15 c0
       -2.742564220555207 -5.331600599767086
0001a0 4b 96 9f a9 da 14 1a c0 5f f8 b4 c0 0a 51 18 c0
       -6.520365381589339 -6.0791425810294575
0001b0 df 27 a2 71 87 21 0f c0 37 37 0f e1 a2 3a cb bf
       -3.8913716199503905 -0.21272693623762404
0001c0 58 e2 d9 98 76 10 11 40 93 1a c6 61 ca f0 21 40
       4.266077411936372 8.970294051582902
0001d0 2b ca 07 1c 63 c9 2b 40 e0 cc 70 db 07 46 33 40
       13.893334270430463 19.273557391204008
0001e0 26 38 3b d7 6c 3b 39 40 1a a1 79 94 74 c6 3f 40
       25.23212952800545 31.775216369337706
0001f0 37 f4 57 27 f4 6f 43 40 c1 00 cc 5b 53 3f 47 40
       38.87463847918155 46.494731402026
000200 8f 3f 04 40 3c 4c 4b 40 f2 08 59 2d fc 90 4f 40
       54.59558868606029 63.132695835565656
000210 dc 0d e7 06 99 03 52 40 6b 1d aa 3f d9 53 54 40
       72.05621502460366 81.3101348077086
000220 29 3d f3 66 33 b5 56 40 24 fc ee c0 12 23 59 40
       90.8312623381977 100.54801963175174
000230 ea 18 5e 75 41 98 5b 40 70 2a 4e cf cb 0e 5e 40
       110.37899526776496 120.23118956216217
000240 08 d1 0a 94 ee 3f 60 40 48 cd 8a 64 ca 71 61 40
       129.99787332642177 139.55595614537947
000250 b2 59 e2 42 68 98 62 40 1a c1 f8 08 75 ae 63 40
       148.76272720536286 157.45178650460076
000260 67 19 6d 88 b1 ad 64 40 e3 7d c4 33 bd 8e 65 40
       165.42792149837916 172.46059597375196
000270 44 fc c7 a6 d1 48 66 40 1e db 94 ce 69 d1 66 40
       178.27559222278262 182.54416588853286
000280 0f 8c 86 42 cd 1b 67 40 35 c0 e0 1b 75 18 67 40
       184.86880613592845 184.76429551979678
000290 e7 90 65 a3 3a b4 66 40 67 41 c6 76 38 d7 65 40
       181.63215799176325 174.72564257356427
0002a0 aa e3 d7 89 3a 63 64 40 84 13 15 78 85 31 62 40
       163.10089580694085 145.54754261127903
0002b0 3e dc 6b 76 38 1f 5e 40 d3 c4 9b 76 e3 74 55 40
       120.48782120259509 85.82638325893213
0002c0 2e 7f 8f 1f 33 5c 43 40 38 fd 42 49 86 c8 38 c0
       38.720310158793254 -24.783299044470567
0002d0 0c 75 6d 8e 92 92 5b c0 bd 9d 89 fd 08 1c 6c c0
       -110.29019509019071 -224.8760974586311
0002e0 37 c0 ef b2 ef dd 76 c0 18 34 9f 9f fe f0 7c c0
       -365.8710202565448 -463.06216394604553
0002f0 b0 d3 88 60 a6 31 74 c0 70 4a 2f 17 88 7e 5a 40
       -323.1031194062043 105.97705630892028
000300 dc c4 93 29 c1 12 7b 40 88 77 b9 65 bb 26 77 40
       433.1721587917543 370.42075130889907
000310 7a 77 f0 a5 07 89 65 40 7a 77 f0 a5 07 89 65 40
       172.28218361822275 172.28218361822275
000320 f6 d7 86 f9 74 9a 52 c0 4a 79 f3 a0 3d 8e 4a c0
       -74.41338956993408 -53.11125575912827
000330 d3 5a 4e d2 a4 ba 23 c0 a0 1d 99 51 d5 58 3a 40
       -9.864538738312524 26.34700498569657
000340 e3 ef cc 00 64 8f 45 40 d2 83 57 7d dc 6a 43 40
       43.120239353243754 38.834853809101006
000350 31 ac 36 f0 4b 8b 30 40 dc 6c ae 93 66 df 28 c0
       16.544127477023896 -12.436329474489348
000360 aa 90 38 e9 50 78 41 c0 17 73 03 0d 5a 99 47 c0
       -34.93996920835464 -47.198060633358345
000370 84 20 7b c6 76 82 4a c0 de 6c fe 27 ac be 4b c0
       -53.019249734993565 -55.48962879107579
000380 24 25 f9 4e 0d 8f 4b c0 b6 2f d3 f2 78 be 49 c0
       -55.11759364285743 -51.48806605636439
000390 ef b1 9d 80 b5 38 46 c0 be f3 e5 9b a3 89 41 c0
       -44.44303901386217 -35.075305449754055
0003a0 19 68 15 3e 78 ee 39 c0 12 49 b7 79 27 28 33 c0
       -25.931522255159596 -19.15685234760992
0003b0 4c 92 c2 2e 19 f3 2d c0 22 1f eb 25 64 90 29 c0
       -14.974801503421212 -12.782014069510812
0003c0 ef 48 95 e7 8d c2 28 c0 87 8b 75 fb c5 ec 2b c0
       -12.379988896344427 -13.962447984789618
0003d0 33 5d 09 63 77 c6 31 c0 36 48 87 14 89 c0 37 c0
       -17.77525919893851 -23.75209167769227
0003e0 16 f1 8b 5b 1f 12 3f c0 0a fd 76 cf 35 31 43 c0
       -31.070790979066338 -38.38445466337187
0003f0 e6 4f 4b 2c af 75 46 c0 67 e3 c2 8c fb 66 49 c0
       -44.919408356450546 -50.804551692161844
000400 0a 7d 3d 62 5e 28 4c c0 f9 c1 00 a3 7a bc 4e c0
       -56.31538036348691 -61.47249257599828
000410 3b 6f f2 d6 79 89 50 c0 f7 b1 8a 07 35 8b 51 c0
       -66.1480615012669 -70.17511166138125
000420 98 c4 31 1a e9 57 52 c0 66 4a f8 9a 5c e3 52 c0
       -73.37360243663932 -75.55252718207484
000430 ee a5 f6 bc 96 20 53 c0 f9 86 1c ee d1 01 53 c0
       -76.50920032583937 -76.02843811784614
000440 7d ca 6f 12 96 78 52 c0 61 a3 00 61 96 77 51 c0
       -73.88415966908538 -69.86855340063404
000450 8f ea 22 dc c3 fb 4f c0 63 99 7c 9f d1 66 4c c0
       -63.96691467003722 -56.80327218612617
000460 27 6d ba a1 0b ea 48 c0 f7 ca 8f fa 8d 34 46 c0
       -49.82847997286654 -44.41058284779677
000470 d7 13 41 d3 d2 75 44 c0 cc a6 74 da 4a 9c 43 c0
       -40.92049637487042 -39.22103434272648
000480 da e2 b1 83 58 b0 43 c0 5f 49 69 3b b8 d9 44 c0
       -39.37770124612662 -41.70093481675098
000490 86 ef 01 68 50 4c 47 c0 bd 6d af 45 3f 41 4b c0
       -46.596203804917465 -54.50974341455319
0004a0 e7 79 1c 28 16 7b 50 c0 73 45 c9 1e d4 56 54 c0
       -65.92322733670117 -81.35669679313087
0004b0 be 18 1f dc d6 57 59 c0 7e d3 8d b2 14 a5 5f c0
       -101.37248900448591 -126.57938827371797
0004c0 fc b5 cc c0 36 b4 63 c0 09 eb 28 16 75 65 68 c0
       -157.6316837309131 -195.1705427931959
0004d0 07 92 98 a5 6e ef 6d c0 64 e0 df b2 2d 1b 72 c0
       -239.48225669669065 -289.69865691615837
0004e0 36 1e d5 8e a4 79 75 c0 89 60 21 8d 39 f5 78 c0
       -343.6026752781794 -399.32655060804296
0004f0 d9 0c 72 59 ec 8b 7c c0 1f d7 45 ca d3 23 80 c0
       -456.7452024893842 -516.4784131485247
000500 0d d6 b6 a9 2e 16 82 c0 a2 a9 0e 3c 0e 1c 84 c0
       -578.7727846416543 -643.5069504876631
000510 13 a2 53 04 82 33 86 c0 f1 8a 72 eb 46 5a 88 c0
       -710.4384848150097 -779.2846287678386
000520 6e 55 31 b2 d6 8d 8a c0 63 bb 86 b5 5f cb 8c c0
       -849.7298320631214 -921.421732952684
000530 34 4e 8c 6b b9 0f 8f c0 aa 6f bf 5b ab ab 90 c0
       -993.965537162911 -1066.9173421775727
000540 17 8e 93 d2 1a cf 91 c0 fc de 1a f7 e5 ef 92 c0
       -1139.7761939101672 -1211.9745754431342
000550 71 65 c8 c0 77 0b 94 c0 73 cb 39 06 dd 1e 95 c0
       -1282.866946345512 -1351.715844061892
000560 c1 89 2c 1d b3 26 96 c0 1a 8b e8 7d 12 1f 97 c0
       -1417.6749159773901 -1479.7680584273244
000570 13 09 b0 4d 74 03 98 c0 44 d0 ba 55 91 ce 98 c0
       -1536.863577604822 -1587.6419285955062
000580 5c f7 b3 69 38 7a 99 c0 4f b9 2f 89 19 ff 99 c0
       -1630.555090724919 -1663.7749373871663
000590 b1 f9 2d 02 82 54 9a c0 f9 ef 06 61 04 70 9a c0
       -1685.1269614394807 -1692.00427637901
0005a0 08 82 aa cf 04 45 9a c0 4a 5d 2e 4a 1f c4 99 c0
       -1681.2546984331002 -1649.0305564159812
0005b0 8f c1 15 23 58 da 98 c0 db 13 d8 ad ff 6f 97 c0
       -1590.5860713385953 -1499.9996865999335
0005c0 a1 48 b4 c3 25 67 95 c0 e1 a4 62 14 66 99 92 c0
       -1369.7868793649034 -1190.3496871388563
0005d0 bb e0 4b 3f 6a a9 8d c0 f2 5d 9e 2c 39 ad 83 c0
       -949.1768785407979 -629.6529171345157
0005e0 0f 69 da 34 7f 27 6a c0 69 41 aa 3c c7 76 75 40
       -209.23427813204077 343.4236418390852
0005f0 a1 80 4e 8a f6 c2 90 40 84 d1 ff df 5b c8 9f 40
       1072.7407619730004 2034.0897216769818
000600 4e 89 02 bb 9a fb a8 40 07 8e 2f c6 39 f0 ae 40
       3197.8022080223664 3960.1128401623605
000610 f2 c8 52 63 e3 fb a4 40 3b 43 5a 12 7b ea 8f c0
       2685.944117152242 -1021.3100935985343
000620 74 02 fb 23 51 9f ad c0 de 4b 48 f6 73 ff a8 c0
       -3791.658477634477 -3199.726488360654
000630 0e d7 3e 65 b3 ee 96 c0 0e d7 3e 65 b3 ee 96 c0
       -1467.6751909083137 -1467.6751909083137
000640 38 de c3 30 1d 4f 33 c0 08 2d 40 42 71 7a 35 c0
       -19.309039161509844 -21.478290692012735
000650 2b 96 8a 24 86 76 36 c0 9f e0 69 54 d2 10 37 c0
       -22.462984355768793 -23.065709377144795
000660 20 99 c4 9e 5b bb 37 c0 23 2d 12 fd d1 6e 38 c0
       -23.731866763112635 -24.432891671121194
000670 eb 74 69 fa cb 2a 39 c0 b7 9e 84 a4 5d f3 39 c0
       -25.167174959894435 -25.95064762342255
000680 34 46 d0 e9 ea cd 3a c0 bb 3d 07 8e a9 c0 3b c0
       -26.80436574301548 -27.75258720089708
000690 29 86 7b b8 7d d2 3c c0 2b de 75 65 e4 0a 3e c0
       -28.82223084464764 -30.042547551418618
0006a0 98 7e ec 42 db 71 3f c0 a2 22 a6 97 b1 87 40 c0
       -31.44475191377441 -33.06010718929362
0006b0 0a 5d ff 7c 7d 74 41 c0 ba a8 6e ff e6 7d 42 c0
       -34.910079598130395 -36.98361199286724
0006c0 82 e2 59 d3 b0 9d 43 c0 5a 1e b9 cb 23 cf 44 c0
       -39.231958788765965 -41.6182799009227
0006d0 60 86 2b c3 42 14 46 c0 b0 9c 15 df 0b 72 47 c0
       -44.158287426235574 -46.890987287094845
0006e0 87 42 68 a6 3f ec 48 c0 a8 bd d4 d7 3c 85 4a c0
       -49.84569244471373 -53.04091928374993
0006f0 a7 66 be 0b 80 3d 4c c0 3c 61 8d 6a d4 0d 4e c0
       -56.48047014996455 -60.1080449285823
000700 3e a8 00 01 a0 dd 4f c0 24 2b 92 28 0e c4 50 c0
       -63.73144543201532 -67.0633641650607
000710 9d bb 5a df 8e 7a 51 c0 d4 dc d1 d6 3e 10 52 c0
       -69.9149702440322 -72.25383539671321
000720 09 f2 0e 13 80 84 52 c0 0e 06 47 63 9d d3 52 c0
       -74.07031704387204 -75.30648118911651
000730 13 d0 51 3c fa f7 52 c0 08 ad 28 58 4a eb 52 c0
       -75.87464817037134 -75.67641262027985
000740 67 2e f5 6b d8 a6 52 c0 e6 41 65 1a 87 23 52 c0
       -74.6069593328808 -72.55512103928012
000750 ef d4 ce 4f c9 59 51 c0 12 b1 99 2c 9a 41 50 c0
       -69.4029120941011 -65.02503504761651
000760 3d f4 87 34 07 a5 4d c0 7f 93 e3 07 9e 08 4a c0
       -59.28928238523847 -52.06732271778218
000770 5b d7 e7 33 75 a6 45 c0 ba 37 39 c7 71 95 40 c0
       -43.30045174427388 -33.167534735620805
000780 dd ad 9b 73 dc 27 36 c0 ca 00 a9 9b f0 6e 25 c0
       -22.155707574374777 -10.716679443722018
000790 40 37 aa 4c a2 42 f1 3f 8f d0 85 cc 92 b6 2a 40
       1.0787680620882867 13.356588736853409
0007a0 9e a0 aa c9 ee 2b 3a 40 bc 48 31 0f fd be 43 40
       26.171612362057765 39.492097758354674
0007b0 87 2a 12 33 e1 a0 4a 40 6a 42 0b 34 5f d9 50 40
       53.25687254321115 67.39643574809602
0007c0 2a b0 d5 76 7b 75 54 40 15 d3 78 e8 94 1f 58 40
       81.83566065662367 96.49346362876197
0007d0 cd c9 dc 5e 0f d2 5b 40 70 fb bb ec d7 86 5f 40
       111.2821881443153 126.10692900045046
0007e0 37 ae fd a9 af 9b 61 40 c9 99 67 18 6d 6e 63 40
       140.86519336268404 155.45081730112568
0007f0 0b 14 2c 3c ed 38 65 40 89 df a1 e7 0b fb 66 40
       169.7789593563942 183.84520322433335
