old_robot_pepper/primitive_saved/calm_surroundings_weights.npy (npy, 38528 bytes, 1 tensors)

array f8 [48, 100]
000000 ef 02 60 e3 0d 2c f4 3f 79 69 23 eb eb 0f 0f 40
       1.2607554323041616 3.882774197595776
000010 c9 10 62 bd ce 3d 21 40 cb 3a 2b 84 6e 63 2c 40
       8.620717924328703 14.194202547337587
000020 aa ef 91 8a 55 15 34 40 cc b6 f5 40 c2 42 3a 40
       20.083336506489708 26.26077657698515
000030 5e 89 41 89 5d 59 40 40 00 33 89 56 f3 ac 43 40
       32.69816699695615 39.35117608737164
000040 a6 9d 8d b9 ab 15 47 40 1f ba ea 68 86 8c 4a 40
       46.169303125522944 53.09785186253816
000050 64 88 47 7e 07 0a 4e 40 2f 30 9e ce 1e c3 50 40
       60.0783536767274 67.04875531623905
000060 21 99 92 42 62 7c 52 40 b0 44 3c 82 62 2c 54 40
       73.9434973174689 80.69351249585702
000070 e0 c7 97 75 79 ce 55 40 47 16 fa b4 c4 5d 57 40
       87.22616329023685 93.46513103888093
000080 58 c0 57 17 23 d5 58 40 36 7d be 1e 32 2f 5a 40
       99.33026679582088 104.73743408777668
000090 37 eb 7e 58 53 66 5b 40 00 ea 9c 5a 0a 75 5c 40
       109.59883701700606 113.82875695537223
0000a0 9e 09 ab 9b 1c 58 5d 40 13 45 a7 16 c9 13 5e 40
       117.37674609854591 120.30914846739715
0000b0 4b e6 3d c0 b4 b5 5e 40 66 bc 40 f1 01 4a 5f 40
       122.83915716214067 125.15636855432385
0000c0 71 cf cc a7 b6 d0 5f 40 99 70 19 d5 c3 21 60 40
       127.26114840508468 129.05515532463758
0000d0 3f bb 9b 4f 1f 4f 60 40 2d 05 df 60 9f 6f 60 40
       130.4725721398954 131.48820537146221
0000e0 9c e8 42 e9 d8 82 60 40 bf be 00 de 69 88 60 40
       132.0889784151849 132.26292324204948
0000f0 25 78 98 30 eb 7f 60 40 3a db 03 7a ef 68 60 40
       131.99745969561732 131.27923298600382
000100 03 1a d1 93 02 43 60 40 36 d9 96 29 a9 0d 60 40
       130.09406462516935 128.42689971411318
000110 7a 22 79 73 c0 90 5f 40 95 b2 41 0b 39 e5 5e 40
       126.26174628095205 123.58160668769627
000120 8f ee 83 e1 93 17 5e 40 65 c5 1a 9c 95 26 5d 40
       120.36840093502018 116.6028814565121
000130 c2 6b 51 34 ee 10 5c 40 84 a4 75 4f 37 d5 5a 40
       112.26453884078276 107.33150087822474
000140 7d 4d c7 09 f4 71 59 40 5d a0 0a ac aa e5 57 40
       101.7805199095073 95.58854199445473
000150 15 6e 60 d2 d1 2f 56 40 8f 6d 0b 97 bd 54 54 40
       88.7471815053653 81.32407165637981
000160 16 62 06 1b fb 63 52 40 c8 45 e3 2c 71 75 50 40
       73.56220126746516 65.83503267473782
000170 9d ca 2a 4a 40 33 4d 40 38 ad a3 90 3d a8 49 40
       58.40039946641375 51.31437881462119
000180 fa 33 0a 80 ad 4c 46 40 d2 1a ce 91 b2 2b 43 40
       44.599044804555845 38.341387010228246
000190 32 d8 40 de 1f 56 40 40 73 c7 d8 fa 7e be 3b 40
       32.672847539579735 27.744125059055886
0001a0 0c f8 01 d6 34 b8 37 40 8b 4b e7 47 10 c7 34 40
       23.71955621288366 20.777592176407364
0001b0 bb 23 71 44 1d 1c 33 40 d5 5c ba f1 42 e6 32 40
       19.109821584341017 18.899458988188446
0001c0 bd 12 90 02 8b 37 34 40 9f 31 44 cd 74 d3 36 40
       20.216964874433632 22.826001004361043
0001d0 d6 c0 b3 86 0a 38 3a 40 20 c0 91 39 18 12 3e 40
       26.218910616765093 30.070682142337432
0001e0 c1 26 e9 9d 11 3c 41 40 39 a2 a6 b1 9b cf 43 40
       34.46928762325616 39.62193890224848
0001f0 0d 13 9c 44 a7 d1 46 40 55 2f d2 4d 48 47 4a 40
       45.63791711445638 52.55689404261526
000200 d2 6e 9f ce 9f 33 4e 40 a8 96 70 0d f3 4c 51 40
       60.40331442627725 69.20233474726649
000210 87 6f 5f 83 db be 53 40 ab 23 ff 4c 92 71 56 40
       78.98214802093399 89.77455449024153
000220 8c 33 22 90 64 67 59 40 67 6b ec 01 ee a2 5c 40
       101.61551287975288 114.54577682578893
000230 c2 2b 1a 2e 8c 13 60 40 57 35 b3 8c 31 fb 61 40
       128.61086182700643 143.84979853631623
000240 77 07 f1 00 8a 06 64 40 4d 76 df a2 10 26 66 40
       160.2043461520768 177.18953078885025
000250 5a ff 1a b2 3f 2f 68 40 15 c2 4b e1 32 e8 69 40
       193.47652535698836 207.25621094509611
000260 71 09 eb 52 b5 28 6b 40 eb 63 81 9e 08 dd 6b 40
       217.27213426499978 222.90730214377922
000270 83 c4 b1 87 65 ed 6b 40 c9 7b 1a 1c 7c 33 6b 40
       223.41864380569686 217.60890011951986
000280 ab c1 6a 7f 7f 7c 69 40 09 ad f0 c9 fa 89 66 40
       203.8905636868561 180.31186387068763
000290 96 0a a8 56 0d 14 62 40 06 28 1d 04 08 c9 57 40
       144.6266282350595 95.14111426207828
0002a0 9e bc 64 72 79 be 40 40 dd a9 49 5f 91 6f 40 c0
       33.488081263721355 -32.871623908012886
0002b0 3b 74 9a e9 4e a9 57 c0 55 6b 47 62 15 6d 62 c0
       -94.64544143756295 -147.40886033963275
0002c0 18 6d 1e a4 eb c7 67 c0 2b db 83 32 b0 8e 6b c0
       -190.24751478140456 -220.45900846245908
0002d0 4c ca 99 67 4b f7 6c c0 c9 e9 ff 7d 51 b9 6a c0
       -231.7279546741214 -213.7911977766328
0002e0 27 48 83 66 14 da 62 c0 5b c0 b9 b0 41 09 34 c0
       -150.81499028817163 -20.03615860495516
0002f0 63 34 c8 ab f6 f4 67 40 cb b5 bf 1f 55 50 79 40
       191.65511120893925 405.0207822312047
000300 06 5b 1e b5 ec 4f 77 40 2a 3f 6f bd e6 62 27 c0
       372.99528991563454 -11.693166656331943
000310 c2 63 d5 84 fa 95 78 c0 c2 63 d5 84 fa 95 78 c0
       -393.37366183619827 -393.37366183619827
000320 04 60 35 b4 db 9f 4b c0 8e ce b4 26 0d 28 51 c0
       -55.248892332136194 -68.62580268532676
000330 e4 31 0a c7 09 d7 54 c0 44 d1 48 a9 61 a3 58 c0
       -83.35997177119822 -98.55283577071265
000340 bf 87 75 53 7d a1 5c c0 19 75 2f 59 9c 63 60 c0
       -114.5232742927319 -131.1128354956534
000350 d5 9c 07 e4 8f 86 62 c0 cb 11 26 8a 3e b6 64 c0
       -148.2050647877392 -165.6951342338128
000360 df f9 27 75 4a ef 66 c0 35 09 d2 f9 47 2e 69 c0
       -183.47783906753372 -201.44628611586236
000370 02 b5 24 9c b5 6f 6b c0 5d 85 e3 6a f5 af 6d c0
       -219.4909191815314 -237.49870819509206
000380 19 72 ae 83 47 eb 6f c0 76 05 1b b0 e2 0e 71 c0
       -255.35247978278565 -272.930343728592
000390 78 f6 f2 d1 ae 21 72 c0 10 d9 64 1a e8 2b 73 c0
       -290.105180691789 -306.74416579621993
0003a0 98 72 02 3d 55 2b 74 c0 81 e5 15 f3 a1 1d 75 c0
       -322.70831013637644 -337.8520384650547
0003b0 23 b6 16 05 60 00 76 c0 37 9a 03 d4 25 d1 76 c0
       -352.0234423529784 -365.07173539550007
0003c0 12 e5 8f 48 42 8e 77 c0 12 de 6d a8 77 38 78 c0
       -376.8911824818507 -387.52921336094835
0003d0 08 73 d0 7a 9e d3 78 c0 c2 b1 06 c3 05 63 79 c0
       -397.2261913435509 -406.18890669455516
0003e0 84 a9 d1 60 ed e5 79 c0 26 cc 34 c9 71 59 7a c0
       -414.3704536619118 -421.59027977584844
0003f0 4b 69 55 22 55 bb 7a c0 af d7 fa 88 2a 0a 7b c0
       -427.70828469623365 -432.6353845404182
000400 b0 53 eb 26 ba 44 7b c0 bb 92 8b 66 c4 69 7b c0
       -436.29544727253506 -438.61044935723083
000410 5b 1b b7 97 f7 77 7b c0 8c cf 29 f8 ed 6d 7b c0
       -439.497947421323 -438.8705979951126
000420 0e 9d 2a 41 2c 4a 7b c0 f7 56 b7 14 20 0b 7b c0
       -436.6358043350782 -432.69533225647996
000430 d5 d5 34 41 1e af 7a c0 2f ee 4f d8 60 34 7a c0
       -426.9448864044073 -419.2736437914163
000440 6c 8b 0f 15 05 99 79 c0 04 27 4a 0c 09 db 78 c0
       -409.56374078819385 -397.68970898595603
000450 09 ac 16 22 49 f8 77 c0 53 de 49 4b 7d ee 76 c0
       -383.5178547750116 -366.90558937888017
000460 ca ca c1 aa 37 bb 75 c0 9a 6b ee 48 fd 5b 74 c0
       -347.7010905809408 -325.7493371308607
000470 93 02 6e 97 34 cf 72 c0 83 58 72 dc 1c 18 71 c0
       -300.95033972714117 -273.5070461718207
000480 da 88 8d 47 76 8a 6e c0 fd 30 26 95 e0 da 6a c0
       -244.32693841594192 -214.83991486987352
000490 94 73 1e 6f 0e 40 67 c0 d8 e8 3c 6a 3d be 63 c0
       -186.00176197001986 -157.94499694725414
0004a0 c2 29 93 23 07 55 60 c0 cc c3 d0 72 55 18 5a c0
       -130.6571214556007 -104.38021536242667
0004b0 d1 87 54 26 bf e1 53 c0 be df a8 95 29 4a 4c c0
       -79.52729185347495 -56.57939406152535
0004c0 ba f7 53 57 e9 07 42 c0 9a 29 c7 8d 81 8b 32 c0
       -36.061808506011815 -18.54494558441511
0004d0 4a 5c 1a 03 eb 90 12 c0 8e 63 ca e0 8c 3c 14 40
       -4.641521500095289 5.0591311572578785
0004e0 7b d5 e4 a1 16 9f 24 40 54 b6 03 79 df 9b 27 40
       10.310719546493365 11.804439336493637
0004f0 2c 2c 87 5f a7 1e 26 40 d2 b5 9a f7 f7 10 22 40
       11.059870705843501 9.03314183963349
000500 5a 3e 8b 39 4f a4 15 40 73 1b f1 00 6a 7e df bf
       5.410458468555214 -0.49209070293402773
000510 a8 15 18 68 85 20 22 c0 c0 fe e4 f6 47 7c 34 c0
       -9.063517811718 -20.485473090083133
000520 c7 2b 84 2a 2c 73 41 c0 0d b5 b6 3f aa 3a 4a c0
       -34.89978534177458 -52.458320583546175
000530 b0 e2 a3 ef 33 55 52 c0 81 e8 5f bb 77 6d 58 c0
       -73.33129492763942 -97.71043285718953
000540 22 8c 38 58 fd 73 5f c0 b6 f3 e3 36 3d bc 63 c0
       -125.81233792803008 -157.88247246286272
000550 c0 09 e2 c1 54 46 68 c0 ff a9 3c 51 4d 61 6d c0
       -194.19784635685028 -235.0406881508679
000560 02 4a 39 b4 67 87 71 c0 bf ef 89 23 bb 96 74 c0
       -280.46281835917046 -329.4206881893296
000570 3b f4 dc de e1 aa 77 c0 df 0e 6a a8 8c 7c 7a c0
       -378.68014417944113 -423.78434029988233
000580 51 d9 6b 8a a9 dc 7c c0 27 1d cb 07 42 b8 7e c0
       -461.7913917744491 -491.51612071362837
000590 99 c9 42 9a 64 f8 7f c0 bc 35 3c 9c 4e 3a 80 c0
       -511.5245611771475 -519.2883839324854
0005a0 4b 43 ae c0 17 f6 7f c0 f9 e9 7d 3a 2a 39 7e c0
       -511.3807989890235 -483.5728096884264
0005b0 d0 33 41 64 50 ef 7a c0 a3 1c 78 36 be d8 75 c0
       -430.9571268603295 -349.54643866461464
0005c0 85 d4 2a 34 31 32 6e c0 63 52 54 06 da 0d 5e c0
       -241.5685063206221 -120.21643217310479
0005d0 2b 2c e6 c9 f5 aa fd bf c0 11 9a 00 09 c2 5a 40
       -1.8542383085903207 107.0317994598945
0005e0 30 4d 9e a9 1f ee 69 40 b5 5a 48 86 27 a0 72 40
       207.44136506002678 298.00964954627426
0005f0 55 d0 73 d3 25 41 77 40 97 ca 91 9f 06 20 7a 40
       372.0717348598458 418.0016170210815
000600 dd 8b 7a 34 03 1a 7a 40 4e 30 ad 00 c6 6c 75 40
       417.62578246946015 342.79834048892815
000610 41 6d 02 09 68 d3 63 40 0c 3d 98 e3 f4 9b 60 c0
       158.60644960855464 -132.87364368185115
000620 f0 cc 69 c4 9a 24 79 c0 40 7c 20 d2 9f ee 7c c0
       -402.28778497055373 -462.9140187519988
000630 b3 b0 77 9b 68 61 75 c0 b3 b0 77 9b 68 61 75 c0
       -342.0880388903999 -342.0880388903999
000640 a2 ff d1 d5 33 d4 48 c0 e0 de f8 08 ce 3f 4b c0
       -49.65783188585125 -54.49847519065747
000650 c7 23 14 a7 ca 15 4b c0 dc 74 23 d4 33 d2 49 c0
       -54.17024696811091 -51.64220668536447
000660 f3 d5 82 8c d1 63 48 c0 b6 d5 b4 8c 62 c0 46 c0
       -48.7798324240538 -45.50300749616456
000670 a2 eb c4 d6 85 e2 44 c0 d7 b2 d5 b1 32 cc 42 c0
       -41.769709440376815 -37.59529707846166
000680 5a 27 18 54 96 81 40 c0 de 25 89 e0 54 10 3c c0
       -33.01240016154652 -28.063795121653918
000690 db ef 25 98 d7 cc 36 c0 90 c8 a5 ad 59 47 31 c0
       -22.800164708387324 -17.278712132429575
0006a0 72 b3 ba 34 dd 1f 27 c0 db 43 36 c6 c4 df 16 c0
       -11.562234542647023 -5.718524071752621
0006b0 d8 bb 5e b8 04 0a c7 3f 3b 0e c7 8f cc 39 18 40
       0.17999323847240478 6.056444403194798
0006c0 df da dd 20 bd a8 27 40 79 53 d4 94 e7 69 31 40
       11.82956793506804 17.41368990119688
0006d0 e9 0e b7 89 0b b8 36 40 de 3d 91 6f 8d a7 3b 40
       22.71892605513759 27.654501889190094
0006e0 f5 cf e7 8d f4 12 40 40 b9 70 20 f7 bf 18 42 40
       32.148088205518356 36.1933583172226
0006f0 7b cf f7 4a 08 ef 43 40 78 f3 85 5e 96 9d 45 40
       39.86744057750817 43.231151404767786
000700 5a 0a b0 eb b2 1d 47 40 51 8c 52 c8 e6 60 48 40
       46.23202272506451 48.75704292326612
000710 3f 67 27 40 c6 5a 49 40 9d a7 14 65 85 01 4a 40
       50.709175128211875 52.01188338764698
000720 d5 d7 40 99 ce 4b 4a 40 1a 9c dd 97 e7 2f 4a 40
       52.59224239030997 52.37425516434469
000730 f2 19 4d a9 87 a3 49 40 bb 2c 94 e5 ca 9b 48 40
       51.27757755531992 49.21712941870779
000740 6e 8d 3b c5 26 0d 47 40 4a 09 e3 ab 5d eb 44 40
       46.10274567993007 41.83879612527615
000750 f0 09 b1 3d 71 29 42 40 67 4f 01 c5 26 73 3d 40
       36.32376834053491 29.449810326404442
000760 7f b2 cc a9 2b 1a 35 40 d3 42 81 56 60 51 26 40
       21.102228748774447 11.15893812492269
000770 c9 5e c2 e2 19 53 e0 bf 38 ab 52 fd 65 16 2c c0
       -0.5101441792384885 -14.043746868459138
000780 e5 4e 06 4f e6 96 3d c0 54 68 d8 75 dc a5 47 c0
       -29.58945173172005 -47.29579041544699
000790 cd d4 e8 ab 3c cf 50 c0 86 25 2a 1f a0 46 56 c0
       -67.23807809579303 -89.10352305522801
0007a0 62 9a 2b ec 99 eb 5b c0 14 ce 05 f2 fa a2 60 c0
       -111.68126968629943 -133.09313298352993
0007b0 80 91 1c 42 d9 01 63 c0 a5 45 16 65 aa 0a 65 c0
       -152.05777078227766 -168.3333001551629
0007c0 2c a8 80 0b 65 bb 66 c0 93 4c 26 5c 75 07 68 c0
       -181.85608458641343 -192.23307616691872
0007d0 65 c7 86 2f 1d db 68 c0 65 56 15 d6 9b 1f 69 c0
       -198.84731270145417 -200.9877729813335
0007e0 d2 59 46 bb 1e bc 68 c0 08 00 98 92 b3 95 67 c0
       -197.87875140896227 -188.6781704872849
0007f0 fd 1a d9 c0 90 8f 65 c0 4d 10 19 79 93 8f 62 c0
       -172.48642008212474 -148.48675207991838
