old_robot_pepper/primitive_saved/complain_weights.npy (npy, 38528 bytes, 1 tensors)

array f8 [48, 100]
00000000: 9f3a 8c9b 9af7 3240 c7ea d353 67c4 3440
00000010: 3965 d854 c259 3540 ab9b be06 847f 3440
00000020: bafa a4eb 1f90 3340 e7d9 7fe4 50a4 3240
00000030: 95ba d6d7 f0a9 3140 a974 81ab 5e9c 3040
00000040: b7be 3a4b ecf7 2e40 8868 f03d 4a97 2c40
00000050: e11d 0ed4 bb1f 2a40 494a dbea 2c9c 2740
00000060: 5d42 a96e 9719 2540 595f b32c 04a6 2240
00000070: 3635 cd1a 8c50 2040 8dc2 ba62 4153 1c40
00000080: 1ad5 fcbb a684 1840 4baf 8e6a 7f59 1540
00000090: 5f3f 454e 37f8 1240 360c 0fc5 1488 1140
000000a0: 21ba d292 f52d 1140 f3c9 cca5 e8fb 1140
000000b0: acc4 057d 54d1 1340 7ec4 f52a 634c 1640
000000c0: c5fd a4e1 c6fd 1840 1f6f 4943 c6b7 1b40
000000d0: 7236 b585 fe92 1e40 625d 4ffe 62da 2040
000000e0: 07d3 04bd 5b96 2240 6353 5120 9c7c 2440
000000f0: 7b7c 6603 e689 2640 b18a 59b4 95ba 2840
00000100: bea4 8d82 a40a 2b40 5a05 929c 3676 2d40
00000110: 17d7 0ebc 2bf9 2f40 0976 3c9b 7747 3140
00000120: 7c25 4c99 8599 3240 17a2 e77b 42f0 3340
00000130: 3503 a4db f948 3540 b0fa e19e faa0 3640
00000140: 3c3d 8fd3 36f5 3740 ae1c ff35 7142 3940
00000150: a4e5 b264 5785 3a40 ddd1 e6fc 26ba 3b40
00000160: 2786 b576 f0dc 3c40 5307 307d 8ae9 3d40
00000170: d799 5348 45db 3e40 23b1 6274 ddac 3f40
00000180: 7652 599a 7c2b 4040 d99f 39b6 7766 4040
00000190: 4678 cd5b 447d 4040 37d7 17aa c663 4040
000001a0: 381f 9cbf 0010 4040 7e54 f41b 69f6 3e40
000001b0: 2a2a d8d3 683e 3d40 cb82 c2ae 50e8 3a40
000001c0: 0cc0 177d 94e0 3740 c019 41a0 6711 3440
000001d0: 62f5 e442 3fc6 2e40 034a de5c ff7b 2340
000001e0: ff67 0e66 9aa9 0840 a5c9 73b7 a913 12c0
000001f0: 9710 1d18 76a2 29c0 fdc9 11b0 627f 35c0
00000200: 626e befc de65 3ec0 fead 215d cbc5 43c0
00000210: 0b07 aa7d d980 48c0 55df 8895 f565 4dc0
00000220: 4c8a 703c 1238 51c0 7598 473f 98cb 53c0
00000230: caef 12c8 2c69 56c0 e427 09e5 910b 59c0
00000240: f0af 963a baac 5bc0 f79f 79fb 1446 5ec0
00000250: f0a4 68fd d167 60c0 f6d9 75c4 17a0 61c0
00000260: 5ead fbb8 97c6 62c0 36f5 6520 e5d4 63c0
00000270: 8553 001e 79c3 64c0 3d9f 74f8 5a89 65c0
00000280: 8525 a26e 8a1b 66c0 355c 18b7 b96c 66c0
00000290: fdab 13ed 786c 66c0 a202 537d 3d06 66c0
000002a0: 50fa e0d3 1620 65c0 b980 4eb9 b998 63c0
000002b0: ba0b b269 e244 61c0 2a9b 1890 b3d5 5bc0
000002c0: 9b9e c9f5 0279 52c0 f330 3f73 226c 36c0
000002d0: b672 e7f4 7af5 4740 f873 fdba c8fb 6140
000002e0: f109 3f03 c7f4 7040 f44d d766 9fe5 7940
000002f0: 596a e2a9 0911 7e40 784b 6c62 bb88 7240
00000300: 39b1 de45 b8fb 66c0 7f7d 6848 0e71 83c0
00000310: f2bb 7228 6c38 83c0 f2bb 7228 6c38 83c0
00000320: df3d 02fb de79 5cc0 1dd7 7aee a7ab 5ec0
00000330: 51f8 afcf 9687 5ec0 9323 7a69 3717 5cc0
00000340: b53e eb3a f686 59c0 9c80 be69 a6f3 56c0
00000350: 1a23 a144 503e 54c0 ca98 68ca b760 51c0
00000360: 6bb7 f929 4eba 4cc0 19b1 3a51 cc74 46c0
00000370: 6546 e1b8 8003 40c0 9586 04c1 a8f8 32c0
00000380: de17 f402 dcc8 17c0 a187 f6c5 2055 1b40
00000390: 4ab4 4975 fa22 3340 f763 b992 87b6 3e40
000003a0: 413e f1a9 d7a6 4440 c8ca 6f21 0e51 4940
000003b0: 56b7 d43c 7634 4d40 4cda c1f1 8415 5040
000003c0: a8f2 a265 8308 5140 5b48 ac47 8a6a 5140
000003d0: 487e 4d5c e84b 5140 64e0 21cd dbdc 5040
000003e0: 3ee7 abbb 4354 5040 cd25 aa04 d491 4f40
000003f0: c18f 7e91 f55d 4e40 a4f7 7628 e8e8 4c40
00000400: 610c 1dbb 2124 4b40 f775 4b7e ca11 4940
00000410: 9169 b82b 0bb9 4640 88c1 dd39 e621 4440
00000420: 47be 0248 f654 4140 41f9 e1fc 92b5 3c40
00000430: 2cad 8b97 e378 3640 d0d2 e54a 9707 3040
00000440: 7925 5838 2beb 2240 7eec d709 07c5 0640
00000450: e270 3f0d babe 0dc0 e953 01d7 9647 24c0
00000460: 71c1 a597 ad50 30c0 5f05 89da 3e22 36c0
00000470: 9a2c 3f15 ef7a 3bc0 8837 d4de 131d 40c0
00000480: a747 a70c b31e 42c0 9601 cdc5 eeaf 43c0
00000490: 24a5 5ba0 f3bc 44c0 65de 2402 bb32 45c0
000004a0: 0f52 3f38 da06 45c0 d108 46b1 3a4a 44c0
000004b0: 06eb 3ff7 7737 43c0 9985 4269 e01b 42c0
000004c0: 41a3 2652 3a25 41c0 dcf7 7d29 b552 40c0
000004d0: f0c5 c4e1 292b 3fc0 8dcf 53c7 a3d7 3dc0
000004e0: 868e 38db 0ec0 3cc0 863d d91a 9e04 3cc0
000004f0: 6808 17d1 47c9 3bc0 9e6d 8b63 ba31 3cc0
00000500: 73ad 8270 d854 3dc0 f9d5 b3e8 4321 3fc0
00000510: a219 2837 fba5 40c0 30bf f95b cbba 41c0
00000520: ad6f ac45 60b8 42c0 8d9e 2a59 b3a7 43c0
00000530: e0ca 6e89 8799 44c0 792d a80d e495 45c0
00000540: 7228 2a15 029d 46c0 f34a 7d50 4aac 47c0
00000550: bf01 30e8 a8c0 48c0 7b0b 2de0 97d6 49c0
00000560: 410b 39cf 1eea 4ac0 a284 8527 e5f6 4bc0
00000570: f496 c43b c1f7 4cc0 f370 3d0d bfe6 4dc0
00000580: d10c b620 03bd 4ec0 db77 3f5a 4c72 4fc0
00000590: f8ee 91eb e1fc 4fc0 4983 eb1b 9228 50c0
000005a0: 468c 799e 7630 50c0 e97b 5e26 850d 50c0
000005b0: f319 f9dc 3b6a 4fc0 b4c2 2df9 0a34 4ec0
000005c0: b0ae 266b ef56 4cc0 22ba acdb e9a7 49c0
000005d0: 84f1 e498 2aef 45c0 3442 88f5 1de2 40c0
000005e0: 7715 131d d037 34c0 b268 2c4d 200b 01c0
000005f0: 8d1a 2c86 0110 3640 42e0 e46b a643 4b40
00000600: 2dd6 3c9d 0e45 5840 2df1 7e9e 7602 6240
00000610: 58e3 9633 6883 6440 f12d a8ae f189 5840
00000620: e815 6d70 62e0 50c0 8c46 37dd c319 6bc0
00000630: 444e b50b 40ad 6ac0 444e b50b 40ad 6ac0
00000640: daa2 737e e9f8 50c0 ff57 160d 87b2 52c0
00000650: 8ebd 445e f45f 53c0 62a0 7221 c1bd 52c0
00000660: 1ed0 d646 f603 52c0 8a82 1c00 764a 51c0
00000670: 3dd8 502c c680 50c0 e3f0 eb13 0044 4fc0
00000680: e217 91a9 315b 4dc0 f7e4 d7e8 884a 4bc0
00000690: d1bf a3b1 1218 49c0 9059 bdb8 96cb 46c0
000006a0: a930 8191 9b6e 44c0 d71c 905c 810b 42c0
000006b0: 5670 e89a fd5a 3fc0 cb04 4fd5 d4c1 3ac0
000006c0: d625 a41e 0765 36c0 cf4f 48b9 b15f 32c0
000006d0: dba3 dd23 8e9d 2dc0 80eb 29c0 4c9f 27c0
000006e0: 77f1 c6e4 5efc 22c0 3efb 112f eba3 1fc0
000006f0: 2fc8 aa0c 9de8 1bc0 3736 7352 eeb5 19c0
00000700: 1c52 1f9d bdd4 17c0 9c0d 86f1 f8c8 15c0
00000710: 37bc efb3 bee1 13c0 e792 c3f9 7292 12c0
00000720: 16f8 fc70 0010 12c0 779c 2a66 1260 12c0
00000730: 5d14 c834 c779 13c0 1fd7 cc8c 5e52 15c0
00000740: 7957 8aa9 dede 17c0 6ef9 9a72 7614 1bc0
00000750: c7ff b71a f4e7 1ec0 27c9 2909 a4a6 21c0
00000760: 61d5 b4e0 2d1c 24c0 ad75 e010 fecd 26c0
00000770: 8948 3ddd efb4 29c0 b5ce d6ac cdc9 2cc0
00000780: 74a5 4890 4002 30c0 fefa 437c 37ae 31c0
00000790: d1a5 eafe 5f64 33c0 925f 6960 ba1f 35c0
000007a0: 8162 c48a 09db 36c0 e5f6 9734 c890 38c0
000007b0: 1c56 d016 b73a 3ac0 13f6 014b f6d1 3bc0
000007c0: 2b1d 2c20 684d 3dc0 caf5 3932 469e 3ec0
000007d0: 701e 8e97 09ae 3fc0 0e6c 23fc f030 40c0
000007e0: aef8 74a6 8851 40c0 786f 8c96 b730 40c0
000007f0: 4ce1 edb3 ab8d 3fc0 6450 863a c914 3ec0
18.96720287488517 20.76720165179975 21.350621512251767 20.49810831216352 19.56298706796472 18.64185932275168 17.66383122436908 16.610819548707386
15.48422465412237 14.29548829612419 13.061979891513092 11.80503019263155 10.54998346153405 9.324250599762012 8.157318913984096 7.081304114006923
6.129542290980021 5.337400116881166 4.74239847467092 4.382891730349959 4.294882101165542 4.496004667877503 4.954423860051218 5.574597045183621
6.247828984923619 6.929467250210819 7.643549050507874 8.426536509693225 9.2936686581029 10.243378648688752 11.269332987080125 12.36442340462722
13.520786361494512 14.73088540346605 15.986661793529079 17.27916879869557 18.599694806185184 19.93851446538073 21.28506253008091 22.628824167414393
23.957867834539897 25.259539961608134 26.520864766765627 27.727157408096776 28.86304418498744 29.912269424653754 30.856525917444596 31.675254129500114
32.33974007951194 32.80052831472103 32.97864863903719 32.77950025714966 32.12502284167425 30.962541339064494 29.243787040972315 26.90748111962129
23.877265756891617 20.067987457174013 15.387201395463027 9.742182638296986 3.0828140233179506 -4.519202104990119 -12.817307237194013 -21.497599605887434
-30.397933765880573 -39.545268670506616 -49.00663729478955 -58.79655713256094 -68.8761130427385 -79.18116743079902 -89.64335824822697 -100.18077970403789
-110.69886650767853 -121.09503065946033 -131.2443835300287 -141.00290129678586 -150.20602082400995 -158.65296955026287 -166.10853481353493 -172.29235480096568
-176.8606484572339 -179.39767031438683 -179.38976148454813 -176.19500604832598 -169.00278657856916 -156.77267136890967 -138.15263829016277 -111.33908464816037
-73.89080567063722 -22.422400668075124 47.917814839374316 143.86825322630443 271.2985870802359 414.35141643622705 481.06485928004764 296.5457481603876
-183.8662442540606 -622.1319740451144 -615.0528115237814 -615.0528115237814 -113.90423464983859 -122.68212472911951 -122.1185797899682 -112.36275708129533
-102.10877869580402 -91.80703204730747 -80.97364917503401 -69.51121769156012 -57.45551037495792 -44.91248526922045 -32.027365789411114 -18.971324981312666
-5.946151777408856 6.833132832691178 19.136634188169673 30.71300618196616 41.30345653800442 50.633243732057565 58.4098583258298 64.33623928004198
68.13301983750227 69.66468993973233 69.18605716293052 67.45091560657744 65.31663409984046 63.139282782630836 60.73405665092242 57.81958490189507
54.282279385741965 50.13899210629091 45.44565340523253 40.26483844116143 34.66376590856503 28.7092741061872 22.472222777939507 16.0296522914021
9.459314118156486 2.8462048310298647 -3.7181283030496255 -10.139822691833574 -16.315148809402164 -22.13377157063712 -27.480210616992373 -32.22716889726786
-36.23983915489162 -39.37447426328724 -41.47618488764627 -42.396332042696294 -42.05353453723739 -40.57991615218783 -38.43334856625556 -36.21778598545206
-34.29084231268508 -32.64615362788001 -31.168607817211466 -29.842342813455208 -28.75022668963222 -28.018037488972844 -27.786252086756946 -28.194250318088613
-29.33142760458345 -31.129942459016068 -33.29672898729338 -35.45933103270215 -37.44043799323786 -39.31016077595732 -41.19944875631131 -43.171022135847075
-45.226626058182674 -47.34601789586841 -49.505154632035094 -51.676509878153375 -53.82906523022985 -55.928868236727126 -57.9355845174704 -59.80270543575343
-61.47665795220531 -62.89295509432824 -63.97564453721674 -64.63391778945255 -64.75723993177334 -64.21125182368236 -62.82995187914994 -60.40658488020327
-56.67918147457874 -51.31182428296985 -43.86848746470335 -33.76653927949192 -20.218019311103003 -2.130432703893427 22.06252325608016 54.52851627994143
97.07901698056294 144.07697987359407 164.10646991224598 98.15537611411834 -67.50600824978721 -216.80515919490824 -213.41406808291697 -213.41406808291697
-67.88925133984176 -74.7894928663445 -77.49929005349097 -74.9649127597236 -72.0619065377982 -69.16345217498943 -66.01209552664746 -62.531252374845074
-58.71245307526239 -54.58230314771384 -50.1880704927022 -45.590537159400924 -40.86412257011518 -36.08988530194045 -31.355432206866986 -26.757153827468567
-22.394639887881418 -18.373805599359738 -14.80772506790702 -11.811132435910395 -9.492911481175481 -7.910076842758654 -6.977161596225456 -6.427666939050645
-5.957754569088618 -5.446262143904644 -4.9704540362427485 -4.643016722261314 -4.5156266836547925 -4.593820186949521 -4.868923973762404 -5.330438804628812
-5.967646264141757 -6.769983092030413 -7.7265171217731625 -8.825470243788528 -10.055037519525913 -11.40232899417864 -12.853392518740536 -14.394147301885235
-16.008797662483133 -17.68053414020232 -19.39208977917389 -21.12393763134566 -22.855614350266936 -24.565554892636005 -26.229356218207712 -27.820164382914367
-29.30237008168221 -30.618258608961504 -31.679833862492558 -32.38235427598566 -32.63698273383612 -32.38060266358565 -31.55340122754687 -30.08119550494338
