old_robot_pepper/primitive_saved/elaborate_weights.npy (npy, 38528 bytes, 1 tensors)

array f8 [48, 100]
0	0x404d319234f54322	58.387274379498436
1	0x4050e5900bf9cbc5	67.586916917745
2	0x40521f6020112a1b	72.4902420203802
3	0x40525e48580e085a	73.47316552515386
4	0x40528f84aebb6cf8	74.24247330001151
5	0x4052b9b46db944c4	74.90163748829497
6	0x4052d36b939948e1	75.30344095200736
7	0x4052d8cbb19fe9f2	75.38743248573863
8	0x4052c805b1f5313d	75.12534760422291
9	0x4052a069ef951bb9	74.50646581231457
10	0x4052620a3535e76d	73.53187303794921
11	0x40520d7f70827393	72.210903289217
12	0x4051a3c30937a1a3	70.55877905304673
13	0x4051261551cbc5ca	68.59505123996419
14	0x405095eccfbd5149	66.34257882583655
15	0x404fe9d6fc25e95c	63.82687332011366
16	0x404e89b038cc1c82	61.07569036451697
17	0x404d0f347d3bbfc4	58.11878934304653
18	0x404b7e707d63f614	54.987807916459275
19	0x4049dbacf6f9b978	51.716215965209756
20	0x40482b6f02d73a58	48.33932528981376
21	0x40467279b6f3331d	44.89433943629249
22	0x4044b5d0c35532a4	41.42043344173479
23	0x4042fabbd350f400	37.95885697796621
24	0x404146ca91617239	34.55305688150515
25	0x403f3fb274e32309	31.24881678147634
26	0x403c182b6ec802f6	28.094412731009434
27	0x4039240a7193da04	25.140784357639873
28	0x403671142c2adcca	22.441714058365314
29	0x40340dcad47d30e7	20.053876190723624
30	0x40320912e23deacd	18.035444393269064
31	0x40306fedabf4892b	16.4372203323375
32	0x402e8e00490421b6	15.277345926050526
33	0x402d0960761ca739	14.518314066884715
34	0x402c34219a4800f9	14.101818867959524
35	0x402c0c38a0a748bd	14.023869533939768
36	0x402cb091e64233f2	14.344863124448214
37	0x402e45f44c6dd943	15.136629475030196
38	0x40307475cc82050a	16.454922467940413
39	0x4032587e9e9cc9ce	18.34568206146087
40	0x4034d8e82883c2e5	20.84729245392636
41	0x4037f6a3befa5048	23.96343606578037
42	0x403b9a3a6e469ebd	27.602454082719067
43	0x403f8f8ebfd67f35	31.56077193247548
44	0x4041d25eb27f72f2	35.64351493094536
45	0x4043e52fb3edd930	39.79051827539149
46	0x404603ed7a2bd72d	44.03068472996379
47	0x404830279135ced6	48.37620749595014
48	0x404a6648a0cc645b	52.799091434288776
49	0x404ca041bd01e07b	57.25200617400784
50	0x404ed7205249827e	61.68067387189238
51	0x405081ad99b1f47e	66.0262207258074
52	0x40518e656b55826a	70.22494014120608
53	0x40528d4b3be00c90	74.20771691207688
54	0x4053798f6e177b84	77.89937927525722
55	0x40544df3606e2f88	81.21797953377074
56	0x405504bc30d87a29	84.07398625507689
57	0x405597a3beb77df1	86.36936920088898
58	0x4055ffc7926384e0	87.99655589789063
59	0x40563595445616ea	88.83723553092173
60	0x405630b3ebe4ad5a	88.76098153430704
61	0x4055e7ea06325a94	87.62365870396962
62	0x405550ff28645cf2	85.2655735950573
63	0x40546098aab6197a	81.50931804450184
64	0x40530a104ab23a39	76.15724437146208
65	0x40513f4386cea1b1	68.98849649599903
66	0x404de0b4525ee419	59.75550298341131
67	0x404817042ab73d37	48.179814662430026
68	0x4040f93bdd4fd684	33.94713941953981
69	0x4030b38eb9bdac91	16.7013965690681
70	0xc00fb1f7af3e7004	-3.9618982020310813
71	0xc03c7c5f70498027	-28.485831277794343
72	0xc04c866d1bc3de4e	-57.050204725874764
73	0xc055bd32f78b4bf4	-86.95623577693169
74	0xc059cf76e18d741c	-103.24163092435668
75	0xc052cc53a958e0b3	-75.19260629348246
76	0xbfc7baac83e85dee	-0.18538433495335432
77	0x404c4b15eb0577cd	56.58660638586989
78	0x4049303938d628e0	50.37674627739921
79	0x4033a7d2cc587aa8	19.65556027565131
80	0x40090eaf1fadab95	3.13216995953321
81	0xbfe1bc1a4a09e07a	-0.554211754423718
82	0xbfe811bb946b0785	-0.7521646403113073
83	0xbfe282d583b22ff4	-0.5784709522426952
84	0xbfdc9978e53757c7	-0.446867202609948
85	0xbfd76e29ae169084	-0.36609880448146037
86	0xbfd49db18aab88ed	-0.3221248487663065
87	0xbfd38266f9103ea3	-0.3048341209659872
88	0xbfd3b12e58ff7334	-0.30768927279659697
89	0xbfd4ead641c8a855	-0.326833309404383
90	0xbfd71396729ccb60	-0.36057053749680357
91	0xbfda3072eacc8ed7	-0.4092070858916776
92	0xbfde6b8f321ce158	-0.475314902246756
93	0xbfe211ba2a259bee	-0.5646639655286643
94	0xbfe608200d6cfebf	-0.6884918462964932
95	0xbfebce134352b2e7	-0.8689056696799441
96	0xbff2512996cd6f0d	-1.1448150530549726
97	0xbff53493f8ecafca	-1.3253364299407502
98	0x3fa7e44d7ab16e56	0.04666368601530439
99	0x3fa7e44d7ab16e56	0.04666368601530439
100	0xc054822aba7fcb5c	-82.033857941436
101	0xc057c99ea9d000e0	-95.15030904114565
102	0xc05998ea89748895	-102.38931499843814
103	0xc05a09c3a5618e68	-104.15256628539066
104	0xc05a6724c1a38eab	-105.61161843273537
105	0xc05abad095be8305	-106.91898101429622
106	0xc05af78ebd577841	-107.8680871347615
107	0xc05b17b3f3bef354	-108.37035840651998
108	0xc05b1868a7cdeac2	-108.38138766392788
109	0xc05af86092bfa6ef	-107.88089436260246
110	0xc05ab7583d65450a	-106.86476073159807
111	0xc05a55c3c4639619	-105.34007367825724
112	0xc059d498e0e54490	-103.32183096303402
113	0xc059352b219d403e	-100.83075752598322
114	0xc0587914690e0b69	-97.89187075015583
115	0xc057a225b5536646	-94.53355153221591
116	0xc056b25d82ed49c9	-90.78695748493841
117	0xc055abe1fce1c57c	-86.6856682019042
118	0xc05490fdc43fdbaf	-82.26548868404528
119	0xc053641e7f6d476c	-77.56436143562104
120	0xc05227d4a6c4409a	-72.62235421338337
121	0xc050ded432b3edee	-67.48170154162628
122	0xc04f17ebde4dbf82	-62.186885631525925
123	0xc04c64729aacb88f	-56.78474744256629
124	0xc049a98d3778962b	-51.32462209117906
125	0xc046ede32b8fe2c2	-45.85849518323586
126	0xc044387887a88684	-40.44117828110487
127	0xc04190b44f5aca32	-35.13050262387368
128	0xc03dfcce545cb5db	-29.987523338922852
129	0xc039139bae60916f	-25.07659425599689
130	0xc03476c7b01cf1e3	-20.46398449618017
131	0xc030357be91ae2b2	-16.208921975196695
132	0xc028ad0faaa98101	-12.338010152045628
133	0xc021a4da09931b51	-8.821975993354188
134	0xc01671accd7dd2e9	-5.611010752491645
135	0xc005afec6111c2ee	-2.7109000762505877
136	0xbfc8bd2f528ac18e	-0.19327346353885527
137	0x3ffdba50c5b270bd	1.8579871866741506
138	0x400aff195e3e8afc	3.3745601046406346
139	0x401130739d8ba946	4.2973160377972075
140	0x40124c0cf9121dd6	4.574268237810847
141	0x4010c1e42b37bbf7	4.189346957470653
142	0x4009cfdeaea3509a	3.226498951300596
143	0x3ffe31c01fad9979	1.8871461141039545
144	0x3fd7331fc755b54a	0.36249536958969897
145	0xbff4cc41ceaae3c8	-1.2998674462271413
146	0xc0092eaf4c87565a	-3.1477952936937017
147	0xc014d9e5a96ae635	-5.212790152692425
148	0xc01df0f0e7d0fb62	-7.485293981676337
149	0xc023dfb0d1f53e26	-9.936895905672895
150	0xc02911342ff0d907	-12.533601282263147
151	0xc02e7a1d1bb15675	-15.238503327748939
152	0xc032030161707b57	-18.011739816628815
153	0xc034cf63e6b2ef92	-20.81011812084723
154	0xc0379631a683823d	-23.58669510565436
155	0xc03a4a52409d1dce	-26.29031757198191
156	0xc03cdd77ec6ff229	-28.86511113865905
157	0xc03f3ff9bfb85e76	-31.249904615890465
158	0xc040b054683bedb1	-33.37757590223499
159	0xc041964f954adc41	-35.17430368571559
160	0xc0424783b3aa46d3	-36.55870672048845
161	0xc042b86dbe55a08e	-37.440849105653896
162	0xc042dc4c89051c3d	-37.72108566998984
163	0xc042a4f4a5c8539d	-37.288716051879625
164	0xc042029cc395d51c	-36.02040905777014
165	0xc040e3a0f8d57d73	-33.778349975817854
166	0xc03e68761b39a803	-30.408052159858936
167	0xc039bc5abe479745	-25.735759632566687
168	0xc03390bab15102a0	-19.56534870364942
169	0xc027596757d45442	-11.67461657015713
170	0xbffcfa2d289f5f39	-1.8110782229250175
171	0x40249bd53e7fc162	10.30436129865183
172	0x4038d47a54b8d849	24.829991622093335
173	0x404441796d5b05e4	40.51151816315158
174	0x40490091f09c05af	50.004453731711116
175	0x4042f5a7f64d1ed3	37.91918829694409
176	0x40014c2dbf06049b	2.162196628924517
177	0xc039e3ccd02876c5	-25.88984395015611
178	0xc037c4ad2f429c50	-23.768267587435105
179	0xc022cbae1b88e464	-9.397812710247486
180	0xbff899edf44f8ab1	-1.537580446566306
181	0x3fce1a395224e30f	0.23517529021207692
182	0x3fd5a58d4d3170e6	0.3382294896926069
183	0x3fd0a0d828ab2388	0.2598171612885882
184	0x3fc97d09e2f03c65	0.19912837582566847
185	0x3fc49ef4781589f7	0.16110092032893394
186	0x3fc1daa8c1cb061e	0.1394854494338213
187	0x3fc09b327d515bdf	0.12973624342950438
188	0x3fc07f653fbfc2ae	0.128887802245591
189	0x3fc14cb2588d4cf6	0.13515309642625767
190	0x3fc2e7515e72300f	0.1476842604791959
191	0x3fc54f733ce7f505	0.1664871261017781
192	0x3fc8a43efde49106	0.19251239201651787
193	0x3fcd2fc0500aec24	0.2280197516282395
194	0x3fd1c2459052ff4e	0.2774824056068511
195	0x3fd66256daa19b7f	0.3497521529265483
196	0x3fdd77f1a0b86c11	0.46044579215384923
197	0x3fe10f2bf0f93177	0.5331020075332579
198	0xbf90e41661a0f8d0	-0.01649508448485265
199	0xbf90e41661a0f8d0	-0.01649508448485265
200	0x403b66ef898574ce	27.40209254749498
201	0x403ebef374efbd57	30.74590235569971
202	0x403f3190a7f8015f	31.193613527343924
203	0x403d82a0b47d80d0	29.510264664307044
204	0x403b9d6d65ea2ac2	27.614950532598193
205	0x4039838d4363e34b	25.513874256025968
206	0x40371f1af8b680a6	23.12150530295971
207	0x403468d91742adba	20.409562543658218
208	0x40315e747c66c01e	17.368964934430657
209	0x402c0049000ad845	14.000556947063282
210	0x40249fb2acda2d9b	10.311910058625292
211	0x401942f8f9c45d25	6.315402891740892
212	0x400037353bc92cd2	2.0269570036667597
213	0xc0044740daa67210	-2.5347916681332734
214	0xc01d656745f5afd1	-7.349026768799335
215	0xc028c942891984d9	-12.393085750928025
216	0xc031a4853ebdfe4e	-17.64265815866957
217	0xc03712676fa0d1f9	-23.07189080883288
218	0xc03ca747180b35de	-28.65342855714504
219	0xc0412de05f275840	-34.35840978070382
220	0xc0441405dfa12b47	-40.15642924661238
221	0xc04701fb23a64ec7	-46.01547666187758
222	0xc049f37006617825	-51.901856229393424
223	0xc04ce3da017cc872	-57.78009050934715
224	0xc04fce709303a55d	-63.61281049421334
225	0xc05157149bc22882	-69.3606328388287
226	0xc052bed97d4cb532	-74.98202450266834
227	0xc0541bb8cdea25ca	-80.43315456262567
228	0xc0556abc2169224a	-85.66773257510172
229	0xc056a8c1dd5af972	-90.63683256038874
230	0xc057d27a1583a6df	-95.28870141846299
231	0xc058e46320f852c6	-99.56855034113241
232	0xc059dac5e0e55b13	-103.41832754514716
233	0xc05ab1b1b0ea60d3	-106.7764704026079
234	0xc05b64f7f7ddc388	-109.57763477951642
235	0xc05bf0274e90bc5c	-111.75239910253862
236	0xc05c4e8630da385a	-113.22694035826262
237	0xc05c7b0d2dcee126	-113.92267937853885
238	0xc05c7060d34826ce	-113.75590974851659
239	0xc05c28d0c401a04d	-112.637742044056
240	0xc05b9e930c57144f	-110.47772511009065
241	0xc05acd4b9908fac1	-107.20773912312417
242	0xc059b6b3f05b4797	-102.85473259843853
243	0xc058678f782b35ae	-97.6181316778154
244	0xc056f24162e08808	-91.78524085928814
245	0xc0556038ec941b63	-85.50347437347004
246	0xc053ae6c82db563d	-78.72537299556366
247	0xc051d73dea0a3b64	-71.36315394400805
248	0xc04fb12fd1bd3603	-63.38427182902162
249	0xc04b65d85209c6e2	-54.79566407658946
250	0xc046ced3c4bd0ada	-45.61583766203485
251	0xc041eed7e3915a2f	-35.86596340749053
252	0xc039919c1be3aa8c	-25.568788283426827
253	0xc02d7f64434bb3bc	-14.748811820021608
254	0xc00b75e2b84eba02	-3.432561340239091
255	0x4020b3c617ed7129	8.351120708212493
