old_robot_pepper/primitive_saved/hands_on_hips_weights.npy (npy, 38528 bytes, 1 tensors)

array f8 [48, 100]
0	0xc03012fc4d0e52ff	-16.07416230773651
1	0xc02ec666e43fd28b	-15.387503750601601
2	0xc02caf9f3c96c03a	-14.343011754419525
3	0xc02af6b3ac1c8410	-13.481839540940229
4	0xc0299c99884d5399	-12.805858859481122
5	0xc0285b6495ec8f0c	-12.178501782538227
6	0xc02711125d6f1780	-11.533343238650332
7	0xc025b6537c19750c	-10.85610568819768
8	0xc0243e86abbef20b	-10.122121207293295
9	0xc022651237bd1f86	-9.197404615246125
10	0xc01f2cca2f29230e	-7.793740021596717
11	0xc017bd113c0997cf	-5.9346360569815735
12	0xc0126a73a588d239	-4.603956781841185
13	0xc012d85675b8d238	-4.711267318158711
14	0xc0155a157a5ef609	-5.337972557111706
15	0xc01413a55a344f6e	-5.019185456698194
16	0xc00f1a0d9a4db77f	-3.8877212576834945
17	0xc00641e059e48b0e	-2.782166197096905
18	0xbffebc6ea02bb963	-1.9210039383575228
19	0xbff2aa2880830ec5	-1.166542531966955
20	0xbfdc1965c2db8b07	-0.4390501406580118
21	0x3fd18d2f0aaf3c81	0.2742421726551996
22	0x3fef14aa8b4beb76	0.9712727280269593
23	0x3ffa601a9aed33ee	1.6484628726786883
24	0x40026a768f8b59e0	2.3019839491273473
25	0x40076cc4b0cc8c7e	2.92810953258737
26	0x400c2fcaccc19a69	3.5233360287268636
27	0x40105626d5e099c3	4.0841325205169055
28	0x40126e741469a4b7	4.607864684055293
29	0x40146b515ed915a6	5.1048025913236525
30	0x40169e7be909e92e	5.654769555311118
31	0x4019fc03b801da4a	6.496107936013297
32	0x401f5b176cb2423c	7.838956545238542
33	0x402264cd9362138a	9.196880918237884
34	0x4022f70878558b22	9.48248649639351
35	0x40214be7787b30c8	8.648250355756673
36	0x401feafa47941278	7.979470365917784
37	0x4020397bad843859	8.112271711721563
38	0x40210dace061aacb	8.526709567949544
39	0x40217da1fa98903b	8.745376425860846
40	0x402153f951fbe5a0	8.664011537551062
41	0x40208c5896731baf	8.27411337046746
42	0x401e631a30702bf1	7.596779591413893
43	0x401ab3dc6e434023	6.675645563940665
44	0x40162d86978e64ea	5.544458740297367
45	0x4010fcba46845abd	4.246804334476733
46	0x40079bcf6b41ae41	2.9510792140406754
47	0x4000207bb3beacac	2.015860943085121
48	0x3ffbdf21b8ae18b8	1.7419755186142947
49	0x3fffd9090c70bf32	1.990487145038014
50	0x4002468d81ab4a0c	2.2844495897672967
51	0x400290a501d3f901	2.3206272261442114
52	0x40011e0f6c232d8b	2.1396778534160084
53	0x3ffe1fa184c5a2de	1.882722395554246
54	0x3ff9f63a6b459080	1.6226143064787095
55	0x3ff603cedc052ef2	1.3759296984234735
56	0x3ff248966d61b723	1.1427215836260494
57	0x3fed741e042d1751	0.9204244691434075
58	0x3fe6b046a7f84acc	0.7090180664693775
59	0x3fe0a603f96257da	0.5202655669006575
60	0x3fd8c22c7e20dc64	0.38685142819617213
61	0x3fd637fb7104f5ab	0.3471668819145985
62	0x3fd94ec70f43fc0e	0.3954332017019063
63	0x3fddb895fd4ed91f	0.46439122902974533
64	0x3fdf3c53d6e02442	0.4880570982355189
65	0x3fdc8e12f3405ad7	0.446171510267431
66	0x3fd51f4bc7ccb31c	0.33003515731506794
67	0x3fc414bc66094731	0.1568828104232636
68	0x3faf98fea2952f95	0.06171413168576049
69	0x3fc7685eca90a942	0.18287262812493493
70	0x3fd9253cc3bf3adb	0.3928977881995885
71	0x3fdcee730d3b4cf5	0.4520537976470245
72	0x3fd78b89a65935fa	0.36789170498818147
73	0x3fd268597b340bca	0.28761899024555915
74	0x3fd07291176ae1d3	0.25699260031572385
75	0x3fcff510a84be1a5	0.2496662923583816
76	0x3fcfafc5aee255dd	0.2475516418386822
77	0x3fcf98b6a829bf72	0.24684794627273338
78	0x3fcfa95736df9013	0.24735536746368378
79	0x3fcfe7679f2f401c	0.24924941322979144
80	0x3fd02c3f36d54d1a	0.2527006183128876
81	0x3fd07fd91952d346	0.25780322525979604
82	0x3fd0efc8e7e68cbf	0.2646353020338203
83	0x3fd17ee7f8c36974	0.2733707360581754
84	0x3fd231e488b6be7b	0.28429520941697434
85	0x3fd30f1d432502ae	0.29779750401579974
86	0x3fd41ed580615318	0.31438195740820296
87	0x3fd56aa9da5e3999	0.33463522267347795
88	0x3fd6fe1446561363	0.35925776356480393
89	0x3fd8e2793b814d38	0.3888228493789998
90	0x3fdae4cf66c8c79e	0.4202154639962091
91	0x3fdb4294b5c48515	0.4259387755465281
92	0x3fd26f3d553c958f	0.2880395252598981
93	0xbfd05065798a50e1	-0.2549070059697112
94	0xbff5489e72cff7e6	-1.330229233251424
95	0xc0026c48de9ac01e	-2.302873362634286
96	0xc00032d5b832dd58	-2.0248217001459743
97	0xbfc0ae3d2dc0aff2	-0.13031735166566666
98	0x3ff9f5a9c0164b94	1.6224763396646482
99	0x3ff9f5a9c0164b94	1.6224763396646482
100	0x405fbbabeb2659b1	126.93236807580139
101	0x405f7bab82601946	125.93234309563294
102	0x405f0a50e57277e8	124.1611875169616
103	0x405e9fd0ab067a92	122.49711108811087
104	0x405e3b6c38e1b299	120.92848035851274
105	0x405dd01d3abf3721	119.25178402589201
106	0x405d58596d7f2510	117.38045823494417
107	0x405cd26b9d442dbc	115.28781825693198
108	0x405c374937af7122	112.86384384282113
109	0x405b6340199fcd1e	109.55078735929098
110	0x405a096deff6fb26	104.14733504409068
111	0x40582aa168befabc	96.66610163355193
112	0x4056c0a5cbe4ef04	91.01011941296389
113	0x4056bcae9ca2ec7b	90.94815746222041
114	0x405740108da3b099	93.00101033196769
115	0x4056d4a9fb2c6ea0	91.32287482585025
116	0x405592fe0f0806c4	86.29675651344138
117	0x40544c0cb0b2d8da	81.18827455010924
118	0x405338c61e240a2b	76.88709214705948
119	0x405237f7bc0dcde1	72.8744955191428
120	0x4051360cd5a00961	68.84453335407808
121	0x40502ff84d72f02a	64.74953018402508
122	0x404e4cb7243f4979	60.599339037801606
123	0x404c3485c59679dd	56.41033239219153
124	0x404a19b3026d874a	52.200775435906124
125	0x4047fe8fc14927ac	47.988762055130195
126	0x4045e540bce657e1	43.79103814360838
127	0x4043cff0a3170d34	39.62453116059842
128	0x4041c085b9f465af	35.50408100541551
129	0x403f6319a13a7f1d	31.387109829694158
130	0x403adcb048890623	26.862064870312803
131	0x4034933f39024cde	20.57518345171126
132	0x4026a59efbabd53f	11.32347856972285
133	0x4003bf027e56d226	2.4682664747472414
134	0x3ff444ddd513477b	1.266813118291309
135	0x401d0ba5024039f6	7.26137164608962
136	0x40255d141626a30d	10.681793873039647
137	0x401e6bb6f042cf5b	7.605190042569883
138	0x4007c8ef0d9783f5	2.97311220759047
139	0x3fce17fbfa71ff59	0.23510694245123423
140	0xbfef90ccee1d8eba	-0.9864258433048783
141	0xbff7f4305e09d1a8	-1.4971164391873604
142	0xbff808fa9cefac31	-1.5021921282120838
143	0xbfef606d89372942	-0.9805209808339799
144	0x3fbaa8d7d6817f42	0.10413884150466138
145	0x3ffb0f81831b4a9c	1.6912856217719883
146	0x400b7602d80ea0c1	3.432622611948404
147	0x4012649269878e45	4.598214768313089
148	0x40122af2c795eb55	4.541941755795809
149	0x400bb62643f7b0ee	3.4639401731457076
150	0x400221f5905b1ed7	2.2665816572005997
151	0x3ff8dafb1ccb8336	1.5534621357730436
152	0x3ff4263ae1e6476a	1.2593334984016686
153	0x3ff1e773ac7dc185	1.1190067995013078
154	0x3ff004d988be4163	1.0011840192347214
155	0x3fec2797263cc5ee	0.8798328158210873
156	0x3fe82eaa7bad59a8	0.7556965270585367
157	0x3fe434a9a63fad04	0.6314285513921338
158	0x3fe048acf3853ca1	0.5088715320834077
159	0x3fd8fe6b5ff0fbdf	0.3905285298278027
160	0x3fd20acd47887d1f	0.2819092939916618
161	0x3fc87bf7706bc740	0.19128315915400584
162	0x3fbf9dfefd2e626e	0.12350457841092474
163	0x3fb2ed76527cc122	0.07393588556147226
164	0x3f9f233bd4d1be5d	0.0304078434605216
165	0xbf9b95874a19ccd5	-0.02693759336257247
166	0xbfc0b8d0a6f1f98e	-0.1306401076471499
167	0xbfd2174825dd668d	-0.2826710099958312
168	0xbfd7f6dbbcec26f1	-0.37444203805408366
169	0xbfd2797751caa192	-0.2886637018914594
170	0xbfc071b3cf0190c1	-0.1284699211856886
171	0xbfb7eb11e3cd7687	-0.0934306317480723
172	0xbfc6fe2d12433b77	-0.17963183776597777
173	0xbfd1018f9ab2331d	-0.2657202730850246
174	0xbfd40900127b3de4	-0.31304933361840726
175	0xbfd5f2566dba1643	-0.3429161140014438
176	0xbfd7b2e1758c35f5	-0.3702930114676229
177	0xbfd9825fba3fedd2	-0.3985823935360858
178	0xbfdb68f118e9ab2d	-0.4282801383293869
179	0xbfdd6a0388d9bbbe	-0.45959556927021683
180	0xbfdf8b25cf811367	-0.4928679014595247
181	0xbfe0ea76da84156e	-0.528621126927346
182	0xbfe2284f0cd48fd7	-0.567420506533831
183	0xbfe384c741688918	-0.6099582936770132
184	0xbfe50808b33fcee3	-0.6572307110750127
185	0xbfe6bb37f46b62f3	-0.7103538297479574
186	0xbfe8a870f778d591	-0.7705616792142554
187	0xbfeadf06b4c7988e	-0.8397248774388275
188	0xbfed75c224344e8d	-0.9206248004069991
189	0xbff044e8618c1ccf	-1.016823178333471
190	0xbff20d5e8289472e	-1.1282639597961395
191	0xbff34f3dc4123ed2	-1.2068460139307047
192	0xbfef6908a903b366	-0.9815715123237225
193	0x3fcc291d3c8482be	0.2200047059532348
194	0x4006a7f4761aa75b	2.8320092417606424
195	0x4015ce6dffa3c181	5.451591486329904
196	0x4014f1e051238507	5.236207263749072
197	0x3fee1be4714ea4ce	0.9409048283606809
198	0xc00b6451d6bd0631	-3.4239842201648334
199	0xc00b6451d6bd0631	-3.4239842201648334
200	0x40169ad86842c110	5.651216153215742
201	0x40167392159be610	5.612861955299664
202	0x40162afb46f9c1a0	5.541974171632688
203	0x4015e4413a93372b	5.472905078158685
204	0x40159ff40eb7393b	5.406204442914084
205	0x4015562a8c383472	5.334146681719277
206	0x40150354477ff56a	5.253251187500931
207	0x4014a649a55ee3c4	5.162390312115296
208	0x40143a1d9f4080fb	5.05675362425995
209	0x4013a5dd6a06cebc	4.911977440515042
210	0x4012b3c179ff82ef	4.6755427419854945
211	0x4011641945111509	4.347752646606076
212	0x4010651719bef44d	4.098720934181142
213	0x40105f7f2a955227	4.093258538593125
214	0x4010b8a8bf23968b	4.180331217333911
215	0x40106b95c3bd78af	4.105063494147699
216	0x400f11ab683a53f7	3.883627714424161
217	0x400d43d253260886	3.6581160064679947
218	0x400bbd3524dfc164	3.4673865204605807
219	0x400a4fbd08d83513	3.2889347735387076
220	0x4008e02da2395112	3.1094620393506682
221	0x40076a4a90c88272	2.92690003501803
222	0x4005eef9be89d2dc	2.7416872869310804
223	0x40046fb769293b79	2.5545490470607857
224	0x4002ee275d0d59a4	2.366286017389216
225	0x40016be4ddf29fd7	2.177682622877892
226	0x3fffd4e1557d0037	1.9894727076898684
227	0x3ffcd6aa5efd9c92	1.8024085722516117
228	0x3ff9dfc89a6c9378	1.6171346695129767
229	0x3ff6e80942835474	1.4316494558491089
230	0x3ff3a21d1c4e332d	1.2270785432512625
231	0x3fee209b3dee2648	0.9414802751136415
232	0x3fe09e30c42a3778	0.5193103629442097
233	0x3fbca998f20962f0	0.11196285161112107
234	0x3fa8f4596fa5616d	0.048739237669624604
235	0x3fd3eb944c020b1e	0.31125361845640664
236	0x3fdd5d6e630d4f7f	0.4588275878243095
237	0x3fd405f88db14a9e	0.31286443555033283
238	0x3fb8519c0c296a4a	0.09499526307028208
239	0xbfa41a5840e86743	-0.03926349441844803
240	0xbfbb2d6988e2e022	-0.10616168586682354
241	0xbfc210c8e7555a44	-0.141137230830923
242	0xbfc3942c5bec3ae1	-0.15295938957611724
243	0xbfc1fec8d08d5eb6	-0.14058790381635838
244	0xbfba31d75c2f6869	-0.10232301712622562
245	0xbfa486a284dfb85e	-0.04008968231197295
246	0x3fa0f154d872ddc4	0.033091212675056464
247	0x3fb6bb6d4fb479ca	0.0887974090187306
248	0x3fb99fb8845090e2	0.10009339552249544
249	0x3fb231917a8f577c	0.071068851873262
250	0x3fa1438101b4ddd4	0.033718139131845654
251	0x3f8760e0852023a8	0.011415247023266975
252	0x3f6d16dabd22dd67	0.003550936912769909
253	0x3f56758ce7fadafd	0.0013707996403533034
254	0x3f316d4503430bcd	0.0002659123886241094
255	0xbf497d8d06ceb3de	-0.0007779062849430048
