old_robot_pepper/primitive_saved/react_funny_weights.npy (npy, 38528 bytes, 1 tensors)

array f8 [48, 100]
0	0xbfe7971b81ddab1a	-0.7371957336848454
1	0xbfea4b1e415e7799	-0.82166970031152
2	0xbfebe04f28d2120f	-0.8711314961697684
3	0xbfebb666045650c4	-0.8660154423437452
4	0xbfeb5429ad4398d8	-0.8540237793029304
5	0xbfeadd397f325f5f	-0.83950495570296
6	0xbfea3c0388fa1366	-0.8198259044007556
7	0xbfe9662e8885027b	-0.7937233606717905
8	0xbfe856139cd79657	-0.7605073989222529
9	0xbfe708718b1b98cf	-0.7197807042073466
10	0xbfe57b4ace11f486	-0.6713003182227488
11	0xbfe3ada3210a975e	-0.6149459500636387
12	0xbfe19f1f5fc9bfb9	-0.55067414005861
13	0xbfde9f1cbfdf0cbc	-0.47846144425802684
14	0xbfd97e8df510d888	-0.39834927494246886
15	0xbfd3dd3b6c44f3a1	-0.3103779370610998
16	0xbfcb77c227f802b7	-0.21459223701096672
17	0xbfbc7038d65c98b4	-0.11108737214508119
18	0x3f16140c26f56682	8.422207041771694e-05
19	0x3fbe6bf1fb32b291	0.11883461363567906
20	0x3fcf5e001d603727	0.2450561660229422
21	0x3fd83c780749f51b	0.3786907263928058
22	0x3fe0a0a46b6feb4b	0.519609651411295
23	0x3fe55debbd7ff263	0.6677149487655466
24	0x3fea5562c0a4ac89	0.8229230654300334
25	0x3fef85bdf05a49c9	0.9850759214771695
26	0x3ff27725c38a7a78	1.154088748771441
27	0x3ff546fafd6136c5	1.3298292062421961
28	0x3ff831b116f0509c	1.5121317764324322
29	0x3ffb36e967c430f8	1.7009061864255823
30	0x3ffe55dc49debc6b	1.8959620366620367
31	0x4000c6f419cd0db7	2.0971452727987656
32	0x40026f42598a692e	2.304325770889725
33	0x4004235d14531737	2.5172673786027207
34	0x4005e2f8fe15857c	2.735826478034765
35	0x4007adabc85c5111	2.959800305669099
36	0x400982ef346aa064	3.1889328093566736
37	0x400b626ea95c99d7	3.4230626326927722
38	0x400d4b92a33c3ad0	3.661900782847944
39	0x400f3dd4a3390eca	3.905190730265393
40	0x40109c5f2c719cc9	4.152706808504441
41	0x40119dc87f30e7bc	4.404085147247255
42	0x4012a2e1094af703	4.659061570358747
43	0x4013ab5116579917	4.917301510902937
44	0x4014b6abf71bb3da	5.178390370431737
45	0x4015c49fa12f9d52	5.442015188723717
46	0x4016d4b19b0e7c30	5.707708761939145
47	0x4017e66b172b6a10	5.975017892861175
48	0x4018f95c62cf4eed	6.243516487029166
49	0x401a0ce8628b962a	6.51260522820443
50	0x401b208802dfddb0	6.781768841661162
51	0x401c339cb6ab90ce	7.05040250227121
52	0x401d45689fb075f1	7.31778192057162
53	0x401e5542a53266af	7.583262044144859
54	0x401f625052a40ddc	7.8460095322256755
55	0x402035d72b98fce2	8.105157244134208
56	0x4020b83b6fd17005	8.359828466716872
57	0x402137c4d5c21433	8.608923606816552
58	0x4021b3e569faf2dd	8.851359664805779
59	0x40222bfc631f4216	9.085909936490719
60	0x40229f4f5ea9b839	9.311152418344237
61	0x40230d21411c70a3	9.525644335481337
62	0x402374923afcfc70	9.727678149587717
63	0x4023d4ad56413b80	9.915384955847685
64	0x40242c69b7551ab6	10.086744050158227
65	0x40247a9195c92ae2	10.239391976172048
66	0x4024bdd4b66c5724	10.370763493275781
67	0x4024f4b659fb339b	10.477953731455093
68	0x40251d83552d3224	10.557642614142488
69	0x40253656e49893f5	10.606131690621604
70	0x40253d03d89d48cf	10.619169968795545
71	0x40252f0f379202b6	10.59191297204357
72	0x402509a061219dd5	10.518801722863751
73	0x4024c9706b73e6f2	10.39343581952878
74	0x40246ab0126bfc32	10.208374572450428
75	0x4023e8ed28c16dff	9.95493438111498
76	0x40233efa84fecb6c	9.623005062201365
77	0x402266a8d55bd9e6	9.200506846868802
78	0x402158acfad3e5e9	8.673194731108156
79	0x40200c4aa08c5c45	8.024006859906999
80	0x401ceda749445b58	7.232083458707017
81	0x401916e00bee687c	6.272339044977453
82	0x401474427b16a93c	5.113534854181406
83	0x400dbbaa9dc0b100	3.71663401836679
84	0x400043450a49ea51	2.0328465274626883
85	0xbf5439f75eac0a9c	-0.001234523365099583
86	0xc003bd4ef9a92e47	-2.4674357895617365
87	0xc015e04b7dbec0c3	-5.469037976043356
88	0xc022286bbca749bb	-9.07894696752634
89	0xc029d7964a99e4bb	-12.921068507467103
90	0xc02dd76fb9675b64	-14.920774263254948
91	0xc025d8ab90904caf	-10.923183934797946
92	0x3fc68359a3209e94	0.17588348832326928
93	0x40252fca0eb9e798	10.593338451569977
94	0x40275b703ed9109a	11.678590740201162
95	0x4016e8e2162297a4	5.727424951421117
96	0x3fcec972e03f1fa4	0.2405227274850833
97	0xc000fbe208064357	-2.122989714327939
98	0xc000b6ed139f7b9e	-2.0893193753285706
99	0xc000b6ed139f7b9e	-2.0893193753285706
100	0x40413aaf5c8bc484	34.45847660851089
101	0x40438bc157bc46eb	39.09183785145964
102	0x40453f8a63c9cf30	42.496410821475706
103	0x4045b2e3a225f647	43.397571819816726
104	0x4046030710e41578	44.02365313660533
105	0x40464f65d738d59e	44.62029543185348
106	0x404689ca1318b426	45.07647932726131
107	0x4046aaf6bbacb1de	45.335654696773176
108	0x4046aedec5928bab	45.366173454814394
109	0x404693127e1494a5	45.14900184636034
110	0x4046562349d40e8a	44.67295191625915
111	0x4045f74895a27733	43.931902603463094
112	0x40457626e97ad98a	42.923062500939594
113	0x4044d29a183ca783	41.64532759629858
114	0x40440cbcff69b946	40.09951775228778
115	0x404324bb9ac44076	38.28697523672683
116	0x40421acec2368fb5	36.209434773103034
117	0x4040ef59827d66e0	33.869919120055556
118	0x403f45499b067bb8	31.270654381831008
119	0x403c6a2e5f67a312	28.414770090867997
120	0x40394e536062d092	25.305959724545183
121	0x4035f25fcb481800	21.94677420148946
122	0x40325771487b9cb7	18.341572313479187
123	0x402cfcee5ddc1652	14.49400609313594
124	0x4024d096c5aa6f3e	10.40740030007839
125	0x4018592da841b8e7	6.087088231097574
126	0x3ff8959cf4308f51	1.5365266359958307
127	0xc009ea81078150f1	-3.239503916391293
128	0xc020787335918979	-8.235253976836917
129	0xc02ae4d81a9e26fe	-13.446961242490485
130	0xc032de38436676a0	-18.868046009555314
131	0xc0387e2b8e471b71	-24.49285210834518
132	0xc03e50fa2e1e0c19	-30.316317446075207
133	0xc0422a481d19d933	-36.33032573473101
134	0xc04543bf35a27d62	-42.52927275117942
135	0xc04873f10b043143	-48.90579354958256
136	0xc04bb9b743ae9128	-55.45090528510838
137	0xc04f1440680570b8	-62.158215525299454
138	0xc051411fe66d3308	-69.01757202781675
139	0xc053014187826989	-76.0196245931203
140	0xc054c9f8462f2d41	-83.15577845198733
141	0xc0569a73cdd094b5	-90.41331811303355
142	0xc0587210462c093a	-97.7822432928123
143	0xc05a5005d368efa1	-105.25035557983075
144	0xc05c3363b597c1fd	-112.802960775567
145	0xc05e1b65fcaa028f	-120.42809979059733
146	0xc060037e0edc1842	-128.10913794505365
147	0xc060fa8c1ee964f3	-135.82960458359557
148	0xc061f25a79d9347e	-143.57354442999707
149	0xc062ea3b1cc07348	-151.31971585834458
150	0xc063e1912e9d8e8b	-159.0489724232942
151	0xc064d7a7c552e78b	-166.73922983352927
152	0xc065cbaaa7429537	-174.36458170895068
153	0xc066bcd468453b21	-181.9009286262672
154	0xc067aa2f871d317a	-189.31830173208056
155	0xc06892b9ffc87d11	-196.58520497472685
156	0xc069756a1f22ebe5	-203.6692043001232
157	0xc06a50fd04eed6ce	-210.5308861412836
158	0xc06b242c83f2a901	-217.13043401140752
159	0xc06bed89d69682a9	-223.4230759563118
160	0xc06cab72d489fdb5	-229.3577673621309
161	0xc06d5c41c283d263	-234.88302732225847
162	0xc06dfe4723e2762d	-239.94618410330568
163	0xc06e904e48c0e00b	-244.5095561759084
164	0xc06f11f450c41df4	-248.56107366851904
165	0xc06f82fd154a0fb3	-252.0933939405928
166	0xc06fe24c14fa42f8	-255.0717873466417
167	0xc07016bba8a67584	-257.4208151342684
168	0xc07030ba497d32e8	-259.04548024087717
169	0xc0703d9a65aab04d	-259.8501946132208
170	0xc0703bc10977235f	-259.7346281675181
171	0xc0702966754245d4	-258.5875141705303
172	0xc07004808ec569c3	-256.28138615717415
173	0xc06f956e111b65df	-252.66968589163932
174	0xc06ef29cfd653347	-247.58166379705128
175	0xc06e1a2cfa2413a7	-240.81799037023777
176	0xc06d04b348d8804c	-232.14688532147773
177	0xc06ba94e8493bff5	-221.2908347020854
178	0xc069fd893b375242	-207.92300186924882
179	0xc067f4dc7c89987e	-191.65191485284953
180	0xc0657ff3140e6671	-171.99842264950306
181	0xc0628c633d1c5f58	-148.38711410085193
182	0xc05e06740294c213	-120.10083069350394
183	0xc0558f92f9ac8cbc	-86.24334565973817
184	0xc046d8ff19d17ceb	-45.69528506020455
185	0x4007fe50c60c0fdc	2.999177500956632
186	0x404edbe3ea8faeb2	61.71789295211546
187	0x40609a79540872ac	132.8273105778693
188	0x406b3e5f5aa60314	217.94913990425323
189	0x407340e7a943c0eb	308.05655790773625
190	0x40761fa6a7cca7f9	353.9781873697644
191	0x407019cd3d7a0d45	257.6126074569368
192	0xc019a266cbd95301	-6.408595261706751
193	0xc06fa1a33c863bae	-253.05117632119567
194	0xc0715ac9a6539c01	-277.6742308870308
195	0xc060f223992b36c3	-135.5668454975149
196	0xc01399e91b1ecd42	-4.900303291087143
197	0x40499a95b9ff3ce1	51.20769429171356
198	0x4048e3ccb2ea5504	49.779684414310424
199	0x4048e3ccb2ea5504	49.779684414310424
200	0x0000000000000000	0.0
201	0x0000000000000000	0.0
202	0x0000000000000000	0.0
203	0x0000000000000000	0.0
204	0x0000000000000000	0.0
205	0x0000000000000000	0.0
206	0x0000000000000000	0.0
207	0x0000000000000000	0.0
208	0x0000000000000000	0.0
209	0x0000000000000000	0.0
210	0x0000000000000000	0.0
211	0x0000000000000000	0.0
212	0x0000000000000000	0.0
213	0x0000000000000000	0.0
214	0x0000000000000000	0.0
215	0x0000000000000000	0.0
216	0x0000000000000000	0.0
217	0x0000000000000000	0.0
218	0x0000000000000000	0.0
219	0x0000000000000000	0.0
220	0x0000000000000000	0.0
221	0x0000000000000000	0.0
222	0x0000000000000000	0.0
223	0x0000000000000000	0.0
224	0x0000000000000000	0.0
225	0x0000000000000000	0.0
226	0x0000000000000000	0.0
227	0x0000000000000000	0.0
228	0x0000000000000000	0.0
229	0x0000000000000000	0.0
230	0x0000000000000000	0.0
231	0x0000000000000000	0.0
232	0x0000000000000000	0.0
233	0x0000000000000000	0.0
234	0x0000000000000000	0.0
235	0x0000000000000000	0.0
236	0x0000000000000000	0.0
237	0x0000000000000000	0.0
238	0x0000000000000000	0.0
239	0x0000000000000000	0.0
240	0x0000000000000000	0.0
241	0x0000000000000000	0.0
242	0x0000000000000000	0.0
243	0x0000000000000000	0.0
244	0x0000000000000000	0.0
245	0x0000000000000000	0.0
246	0x0000000000000000	0.0
247	0x0000000000000000	0.0
248	0x0000000000000000	0.0
249	0x0000000000000000	0.0
250	0x0000000000000000	0.0
251	0x0000000000000000	0.0
252	0x0000000000000000	0.0
253	0x0000000000000000	0.0
254	0x0000000000000000	0.0
255	0x0000000000000000	0.0
