old_robot_pepper/primitive_saved/settle_to-stand_weights.npy (npy, 38528 bytes, 1 tensors)

array f8 [48, 100]
00000000: df65 ac3e f2e5 4240 594b aa3b 1575 4540
00000010: b85e 3bcb 4a8d 4740 a505 3f94 0f47 4840
00000020: 07b3 b996 f9d6 4840 f892 d608 a369 4940
00000030: dfb3 76d7 5eef 4940 96bf df53 e05f 4a40
00000040: b4b8 2d4a 9bb6 4a40 29cc 36aa 01f1 4a40
00000050: 6b63 4814 aa0d 4b40 00a6 98fd df0b 4b40
00000060: 2384 4105 71eb 4a40 4735 5ee4 72ac 4a40
00000070: 7a1c f748 2b4f 4a40 58be a81c 11d4 4940
00000080: b609 6e88 a83b 4940 c312 c494 7786 4840
00000090: c7af 9d3e 2cb5 4740 59ec 6c6b 86c8 4640
000000a0: 3713 c40e 2bc1 4540 5b03 b879 d59f 4440
000000b0: 534a 4ddb 7365 4340 dd99 db12 dd12 4240
000000c0: caa5 daee d3a8 4040 ed2a 10e4 ba50 3e40
000000d0: f9ea 85be 2c25 3b40 362b 5b53 ced0 3740
000000e0: 1960 fe05 b155 3440 2371 1aff 87b6 3040
000000f0: 23c5 2636 91eb 2940 c21e 69a9 532b 2240
00000100: e274 2cfd 7064 1440 5b7c c753 5036 f03f
00000110: 8806 c628 b045 09c0 41c5 f92b 7ea0 1dc0
00000120: a751 f6c8 c96d 27c0 f182 95b1 4011 30c0
00000130: e331 867a b073 34c0 203f a0c9 cdd9 38c0
00000140: 5705 f408 a93e 3dc0 b54e 29c7 dfce 40c0
00000150: d343 411e 14f9 42c0 282e 9041 f31a 45c0
00000160: ca08 b600 7931 47c0 58d2 1533 ae39 49c0
00000170: 1cd0 6841 1930 4bc0 7dc2 a4b9 fe10 4dc0
00000180: 20bc 592b 6ed9 4ec0 b81d b23d 3c44 50c0
00000190: 6f7c 33e8 4210 51c0 5b8d 15cc 42d3 51c0
000001a0: ba31 3c9b c48e 52c0 9cff 9278 df41 53c0
000001b0: 2d57 a397 59ea 53c0 f72b 699e 5686 54c0
000001c0: e6ac 6219 8514 55c0 f602 2ab0 a793 55c0
000001d0: 6d0d c651 7b02 56c0 6e89 ddbf ad5f 56c0
000001e0: f65c 46c3 b7a9 56c0 8680 3517 e1de 56c0
000001f0: 7278 adbf 4ffd 56c0 371b 382c f102 57c0
00000200: 3a19 209e 6fed 56c0 467d 89f2 36ba 56c0
00000210: 7f3d 3b38 5d66 56c0 01bf f7b9 97ee 55c0
00000220: 96a0 e0e1 404f 55c0 0aad 40d5 2c84 54c0
00000230: 0585 f5fd 8588 53c0 79af 7479 e656 52c0
00000240: e569 a069 2ce9 50c0 20bc 0331 1970 4ec0
00000250: ad95 a95f 3376 4ac0 cafe 079e 99d1 45c0
00000260: 803c 13fe 8e6b 40c0 9f8f 43d6 2e51 34c0
00000270: c73d fb0c c546 17c0 aaf0 502d 3fe5 2540
00000280: 14f0 4815 6b54 3e40 4d5b 3763 e53b 4a40
00000290: ca28 c314 14db 5240 21fc b5b5 854d 5640
000002a0: 1704 35c5 5420 5240 1c6e d6ea 3e4a 2f40
000002b0: 79e4 8727 ceb6 46c0 8cd1 a83f aa79 4ec0
000002c0: d01a e1f8 4389 41c0 78f7 9992 1d52 20c0
000002d0: 757f 14b1 20d8 0540 42c1 cc9e 355e 1240
000002e0: 5dd8 c16e 5107 1240 4452 8811 afff 1140
000002f0: d0aa 766f 8c5d 1340 94da afc6 5c7b 1640
00000300: 478b a679 c8ec 1a40 4256 2a8f 868c 1240
00000310: 4720 49dd 7cd4 05c0 4720 49dd 7cd4 05c0
00000320: 356c 4117 78db 52c0 9e6d 3408 5a54 55c0
00000330: ed50 d1ec d941 57c0 6673 050c 91cb 57c0
00000340: c1cb d890 fa2a 58c0 7fd3 1103 388b 58c0
00000350: e072 4234 e7db 58c0 da80 2afd be14 59c0
00000360: cb2c fddc 6b31 59c0 da7b 2f4f a02f 59c0
00000370: f2f1 70f8 3a0e 59c0 3e2d a29f e1cc 58c0
00000380: 8bf7 9787 c16b 58c0 3c06 b20d 4ceb 57c0
00000390: 1862 ce41 2e4c 57c0 f1e2 78e8 538f 56c0
000003a0: 63d1 ae59 b2b5 55c0 8556 83f5 42c0 54c0
000003b0: e43c 7228 38b0 53c0 1633 d1c6 db86 52c0
000003c0: 3dbc 3e7e 5945 51c0 2c46 c9aa ffd9 4fc0
000003d0: d907 c907 befe 4cc0 81ab 7ad2 e0fb 49c0
000003e0: f104 ce48 3ed4 46c0 a46f 7c91 538b 43c0
000003f0: c909 fd2b df24 40c0 29e3 bce3 8148 39c0
00000400: f86b c92f 6e1a 32c0 24d9 41d7 f790 25c0
00000410: 5187 938e 7ada 0ac0 0a15 bec1 c192 1040
00000420: 5896 4e70 d65a 2740 fecc 4dd1 ed33 3340
00000430: a25b c8fd e9ad 3a40 b841 b59e 0e08 4140
00000440: 3c94 4946 b1a6 4440 ceba e81e 452c 4840
00000450: bec8 39ad 2992 4b40 6128 b52e c0d0 4e40
00000460: a613 3eff e0ef 5040 b7a7 f52d 745b 5240
00000470: a1ae aa37 9da6 5340 1b41 a8e6 53cc 5440
00000480: 3709 4a31 58c7 5540 aaa8 3421 2692 5640
00000490: 1fce 942f af26 5740 f6bd 19b1 cf7e 5740
000004a0: bb38 3aa4 0896 5740 26c0 ddb2 856d 5740
000004b0: 9856 18ce 9510 5740 312b 88af 6f91 5640
000004c0: f08b 0df8 fcfc 5540 c938 bea8 f553 5540
000004d0: be22 ea3a df90 5440 cce2 ee17 10b0 5340
000004e0: a18c 4453 50b1 5240 9d76 0ae9 3996 5140
000004f0: 70c4 3e3d da60 5040 73a7 13df 7626 4e40
00000500: 95b7 e1eb 5d5f 4b40 794f 7899 d271 4840
00000510: dc67 7559 5d63 4540 3364 71a6 ed39 4240
00000520: 309c 93de 55f9 3d40 8ae0 4b75 0c67 3740
00000530: fe90 2279 a9cd 3040 d909 9881 0a81 2440
00000540: 6362 dd68 cfb2 0e40 ff69 3b93 bec0 02c0
00000550: 0852 bdcc 295e 20c0 70ee 3772 921b 2bc0
00000560: f070 fc31 a54e 32c0 c64f fcc2 4c47 36c0
00000570: c200 7709 1446 39c0 849b a119 9510 3bc0
00000580: 300c 6422 f962 3bc0 4762 1dab fbec 39c0
00000590: bc34 f766 d74e 36c0 60c3 36dc 7816 30c0
000005a0: 7e84 b8f4 40ef 1ac0 cd1d 0407 0b0f 1940
000005b0: e9f7 d1dc e474 3640 580a 04c5 c49d 4240
000005c0: 734c 8970 0294 4340 c83c 570a 58d6 3340
000005d0: 537e 24ba a08d 1fc0 0a13 9d69 0525 34c0
000005e0: c621 85ca eadd 2bc0 58a7 618b 2176 12c0
000005f0: ec29 e56b 2f76 debf 4d55 31f6 c8c4 d03f
00000600: d420 31e7 baac c33f d463 4002 b7d1 9fbf
00000610: bf15 d65f 5a6b cabf 6da3 e5f3 220c d9bf
00000620: 50be e2a8 d067 e2bf b203 00a5 097a cdbf
00000630: 2886 51d3 ee40 eb3f 2886 51d3 ee40 eb3f
00000640: 29a4 974d 3214 15c0 ab4c 3466 ac00 18c0
00000650: 2ace 26d7 dc6f 1ac0 62b9 8d30 c757 1bc0
00000660: 1c3b 2204 6713 1cc0 b992 69c9 bad5 1cc0
00000670: 2b7e 9e61 958d 1dc0 a39e 21f9 f231 1ec0
00000680: e8e4 c7e2 febd 1ec0 1ac4 61fb 282f 1fc0
00000690: 00e1 5cdf 2f84 1fc0 a65d 3488 98bc 1fc0
000006a0: 4b3d 28f1 7dd8 1fc0 52dc 73de 59d8 1fc0
000006b0: 4980 d46e dbbc 1fc0 351f 32db e386 1fc0
000006c0: 2624 181f 7237 1fc0 68e7 8357 93cf 1ec0
000006d0: ea17 c5ce 7750 1ec0 7de3 7b4e 68bb 1dc0
000006e0: 9e96 92d3 a711 1dc0 5880 ac59 9254 1cc0
000006f0: 54fb bf7f b185 1bc0 852e 0905 8ca6 1ac0
00000700: cb70 e143 a8b8 19c0 a768 cba1 c6bd 18c0
00000710: c24a eab0 c5b7 17c0 ce07 f6ba 71a8 16c0
00000720: 29e7 4939 be91 15c0 4daf 3065 e475 14c0
00000730: 07f5 3514 1d57 13c0 70a6 658c a537 12c0
00000740: 90f2 438e 0b1a 11c0 3173 eeeb 0c01 10c0
00000750: 1abb 90d7 c0de 0dc0 8afb dd7c eacf 0bc0
00000760: b0fa 35b0 28dc 09c0 f7e9 8f4d 3c0a 08c0
00000770: bafd 3c84 2461 06c0 a2be 673f a4e8 04c0
00000780: ba46 7794 0ea9 03c0 e801 f029 06ab 02c0
00000790: b3c4 91a0 e0f7 01c0 6c9f e900 c299 01c0
000007a0: 14e5 a383 669b 01c0 ddad 9368 5908 02c0
000007b0: 93c8 34ce fbec 02c0 5f57 8bb7 8f55 04c0
000007c0: f1ef f645 a54a 06c0 ddec f70e 29c7 08c0
000007d0: ffad 6613 61ad 0bc0 010d 70d2 16cf 0ec0
000007e0: d28d 6501 5b05 11c0 1759 7c6d 8fad 12c0
000007f0: 03d3 0a6e bb64 14c0 30aa bf64 432d 16c0
37.796455225161246 42.914710481788184 47.10384502791334 48.55516293599366 49.679491844819545 50.82528791882754 51.87008183761622 52.74903343606199
53.42661406738753 53.88286330867442 54.106752906175494 54.0927731509546 53.83938661288291 53.34725622749334 52.61850845399836 51.65677221526556
50.466080716828785 49.05052432607547 47.41541273784201 45.566602161584065 43.50912651609399 41.24870225415244 38.7925981643099 36.147371632792535
33.31896768261102 30.315351728388965 27.14521399278144 23.81564827895928 20.33473241291367 16.71301264186435 12.96009225104587 9.084622663576173
5.098087268675245 1.0132601997973072 -3.1590274033959 -7.406731307143958 -11.71443012244056 -16.06739339733298 -20.45191159988634 -24.850796319601727
-29.244766769004254 -33.616204161805776 -37.94592645823254 -42.21054858722738 -46.38650521171947 -50.45062864842902 -54.37577073686427 -58.13277359528454
-61.69867460137925 -65.06617681879186 -68.25408368137299 -71.30095197777466 -74.23074990156502 -77.02926458697624 -79.66171828223442 -82.09903679152181
-84.32062372814434 -86.30710987188999 -88.03877682057437 -89.49497982630211 -90.65184099074744 -91.48248844361123 -91.95799247684934 -92.0459700153268
-91.70993760237334 -90.90960372378058 -89.59943967614343 -87.72801064676243 -85.23833510338076 -82.0652363902665 -78.13317822433972 -73.35781704325736
-67.64333573022266 -60.875768782447494 -52.9234428003359 -43.63750052824396 -32.84030128421091 -20.317120925421133 -5.819111063799432 10.947747627382643
30.329758959109384 52.46793785288774 75.42310065325287 89.2112859990307 72.50517397096006 15.645011271167327 -45.428166333535906 -60.95050807707875
-35.072386846460745 -8.160381871504555 2.7305311045055825 4.592001420256851 4.507146578389521 4.499691270776172 4.841356031053422 5.6204711003143935
6.731233502187769 4.637232052763979 -2.72875378493703 -2.72875378493703 -75.42920476330694 -85.31799512023869 -93.02892609063174 -95.18072796375563
-96.67154332324482 -98.17529370060764 -99.43598658074507 -100.32415703917232 -100.77220844959372 -100.74415950429048 -100.22234927205844 -99.20127096974917
-97.6836871131947 -95.67651693711463 -93.19032330660445 -90.23949634366342 -86.83901063987791 -83.0040868551824 -78.75342761188546 -74.10716410092968
-69.08358722807402 -63.70311484172666 -57.99017426792097 -51.96779852857345 -45.65815076884781 -39.08848780227643 -32.28806066375143 -25.28323195802219
-18.103243815112336 -10.783140875614272 -3.3566790713092947 4.143317248560615 11.677417287438558 19.20284755849297 26.67935167447616 34.062946165565734
41.302284990241304 48.345859397542526 55.14189687081806 61.63086494298546 67.74810772955115 73.42896603574523 78.60334579151323 83.19262091094099
87.11475784521177 90.28357725279298 92.60444249660257 93.98142650140639 94.34427743612007 93.71128532080965 92.25914337517531 90.27244175241209
87.9529399997989 85.31186884476041 82.26362488617721 78.75098226860717 74.7705276650836 70.34728456517992 65.51332026605246 60.30050266704247
54.74505375405639 48.889239486451466 42.776286299063685 36.45256500755968 29.97396651366961 23.402533846878704 16.803367205561692 10.252033281144508
3.837309664970506 -2.3441134932047585 -8.183912656889348 -13.553851670577586 -18.307208179598945 -22.278515040015712 -25.27374323993059 -27.064775087313606
-27.386613988328634 -25.925715155290415 -22.307974276879335 -16.087781680459898 -6.733646224748666 6.264690503717657 22.456617165815178 37.232567431424
39.156324450531336 19.837280889795494 -7.888308437802681 -20.14461383900474 -13.933431938888031 -4.615362336955364 -0.47596345459592615 0.2620108036256468
0.15370880402247755 -0.03107343627207 -0.2064011543226751 -0.39136575525349465 -0.5751727388905667 -0.23028679424899462 0.8516763808549443 0.8516763808549443
-5.269723141079376 -6.00065765089236 -6.609240876906862 -6.835720785761028 -7.0189476629155045 -7.2087203474699715 -7.388265157030712 -7.548778431584341
-7.68554262490327 -7.796054771272816 -7.8790888691366945 -7.934175613590389 -7.961417930680294 -7.961280322858402 -7.934430820198096 -7.881728577551077
-7.804146276329481 -7.70271050207689 -7.578582030086162 -7.433015085517465 -7.267241769620936 -7.082589532045027 -6.880559917538296 -6.66264350765744
-6.430329380640795 -6.185328033485496 -5.929465069103289 -5.664496346727857 -5.392327208648376 -5.11512907132767 -4.835071864884646 -4.5543424546282125
-4.275434706589877 -4.001025854519683 -3.733766254524551 -3.4765214686626154 -3.2324994818185004 -3.004997831301121 -2.7974329310524952 -2.613594527581726
-2.4575473402881842 -2.3335078503007374 -2.246033911179063 -2.2000770636840823 -2.2008791241065726 -2.2540767831867314 -2.3657146558626407 -2.541778024616107
-2.7864480463012957 -3.097246281567648 -3.459657813616786 -3.8511177483029546 -4.255229970763553 -4.669492445673561 -5.098371238146458 -5.544202398489276
