old_robot_pepper/primitive_saved/show_excitement_weights.npy (npy, 38528 bytes, 1 tensors)

array f8 [48, 100]
0	0x4039cb4efc79ac05	25.794173984246317
1	0x403a6db10fb1aeaa	26.428482991103614
2	0x403b5728ebf1174c	27.340468164787396
3	0x403c026098cbf0d7	28.00928645113967
4	0x403c692e2deb2719	28.41086089125665
5	0x403ce123e8ceafbf	28.879454184017728
6	0x403d8addb2dcb783	29.542445353399227
7	0x403e44a03ae38083	30.268069916288834
8	0x403efb2480ef642e	30.981025751538418
9	0x403fb16879785741	31.693000404243552
10	0x4040358749ef6494	32.41819118680101
11	0x4040945de3f4ed29	33.1591153093271
12	0x4040f52d8b3e45e9	33.91545239010504
13	0x404157d80b6ecbd0	34.68628065977066
14	0x4041bc45ad2ab255	35.470876355979875
15	0x4042225ef8675f71	36.26852326438428
16	0x40428a0632718d6d	37.078314118810205
17	0x4042f326dc856410	37.899623456127415
18	0x40435da0586beede	38.731455853177735
19	0x4043c95930ba16c0	39.573034373153405
20	0x404436358ccc689e	40.42350921612636
21	0x4044a412e96fac12	41.28182714417211
22	0x404512d7561f8c12	42.14719654598606
23	0x4045825d7f4b42b5	43.018478309391334
24	0x4045f2ac16a25a00	43.89587672164271
25	0x4046651fbe1db5e3	44.79003120852192
26	0x4046e1091a94a674	45.7580903268653
27	0x404774ef151a0f27	46.91354621670171
28	0x404818825d5a74e0	48.19147841374229
29	0x404890009945a51e	49.12501827145228
30	0x4048bea393a5ad7b	49.48936696614961
31	0x4048ef64040a8ccb	49.87023973956237
32	0x40495a6dd0638fcd	50.70647625790989
33	0x4049dc8dffbe0be9	51.72308346538177
34	0x404a527cc27021cb	52.644432358505206
35	0x404abd380bdd91e4	53.4782728988537
36	0x404b24c3c4ec7b86	54.28722440287588
37	0x404b8bd18b08b397	55.092332247971335
38	0x404beb8d8234a7e3	55.84025600024304
39	0x404c33e86f0cebd2	56.40553081637303
40	0x404c65348837a6d2	56.790665652440694
41	0x404c9afa97a56142	57.210772472144996
42	0x404ce04df18f43ea	57.752378649667506
43	0x404d1c2a9f32e5df	58.220050716259486
44	0x404d35859bed7c44	58.41813992591827
45	0x404d2afe89729e78	58.33589284989006
46	0x404d0bc9933eb655	58.09208908617135
47	0x404ce5bf1a151678	57.79489446668316
48	0x404cbb52ecfd4e8f	57.46346819275379
49	0x404c887b410a3f4f	57.066261415484966
50	0x404c487cf7292aff	56.56631364355234
51	0x404bec3f7387f878	55.84568637980641
52	0x404b3cc942165f33	54.47489191143395
53	0x4049f4db24becb87	51.91293772998966
54	0x40488690d2186877	49.0512945765667
55	0x40482f09686fa76f	48.3674746079622
56	0x4048e847c55099a7	49.81469026980931
57	0x40491b28fef5aef2	50.212188596689785
58	0x404848753a9e5c07	48.5660775445213
59	0x40473d0398e606a7	46.47667227966058
60	0x40465e3933d417bc	44.73612068039026
61	0x404592cf0d4528e7	43.14694372059767
62	0x4044c00a803793db	41.50032046045063
63	0x4043cb37417ecac4	39.58762377444285
64	0x4042595e237bd9cf	36.698185382341414
65	0x403fc62239e9177f	31.773959750563787
66	0x403a1b906ed38e3f	26.107672621392563
67	0x403860a1a450badb	24.3774664589972
68	0x403b44c939e1127c	27.26869546647002
69	0x403cb4c33a7dde34	28.706103950242507
70	0x4039fdb8c631747c	25.99110068042181
71	0x4036321f7de99f75	22.1957930274361
72	0x40333fde5330b1dd	19.249486159695028
73	0x4030d6e5fcde47ad	16.839446834819388
74	0x402d0f13166d712e	14.529442501887925
75	0x40286fbd4228adaa	12.21824080225527
76	0x4023d03d1a79469a	9.906716182045148
77	0x401e5adc5baeb5d0	7.5887312245735785
78	0x40145ca0041e85ce	5.090454162943798
79	0x3ffa01e16744dd4a	1.6254591020532012
80	0xc00f82875c72b970	-3.938734743357763
81	0xc023c655a52a8c0b	-9.887372170871478
82	0xc02526ad6fa3f695	-10.575541962399521
83	0xc015a674c55c5496	-5.412554820785905
84	0xc000369d192152ea	-2.026666828469719
85	0xc00cc5f697df3cda	-3.5966617455484142
86	0xc017af9c1425ef77	-5.921493830504793
87	0xc0193d264c810027	-6.309716410993167
88	0xc014198db0af2931	-5.02495456761453
89	0xc004705f70f80020	-2.554869539802908
90	0x3fe5039cd32a4523	0.6566909908598614
91	0x400b1d0762f70ab0	3.3891742450371893
92	0x400faa1f00827319	3.9580669441042002
93	0x4000501043fb1ff1	2.0390935240757178
94	0xbfe460cc115c845a	-0.6368160571183907
95	0xc001f6b129746cb8	-2.2454550970702165
96	0xc0044642a342b6ef	-2.534306788896053
97	0xbff846171b36362e	-1.5171118796309986
98	0x3ff71a083a59566d	1.4438555030114018
99	0x3ff71a083a59566d	1.4438555030114018
100	0x4026322f6c64891e	11.098018061897672
101	0x4024412406d2ad50	10.12722798654309
102	0x40213bd873f7cf5a	8.616885780334702
103	0x401e1c3d44ec9b66	7.527577473584506
104	0x401bdf7ac781bfb1	6.968241803449858
105	0x4019203a42837c1f	6.2814722435714705
106	0x4014b70e566f40a2	5.178765631237328
107	0x400f3d1ceb687dc1	3.904840315939254
108	0x4004e90ed3d874d3	2.613797812503074
109	0x3ff49d57a0723a6a	1.2884136454992139
110	0xbfb8c622a2a36c5a	-0.09677330465949421
111	0xbff8b8b1e94b67bd	-1.545091544443934
112	0xc0086f0869079c0b	-3.054215260071492
113	0xc0127b5e06b886c8	-4.620475869190791
114	0xc018f6333f279935	-6.240429865638636
115	0xc01fa4555de62f03	-7.91048189847402
116	0xc02340c1bd923883	-9.626478122805798
117	0xc026c4fa05cfabd0	-11.384720021820527
118	0xc02a5c7780288793	-13.18059921736475
119	0xc02e0505ff1cf430	-15.009811374935538
120	0xc030de23123849bc	-16.86772264360637
121	0xc032bfc5865e2d41	-18.74910774039495
122	0xc034a62f34755910	-20.649157789849653
123	0xc0368ff270af94db	-22.562293093554086
124	0xc0387d2f749ed852	-24.489005364208715
125	0xc03a7bffb4a2e774	-26.484370507976067
126	0xc03cd8e65d590e9b	-28.84726508545155
127	0xc04016ecb4d7e0ff	-32.17909870663606
128	0xc04216c905e8b4c7	-36.17800973761182
129	0xc04338b8eba293fe	-38.44314332426437
130	0xc042dfce445bf8f6	-37.748482270153474
131	0xc04285389601df05	-37.040789366639764
132	0xc0434d3173efb5cd	-38.603071682020165
133	0xc0448a69e92c2787	-41.08135714202859
134	0xc04589841291da04	-43.07434303399717
135	0xc046518129d28309	-44.63675425318622
136	0xc0471d8fb9acb898	-46.23094864781996
137	0xc0482a57a32a8f00	-48.33079948022896
138	0xc0496e9719663e2c	-50.863986182139655
139	0xc04a349a22e5aa8b	-52.410953867093745
140	0xc049d27cd5e95c64	-51.64443467993331
141	0xc048ca5d8809c40b	-49.580979351776556
142	0xc0482c9fd1bdac2f	-48.348627297986575
143	0xc04843f4240b7a82	-48.53088808594204
144	0xc04894ec9a6f81bf	-49.1634705585925
145	0xc048bc3d0e0b1b35	-49.47061324636744
146	0xc048b9c6b90d4d90	-49.451377040382
147	0xc048a286f1f373a0	-49.269743198273545
148	0xc0487d60cbf6db15	-48.97951650193696
149	0xc0484bdc0487f025	-48.59265190732575
150	0xc0480d650bc719db	-48.10464617940644
151	0xc047b5fbb08c9fc5	-47.421743458427535
152	0xc04715c514b55681	-46.17007693151846
153	0xc045f00e311bc742	-43.87543310028424
154	0xc044a806b7255a12	-41.31270493816204
155	0xc04452cc65ca364d	-40.6468627202381
156	0xc044eca001c15efe	-41.84863302175471
157	0xc04512ef29a8581f	-42.147923667144134
158	0xc04455a09b69a8ba	-40.66896383914123
159	0xc043666a06bcdda7	-38.80011066648449
160	0xc0429dd8c43db498	-37.23317769062959
161	0xc041e6408fac5a81	-35.79884525218677
162	0xc041287c489b03f6	-34.31629283494105
163	0xc0404d4b1f98eead	-32.603855085062015
164	0xc03e0ab58366d665	-30.041832172972494
165	0xc039b56e7f45443b	-25.70871730271413
166	0xc034bc81b6013cae	-20.73635423212243
167	0xc033357185201943	-19.208763428055374
168	0xc035b7c8badf630f	-21.717906646287755
169	0xc036f48054d0a606	-22.955083180369932
170	0xc034916276d9323b	-20.567908695246143
171	0xc0313e702ad76815	-17.24389903792333
172	0xc02d565c776fa736	-14.668674213771379
173	0xc029231a9b7fee56	-12.568562373510911
174	0xc025201f6457df0e	-10.562739501692274
175	0xc0212089e4bf02d8	-8.563552044216905
176	0xc01a4a86825cc3da	-6.572778736984185
177	0xc0125926929065f8	-4.587061204970716
178	0xc003b653a8328abc	-2.4640267506050275
179	0x3fdc9229f3757544	0.44642113471293876
180	0x40144db79e8fdef4	5.075895764857467
181	0x4023f58cda9a83ea	9.979590255128603
182	0x4024e86eea47d039	10.453971215502053
183	0x40181fa4286ebcf1	6.030899650343813
184	0x40089f47db9bf21f	3.0777737767187
185	0x4010de995ffd7722	4.21738195404558
186	0x4017aa3adf122114	5.9162402014556115
187	0x4017a79758b700ba	5.913663278741462
188	0x4011a959e931af82	4.41538204541928
189	0x3ffd222e04e3fab1	1.8208446684872508
190	0xbff7316d72bab4d9	-1.4495672685255185
191	0xc010d56341b50d4e	-4.208386446643386
192	0xc01365506961f695	-4.848939558605385
193	0xc0094c4d97131cda	-3.1622573664386495
194	0xbff020b1193b8e02	-1.0079813943528966
195	0xbfbcc911f6aa23ff	-0.112443087311604
196	0x3f9297fdd65d7c80	0.018157926758587184
197	0x3fe845732ff15404	0.758477777135909
198	0x3ff6fcb217bb04d3	1.4366932799314795
199	0x3ff6fcb217bb04d3	1.4366932799314795
200	0xbf208f0b3173c2e4	-0.00012633334765823408
201	0xbf207386f78302a1	-0.00012551329178302643
202	0xbf20a06dd213c318	-0.0001268514688841586
203	0xbf2117c2bba6671b	-0.0001304078303519467
204	0xbf21580fa2e66c34	-0.00013232413170957832
205	0xbf2139e8b820ee87	-0.00013142553149402358
206	0xbf2104b8878d28ea	-0.00012984039838165952
207	0xbf2104e05fccfaf1	-0.0001298450369180064
208	0xbf2122e7456f8c61	-0.00013073990950749056
209	0xbf212afc628f792b	-0.00013098078605273378
210	0xbf214f7927a979cc	-0.00013206819479001511
211	0xbf21b0c14135e646	-0.00013496741358291954
212	0xbf2202a82b5d7bb0	-0.00013740828370153784
213	0xbf22129aec2f3a6b	-0.0001378835787293088
214	0xbf21ff6975a95ac0	-0.0001373115763551782
215	0xbf21f9bdc0f08e1c	-0.00013714257554041452
216	0xbf21c581a8809b40	-0.00013558585874414754
217	0xbf2113c11baa59b8	-0.0001302884318945105
218	0xbf208c3a2133aae6	-0.00012624940482138593
219	0xbf20f21c04e13a38	-0.00012928573636590709
220	0xbf21a3a6998943e4	-0.00013457688034404427
221	0xbf2185673639b143	-0.00013367543134580094
222	0xbf20cfdd5fd8526d	-0.00012826516460564004
223	0xbf2095730dcff2df	-0.00012652425257888338
224	0xbf20e23944209565	-0.0001288123040136632
225	0xbf20ea0020096704	-0.00012904407050733796
226	0xbf20a171b1e0c17a	-0.00012688172222531294
227	0xbf20576f16942af8	-0.00012467604691609297
228	0xbf1fec81a9158f5b	-0.00012177983650968115
229	0xbf2007b04dac5195	-0.0001222994531750009
230	0xbf20e9b4dd522844	-0.00012903530901936706
231	0xbf214a903dc0dcf0	-0.0001319218707764645
232	0xbf202bfb88086819	-0.00012338109446902236
233	0xbf1d2552958d00e4	-0.00011118237069940616
234	0xbf1c057a833b331b	-0.000106893160416632
235	0xbf1d1afc035f4d35	-0.00011102831999148107
236	0xbf1d8ea982547334	-0.00011275205232093023
237	0xbf1bda96abc324e9	-0.00010625404951549216
238	0xbf19a35f7d4434ad	-9.780187912529727e-05
239	0xbf185cef58eb8298	-9.293757305385076e-05
240	0xbf1881c9b95926e9	-9.348672605216279e-05
241	0xbf1a5372dded4a36	-0.00010042561141902152
242	0xbf1c233977e466d4	-0.00010733640917628555
243	0xbf1c22d1f3ce9436	-0.00010733038375450383
244	0xbf1abd420c5b8681	-0.00010200229288728249
245	0xbf18bb40c5a88cf9	-9.434302175086511e-05
246	0xbf1737d4566d5492	-8.856996065039122e-05
247	0xbf16f760874b8665	-8.76095453566039e-05
248	0xbf16bc2b07f09df9	-8.672726288293927e-05
249	0xbf15ca4ad4035e2b	-8.312303271240026e-05
250	0xbf14a36de3a230f6	-7.872923098001583e-05
251	0xbf134a30228d5b0a	-7.358473579919755e-05
252	0xbf1207e644d577b5	-6.878226232262428e-05
253	0xbf1155bb7efd8c0d	-6.612736592397101e-05
254	0xbf1106674e254825	-6.494527364012176e-05
255	0xbf11ab1d3926984f	-6.739965309651815e-05
