old_robot_pepper/primitive_saved/show_surroundings_weights.npy (npy, 38528 bytes, 1 tensors)

array f8 [48, 100]
000000 1d 9e ea cd 6c f1 49 40 32 f1 62 38 36 19 4e 40
       51.886132945594206 60.1969671710125
000010 16 29 71 ca a0 21 50 40 51 bd 32 36 59 a6 50 40
       64.5254388909419 66.59919505076438
000020 a9 3e df 82 85 27 51 40 64 4a 21 6c ba a1 51 40
       68.61752387810942 70.52700331927332
000030 d7 91 fd 0d 91 0f 52 40 0b ec ea 73 19 6f 52 40
       72.24322843325295 73.73592851583105
000040 49 c3 20 a1 7d bf 52 40 df f2 5b 14 87 00 53 40
       74.99204281043525 76.00824460009925
000050 23 33 05 fd 6f 32 53 40 f5 2e ca ea c4 55 53 40
       76.78808522708691 77.3401438688705
000060 c8 4e 59 f3 4f 6b 53 40 65 6b 70 6e 0a 74 53 40
       77.67675479623279 77.81313668230503
000070 e3 7f 36 53 13 71 53 40 4f d1 eb d7 a8 63 53 40
       77.76680450746748 77.55718038586677
000080 00 80 3f 5e 24 4d 53 40 66 0d 95 00 f8 2e 53 40
       77.20534473611042 76.7338868575658
000090 f4 8b 84 48 ad 0a 53 40 00 a4 6e bb e4 e1 52 40
       76.16682637161267 75.5295857029414
0000a0 73 69 b3 03 56 b6 52 40 0b 02 34 8f d0 89 52 40
       74.8489999057836 74.15335445479302
0000b0 34 8f 89 88 3c 5e 52 40 43 45 61 19 9c 35 52 40
       73.47244466241392 72.83765253542974
0000c0 d7 41 d6 ea 0c 12 52 40 4d 6e 38 dd c9 f5 51 40
       72.28203841136506 71.84044580946757
0000d0 a7 7d 03 f4 2c e3 51 40 9c c5 3e 75 b1 dc 51 40
       71.54961872425939 71.4483311760909
0000e0 a7 ba 5d 3d f6 e4 51 40 3d 03 34 4a c0 fe 51 40
       71.57752927926286 71.98048644141541
0000f0 23 57 cb 80 fd 2c 52 40 5c 25 d2 b2 c7 72 52 40
       72.70297260148486 73.79343863031448
000100 ce 9d e3 df 67 d3 52 40 0f a1 4d a4 58 52 53 40
       75.3032150004212 77.28666026669474
000110 f5 36 c0 6b 37 f3 53 40 28 97 b5 4f 28 b9 54 40
       79.80025762339558 82.89308541043704
000120 77 10 20 f4 27 a4 55 40 53 3f 77 a5 57 ac 56 40
       86.56493857508927 90.69284950871706
000130 6e 7c 4e e2 0a c3 57 40 98 4b 42 dd 07 de 58 40
       95.04753930725721 99.46922999834203
000140 d5 95 ae 1b 74 fd 59 40 bc a7 35 ed b3 24 5b 40
       103.96021167802185 108.57348184814231
000150 4c d5 f6 e6 97 54 5c 40 99 17 d1 b7 d6 8b 5d 40
       113.32177137474827 118.18498034876974
000160 9b 46 89 6c 7d c8 5e 40 51 c6 ca 8e 31 04 60 40
       123.13265527158585 128.13104953388623
000170 e5 0c 5d c2 9a a4 60 40 7c 69 45 e0 3a 44 61 40
       133.1438915078535 138.13218701893845
000180 92 14 c3 ce b9 e1 61 40 3e ee c9 31 a4 7b 62 40
       143.05393159963256 147.86379327239587
000190 0a 2c 03 8c 68 10 63 40 f6 2b 3c 0c 54 9e 63 40
       152.5127620756105 156.94775974037447
0001a0 7f f8 2a f8 8e 23 64 40 23 5b e9 a3 18 9e 64 40
       161.11120232002938 164.9405078466162
0001b0 e8 31 2b ee c2 0b 65 40 e3 a6 43 40 2e 6a 65 40
       168.3675452083255 171.3181458779646
0001c0 b5 53 10 f6 d3 b6 65 40 b4 ef 0e db 76 ef 65 40
       173.7133741682898 175.48325875203375
0001d0 64 39 01 20 c6 13 66 40 bc 6d 41 63 7d 27 66 40
       176.61793518294428 177.23405611781152
0001e0 ab de 60 1d 9b 30 66 40 ac ed d0 68 b3 31 66 40
       177.51893490714914 177.55315056616143
0001f0 ad b1 ba cc be 28 66 40 1c 6f f2 36 04 13 66 40
       177.27329098190003 176.5942644820251
000200 47 12 f9 32 08 ef 65 40 3d 6a f2 45 fb bb 65 40
       175.46975086828954 173.87442300173453
000210 ef 11 db d2 23 79 65 40 ab 0a 65 54 b5 25 65 40
       171.7856230047905 169.17838496908857
000220 d5 a1 c2 75 c8 c0 64 40 c9 ef 5f 94 56 49 64 40
       166.02447021497815 162.29181879747037
000230 42 a2 af 8e 34 be 63 40 23 92 05 69 0c 1e 63 40
       157.94391569426995 152.93901492202812
000240 ea 18 6f 7e 55 67 62 40 2e b2 d7 dd 4a 98 61 40
       147.22918626497932 140.7591389859021
000250 1a 09 21 54 df ae 60 40 d1 fe 84 f1 5c 51 5f 40
       133.4647617955423 125.27129781711416
000260 c3 e5 0c ae d3 05 5d 40 b0 cc 2f f5 81 74 5a 40
       116.09104491481325 105.82043199222494
000270 6a cd ed 5e 85 95 57 40 88 72 45 34 6a 5f 54 40
       94.33626530859843 81.49085718900653
000280 77 ee e8 a2 c2 c6 50 40 63 f6 b8 b1 36 7b 49 40
       67.10562966105668 50.96260663539285
000290 72 7d 03 ee 7e 65 40 40 93 ce 1a ea b6 85 28 40
       32.79293608827983 12.261161151668864
0002a0 7e 97 27 ee 08 1d 26 c0 6a 4e 69 e4 1f da 42 c0
       -11.056708757718066 -37.70409827367696
0002b0 4e 03 c3 f1 1f 18 51 c0 e7 db bc dd fb ed 59 c0
       -68.37694973034124 -103.71849769061338
0002c0 b0 cf 66 5e 4f ad 61 c0 96 5b 55 6c 04 3c 64 c0
       -141.4159385688813 -161.8755399386543
0002d0 8d b3 72 79 51 78 5c c0 48 a4 53 e3 5b c5 32 40
       -113.8799728031283 18.770933349533408
0002e0 dd d3 11 cb 29 9a 5e 40 fc e9 53 fa 78 cf 59 40
       122.40880085698105 103.24175890154578
0002f0 d3 30 12 fd be 67 42 40 ad 7f b5 c2 b1 d2 d9 3f
       36.81051600826472 0.403484764237869
000300 be 6a ca eb ea 85 24 c0 bb 88 57 df 1a b6 2d c0
       -10.26155793043051 -14.855673770366016
000310 67 e9 0e 23 94 4e 2f c0 67 e9 0e 23 94 4e 2f c0
       -15.653473945207862 -15.653473945207862
000320 cb c0 02 b2 99 4e 52 c0 3d 26 07 a0 d8 89 55 c0
       -73.22813081997735 -86.15384674738102
000330 ca 3d 4f 0b ae a3 57 c0 65 44 e2 1d 88 0c 59 c0
       -94.55749781359114 -100.19580790611651
000340 c0 f2 49 99 79 7b 5a c0 33 cd 91 b7 e0 ec 5b c0
       -105.92929680081852 -111.70121564138826
000350 48 bf 0f 60 5b 59 5d c0 0b 1d 54 42 9f bd 5e c0
       -117.39620210206806 -122.96284540380672
000360 47 65 7e 2a db 0b 60 c0 d6 29 0f 84 36 b3 60 c0
       -128.37050366102832 -133.60040476762396
000370 a9 0a a9 21 8b 54 61 c0 f0 e7 d9 de b1 ef 61 c0
       -138.6419838239283 -143.4904627090432
000380 a0 b8 9d 3b a5 84 62 c0 be b7 5d d2 77 13 63 c0
       -148.14517002873345 -152.60837667755362
000390 4d 14 c1 c3 4d 9c 63 c0 bc 19 7d 35 58 1f 64 c0
       -156.88449275694657 -160.97951769288727
0003a0 b4 1b 28 45 d2 9c 64 c0 92 c9 b9 ff fe 14 65 c0
       -164.9006677420963 -168.6561277989063
0003b0 6c 04 dc 0f 28 88 65 c0 b0 24 b0 ec 9c f6 65 c0
       -172.25489037487148 -175.70665583041182
0003c0 60 c3 2c 63 b2 60 66 c0 69 3d cd 5f c2 c6 66 c0
       -179.0217758058816 -182.2112273224441
0003d0 1f 7a 6d e6 2b 29 67 c0 32 d1 e1 2b 53 88 67 c0
       -185.28660889990076 -188.26015276055256
0003e0 93 b7 dd c8 a1 e4 67 c0 52 82 8e 00 87 3e 68 c0
       -191.1447491007244 -193.95397975763132
0003f0 e9 bc 4d 17 78 96 68 c0 53 c5 38 b7 f0 ec 68 c0
       -196.70215954955282 -199.4043842419438
000400 b2 ef 7e 61 73 42 69 c0 a5 64 f4 eb 89 97 69 c0
       -202.07658457557915 -204.73558614476238
000410 8a a0 04 0b c6 ec 69 c0 60 66 81 e8 c1 42 6a c0
       -207.3991751757024 -210.0861704375593
000420 4e 5c e7 c5 20 9a 6a c0 5a 96 f9 69 8f f3 6a c0
       -212.8165006178628 -215.6112565874817
000430 77 47 f7 7b c0 4f 6b c0 c8 fe e1 93 47 af 6b c0
       -218.4922466115638 -221.4774875081987
000440 3b 43 e3 7a f7 11 6c c0 cb 8d 71 7e c6 75 6c c0
       -224.56145996463042 -227.68048021486752
000450 4a 7d ea ab 0d d7 6c c0 bf 5e 96 cc 2e 33 6d c0
       -230.72041888998712 -233.59946278924141
000460 4d 8a 38 37 f9 89 6d c0 b2 93 e9 e5 fb db 6d c0
       -236.3116718391706 -238.87449927921767
000470 ec eb eb 28 26 29 6e c0 52 55 12 f4 e3 70 6e c0
       -241.2859081847995 -243.5278263433525
000480 1e 5b f1 27 74 b2 6e c0 58 32 93 55 03 ed 6e c0
       -245.57667920245962 -247.40665701627108
000490 00 89 21 2e ae 1f 6f c0 01 40 51 29 80 49 6f c0
       -248.99001223134837 -250.29689470166343
0004a0 dc ef f7 c0 71 69 6f c0 ae 04 51 7b 66 7e 6f c0
       -251.29513595986543 -251.95000997375377
0004b0 d4 5c 55 bd 2a 87 6f c0 e3 25 48 5b 71 82 6f c0
       -252.22396723434815 -252.07633747188
0004c0 9b a9 70 dc d0 6e 6f c0 50 3a ab 65 c0 4a 6f c0
       -251.4629957390251 -250.33598597948958
0004d0 1a b2 32 46 94 14 6f c0 4e 06 a8 08 7b ca 6e c0
       -248.6430998792792 -246.32751877610502
0004e0 9c cc ba 35 87 6a 6e c0 ad 42 4c 95 12 f3 6d c0
       -243.3290051124976 -239.59601845640773
0004f0 33 21 85 f2 2d 64 6d c0 3f 30 d8 89 7e c1 6c c0
       -235.13060880662815 -230.04669658874806
000500 51 44 e2 69 ae 10 6c c0 8f 76 4d 07 75 54 6b c0
       -224.52129072373148 -218.6392857087089
000510 97 67 b9 71 8d 8b 6a c0 d5 62 c2 9a 25 b4 69 c0
       -212.36101614200444 -205.62959039655712
000520 8a c1 97 18 92 cd 68 c0 8c 33 a5 03 d1 d7 67 c0
       -198.4240839923844 -190.74426443353548
000530 e3 26 b6 5a 09 d3 66 c0 65 6c cf b0 6a bf 65 c0
       -182.5948918874411 -173.98177376282106
000540 30 7b 1a 4c 2a 9d 64 c0 d3 7c 8d 0f 84 6c 63 c0
       -164.9114132420741 -155.39112069734855
000550 dc f2 aa c7 bb 2d 62 c0 2a 09 c2 b1 1e e1 60 c0
       -145.4291723574487 -135.03499687097184
000560 a3 ca 72 9e 0a 0e 5f c0 a2 b6 60 39 ab 3f 5c c0
       -124.21939812860596 -112.99482569164914
000570 9d 74 7e 96 0b 58 59 c0 0c bd ac 46 3f 58 56 c0
       -101.3757072672765 -89.37886206501952
000580 d1 e4 90 8b 89 41 53 c0 08 05 27 24 68 15 50 c0
       -77.02402009153163 -64.33448127565873
000590 c5 29 0d 4e 42 ab 49 c0 22 65 d6 f4 a9 08 43 c0
       -51.33796096461041 -38.06768665760525
0005a0 65 aa 32 ac 57 90 38 c0 55 cb f2 5c 3c c0 25 c0
       -24.563837778443844 -10.875460533750507
0005b0 fa 19 d7 09 df 7e 07 40 c3 cc 26 71 43 cc 30 40
       2.9369488495606193 16.79790408322584
0005c0 aa 69 7e 70 ab 9c 3e 40 a2 c8 3e 4a dc 20 46 40
       30.611990958082664 44.256722717910876
0005d0 df eb 05 f4 8e c8 4c 40 77 4e c4 ed af 8c 51 40
       57.566862585917754 70.19823784037168
0005e0 bc 60 93 d3 e1 12 54 40 fb 80 1d f2 e2 99 53 40
       80.29503335373278 78.40447667008623
0005f0 fb 05 7e 38 bf 87 45 40 26 10 5a 0f 51 54 3a c0
       43.06052309182629 -26.32936187695318
000600 b7 5b d4 3a 4e e7 51 c0 0e 50 bb e8 7c fb 4a c0
       -71.61414976823913 -53.964749423466955
000610 e8 ee ae 81 7b a5 30 c0 94 c1 ea a9 01 c2 07 40
       -16.64641581078368 2.9697297358290573
000620 38 20 39 af b8 93 22 40 1a bc a3 f7 5c e2 29 40
       9.288518405650493 12.942115534531741
000630 94 d2 62 f5 24 0f 29 40 94 d2 62 f5 24 0f 29 40
       12.529578846276571 12.529578846276571
000640 b8 b4 36 23 02 a9 10 c0 0b 93 78 27 71 1c 13 c0
       -4.165047216619477 -4.777775398954655
000650 87 47 e3 33 e1 f0 13 c0 5a 29 9a b4 89 e5 13 c0
       -4.985234080073389 -4.9741581172077876
000660 8d ec cf 26 be c5 13 c0 d5 3a 45 4f 64 8b 13 c0
       -4.943108183327365 -4.886124838448002
000670 64 7d 6c 97 82 2e 13 c0 a0 be 04 81 7a ac 12 c0
       -4.795420042034809 -4.668436065592374
000680 93 85 c5 5c 57 04 12 c0 95 1a 51 75 10 36 11 c0
       -4.50423951106622 -4.302797158312974
000690 3f 6c ff 51 44 42 10 c0 f9 31 7e 89 19 54 0e c0
       -4.064713746275685 -3.791064333118126
0006a0 48 86 c7 89 c1 dd 0b c0 39 36 8e c4 ff 24 09 c0
       -3.483279301072603 -3.1430659633540725
0006b0 0f 99 94 f0 c8 2d 06 c0 6c b6 45 45 75 fc 02 c0
       -2.7723559184406734 -2.3732705509090035
0006c0 5e 2c dd 3b 6a 2b ff bf a0 0f b8 c7 14 fd f7 bf
       -1.948099359363162 -1.499287395622538
0006d0 d5 0b e5 c7 8a 78 f0 bf 41 8d fa 7a 10 52 e1 bf
       -1.0294292267214946 -0.5412676240852435
0006e0 fa de 1d 37 db 4c a3 bf 87 de 63 cd 73 9b de 3f
       -0.037695742109404365 0.4782380586397967
0006f0 66 bc 7f be 9c 0d f0 3f af c5 f9 1a ff 8b f8 3f
       1.0033233109823185 1.5341788343178953
000700 86 86 05 84 b6 89 00 40 62 43 b6 fa 42 ca 04 40
       2.0672426523386234 2.5987605654594725
000710 37 cc ea 36 89 ff 08 40 ba 94 0f b4 fa 20 0d 40
       3.1247734346775604 3.6411031787161763
000720 95 6e 09 0d c7 92 10 40 2d f7 da 3b db 81 12 40
       4.143337444019967 4.626812873115154
000730 dc 96 6e d9 ac 58 14 40 b6 c0 be 0e e3 11 16 40
       5.086596867918811 5.517467718498827
000740 75 4f 36 8d d3 a7 17 40 41 81 fd 5c 7c 14 19 40
       5.913892942848055 6.2700056581236945
000750 b3 50 5a 19 7d 51 1a 40 53 91 68 8b 0f 58 1b 40
       6.579578777444271 6.83599679780703
000760 3d 1f 50 91 ff 20 1c 40 9b ef be 3d a2 a4 1c 40
       7.032224913134823 7.1607751510418
000770 03 d2 ba 18 cc da 1c 40 49 bf ca 67 c6 ba 1c 40
       7.213669191744432 7.182397481679637
000780 e8 16 ef 5f 43 3b 1c 40 03 c2 cd 1f 51 52 1b 40
       7.0578742017439495 6.830387589391196
000790 a6 c4 c1 4b 4b f5 19 40 d6 a9 07 20 cb 18 18 40
       6.489545043660803 6.02421236082815
0007a0 7f 0e e6 c6 95 b0 15 40 43 f2 48 b9 88 af 12 40
       5.4224463537135525 4.671419997288981
0007b0 9d 94 38 cf 07 0f 0e 40 b6 98 11 bd a2 52 05 40
       3.757339114107323 2.665349461650375
0007c0 67 d4 07 3d 28 12 f6 3f 1d 84 65 c1 2a 22 be bf
       1.3794329055793015 -0.11770884725184812
0007d0 dc 07 70 fe 3c 84 fd bf 62 3b 5d c3 94 93 0e c0
       -1.8447847308129814 -3.82206108692428
0007e0 c6 b6 f9 68 3e 49 18 c0 cc 98 b2 29 f2 3b 21 c0
       -6.071527137986498 -8.617081931163192
0007f0 2a 15 c5 2e 30 f8 26 c0 51 5b 14 58 d4 67 2d c0
       -11.484742604787773 -14.702791931614827
