old_robot_pepper/primitive_saved/shrug_weights.npy (npy, 38528 bytes, 1 tensors)

array f8 [48, 100]
00000000: 34f1 d029 82d6 32c0 57c9 c785 881f 30c0
00000010: 2f33 b6c7 4617 2cc0 f2f3 63fc e715 29c0
00000020: 343a c5c8 e3f3 25c0 6689 5789 b8a4 22c0
00000030: 8044 b99e af64 1ec0 ceff e826 015b 17c0
00000040: 333d c2ed 841b 11c0 c1b9 90b4 6121 10c0
00000050: a6a3 d853 0939 1dc0 95d1 b8b6 4a9c 2bc0
00000060: cc2d 59b6 3d06 32c0 6079 d76c b411 31c0
00000070: dff5 63e8 0569 2dc0 5792 77c0 9865 2bc0
00000080: 045c c450 cf42 2bc0 24ca 0281 0691 2bc0
00000090: 857f 3def 6aeb 2bc0 5567 e7c2 e146 2cc0
000000a0: 5e21 a99b 72a3 2cc0 a406 b9d0 9f01 2dc0
000000b0: 0abb 1113 cc61 2dc0 7056 d170 41c4 2dc0
000000c0: 520a d9be 3929 2ec0 e10b d172 e490 2ec0
000000d0: 033f 3daa 6afb 2ec0 ead8 c6f1 f168 2fc0
000000e0: 2014 8610 9ed9 2fc0 8649 3e30 c526 30c0
000000f0: 1158 94fa e361 30c0 0455 a314 ce94 30c0
00000100: cd34 ae69 1b6a 30c0 7cad 0a8f ffd3 2cc0
00000110: acc4 6747 0d51 20c0 8334 0ce8 b2c4 f23f
00000120: d3d6 f410 37c1 1c40 b216 33c7 b31e 1f40
00000130: cadc 8bea bb03 1e40 4415 5239 6dc2 2140
00000140: 3f37 9908 0d7d 2640 cb7d 6b40 b274 2b40
00000150: 8d81 a194 239d 2d40 985d 5ff9 c98d 2140
00000160: cc2e dbb7 0e3b 2ac0 572b 4d19 55a9 46c0
00000170: 7e6f d527 440f 50c0 93af ac81 00e1 4fc0
00000180: 683b e2a8 ee7b 4ec0 5c63 f3b9 2d12 50c0
00000190: dc5e 31a3 3dc3 51c0 da08 8fa2 4db1 53c0
000001a0: 7114 e455 6ab7 55c0 b180 8da2 31d3 57c0
000001b0: fc07 5475 8d05 5ac0 06cb 39cd dc44 5cc0
000001c0: b9a4 72d1 382e 5ec0 6d1b 642a 461d 5ec0
000001d0: 5940 e79d 8ea7 59c0 be08 e8eb 7db3 52c0
000001e0: 75c7 8be4 31d4 4fc0 af4b 0b24 0a64 52c0
000001f0: 6154 cbf6 4f2e 55c0 a7fa e450 0254 56c0
00000200: b12f f7f1 b9b5 56c0 d990 e201 ebf6 56c0
00000210: 7310 b0ca 193a 57c0 fc74 5004 8182 57c0
00000220: 5f2e 1961 61d0 57c0 b0d3 441e fc23 58c0
00000230: 4a49 dc54 b47d 58c0 1858 7972 0dde 58c0
00000240: c3b7 a20c ab45 59c0 a51f 97b1 52b5 59c0
00000250: c78c 1d9b ef2d 5ac0 282b f553 98b0 5ac0
00000260: 455b 156e 963e 5bc0 aa68 dfe5 69d9 5bc0
00000270: fc5d c2fb 1282 5cc0 aefc 913e 422e 5dc0
00000280: 5da3 bae4 cc7e 5dc0 d3e0 90db 3f08 5cc0
00000290: 1d1d 2f70 25f7 56c0 9d47 af80 211c 50c0
000002a0: 6d91 23eb 000f 49c0 09d7 8358 394f 49c0
000002b0: d9ed fe05 cb35 49c0 de14 202e d5c7 45c0
000002c0: 123d 9e3b eb3c 40c0 f858 f874 69a7 32c0
000002d0: be2c b54e a29b fcbf 27e4 c8f7 112e 3340
000002e0: 4732 b159 8ff8 4640 3355 f5af e74b 5440
000002f0: 75f1 1939 3816 6040 02a1 9916 f78d 6740
00000300: 3d18 944f ce91 6d40 6946 eb87 6f69 6a40
00000310: 7c29 0f0c af6a 36c0 7c29 0f0c af6a 36c0
00000320: cb6a 2929 2a16 fc3f 45ba 8e45 c9af 0440
00000330: ef23 2347 9a0a 0a40 b545 d0d2 5323 0e40
00000340: f47b ff46 5434 1140 f90b 5ef1 1673 1340
00000350: 4344 6758 07c8 1540 2a41 0851 7829 1840
00000360: fd0a 9ec8 ec51 1a40 776a 69dd bcf3 1a40
00000370: 6d45 1ed3 b27f 1740 26ca 4bd9 8b4c 1040
00000380: 3cb7 63b8 c085 0740 05f9 ddfd bc81 0a40
00000390: 42b9 14bc d764 1040 db42 161c d5f6 1140
000003a0: cdea 031e a073 1240 f659 c6fc 37b1 1240
000003b0: 5b48 bf15 5fea 1240 2a33 cae5 a425 1340
000003c0: dd27 8ba8 1f63 1340 4b47 e98d 9fa2 1340
000003d0: 123f f1a2 08e4 1340 0b73 c3d6 4e27 1440
000003e0: 39d7 ec2f 716c 1440 8f48 3b82 76b3 1440
000003f0: 9550 7e35 6bfc 1440 bf9f 63c9 5f47 1540
00000400: d1d5 41e4 6794 1540 2ad2 50d4 9be3 1540
00000410: c665 d731 5d35 1640 d782 1ebd ce8e 1640
00000420: 253a f437 a41d 1740 dbf8 d38c 75aa 1840
00000430: 9540 5841 1680 1c40 3141 ba6e cffe 2040
00000440: 2127 4757 4cdd 2240 7b47 54e7 a54b 2340
00000450: b111 51d3 0d81 2340 6bed 28af a429 2440
00000460: 7c43 2155 3117 2540 4c1d d465 49fd 2540
00000470: 78fa fa6f cadd 2540 e3ea 27dc dcb9 2040
00000480: 6bf9 bad4 4f3d cb3f 08ac 4418 4225 27c0
00000490: 7535 c86d c5b6 32c0 8ad1 66af 1212 33c0
000004a0: fba0 bfc5 47a3 32c0 f2e1 d8d0 515e 34c0
000004b0: ae7a 5765 2755 37c0 d770 b011 dfa7 3ac0
000004c0: 46b1 6bc8 0723 3ec0 3471 7d7f dce1 40c0
000004d0: 79bc d154 cfc5 42c0 2362 c603 1eb6 44c0
000004e0: f153 84d2 1a67 46c0 ada1 ec38 a096 46c0
000004f0: 23db 335f a66a 43c0 40cb c9fe bfb0 3cc0
00000500: 2ac0 d3d6 d9f6 38c0 4c61 dc18 8f56 3dc0
00000510: 765d 73a5 b61c 41c0 15e4 bd77 f84f 42c0
00000520: 1c6e bc0f a3f1 42c0 c7d9 fa6f 757f 43c0
00000530: 9e5b ef78 5d14 44c0 a84a 6c34 5ab3 44c0
00000540: 3084 7783 335d 45c0 6633 71af c512 46c0
00000550: 6284 fa63 1ed5 46c0 6688 c8ad 7fa5 47c0
00000560: 8da5 5bee 6485 48c0 3353 7582 8a76 49c0
00000570: ba9c 6358 f87a 4ac0 f1cb 64f1 0f95 4bc0
00000580: 821e 9b61 9ec7 4cc0 dbb9 31f2 e815 4ec0
00000590: 15d6 80ec 9e82 4fc0 4b9e c448 a77f 50c0
000005a0: 935c 0eb5 cefd 50c0 cd1e 558d f725 50c0
000005b0: 1dd0 e23a 8b25 49c0 3dd9 751e e8a8 3ec0
000005c0: 8a26 670a ff42 35c0 c2bc 6efc 1576 37c0
000005d0: 107c dd5f 8366 39c0 c568 bac2 4a93 36c0
000005e0: 50ce c7bd 32f2 30c0 bb4e fb9c 8091 23c0
000005f0: c4de 2617 9d9d f0bf c521 0689 9ba8 2340
00000600: ff95 e04a 27b2 3740 f5fe 38d7 27fa 4440
00000610: 80b4 12bb 0ea4 5040 90a5 1802 2860 5840
00000620: fb8d 9dd3 0f99 5e40 f69a 5728 ca4d 5b40
00000630: 7f0d bf16 c493 27c0 7f0d bf16 c493 27c0
00000640: 5c07 a787 cd12 1bc0 1f0b 9f6f bd39 1bc0
00000650: 2e59 ad39 e777 1bc0 a338 7bf9 a8bf 1bc0
00000660: ea58 53fb 810a 1cc0 053e a317 e956 1cc0
00000670: 7634 1ee4 739f 1cc0 3b1e c6bc 867f 1cc0
00000680: c688 d765 c90d 18c0 8f32 10e0 3f49 ef3f
00000690: 1102 a0d5 da4b 3740 092e e7c7 1ed8 4d40
000006a0: 2af9 50ec d09e 5540 abcc 59d6 3acf 5640
000006b0: e14e f7de 8d89 5640 6890 d59d 2ec7 5740
000006c0: 025d cafa 6115 5a40 c685 ab04 14af 5c40
000006d0: 36c7 0cf4 145e 5f40 3ac1 4eb3 a509 6140
000006e0: 9714 382c 2b3a 6240 b02b 462e b86f 6240
000006f0: f7b6 9aa3 2334 6040 87e5 fe53 2efa 5740
00000700: 1aeb b0c8 1c1e 5340 d99c ba6b 3c09 5540
00000710: 4beb 9554 767a 5840 b534 d3d2 d012 5a40
00000720: 7039 fff6 9c7e 5a40 fcfb 1846 19a8 5a40
00000730: dbba 56a1 e6cc 5a40 b14e 2b7b c2f2 5a40
00000740: 429a e25d 3511 5b40 0361 2902 9d02 5b40
00000750: 01e7 de8f 2089 5a40 7a37 a096 b9c2 5940
00000760: 4d7c 588e 3352 5940 5c1f 3fad 476d 5940
00000770: 0020 7adf e49f 5940 e54b 3632 dea9 5940
00000780: 83ae c4d3 ac9b 5940 1239 a852 0583 5940
00000790: 0c5d 37a9 813c 5940 f145 11b0 3820 5840
000007a0: f1c0 fd6e 072b 5540 b5a2 5945 bf00 5140
000007b0: ab38 61c1 d4b6 4c40 14a2 b869 aade 4b40
000007c0: caf9 c33f 8a85 4b40 d87b 8717 11b9 4940
000007d0: 02bf c45f a915 4740 ae81 daaa 672e 4440
000007e0: c62f 21e8 b724 4140 c901 4ea7 07f4 3b40
000007f0: 8370 af95 9659 3540 8e7e 1a5e 8922 2d40
-18.837923635016708 -16.12317691924667 -14.045461884490207 -12.54278553695801 -10.976347230983357 -9.321720401702532 -7.598326187188945 -5.838871582003732
-4.276874270420467 -4.032599278767919 -7.305699644181834 -13.805257520733713 -18.02437915494174 -17.069159319501864 -14.705123197748376 -13.69843102893462
-13.630487941713007 -13.783252746191529 -13.959800220734687 -14.138441172359004 -14.319233765025896 -14.50317241915338 -14.691010089792616 -14.883311772874748
-15.080518688196353 -15.282992923754081 -15.491048164345107 -15.704970889590602 -15.9250340617819 -16.15144635697063 -16.382384930817413 -16.581269540668487
-16.414480786352943 -14.414059133580615 -8.15830443517401 1.1730221809732775 7.188686623519703 7.7799826741153755 7.503646530901458 8.87973956229201
11.244240063384153 13.727922452088839 14.806912083354087 8.776931565181073 -13.11534666586467 -45.32290951030762 -64.2385348877269 -63.75782795841146
-60.968220816101905 -64.28404091614124 -71.05063705273955 -78.7703634640524 -86.86586520455764 -95.29990447825072 -104.08675893026515 -113.0759766640077
-120.72221790500306 -120.45740756774985 -102.61807963927403 -74.80456063899598 -63.65777260613587 -73.56311894515123 -84.72363061767966 -89.31264135705224
-90.83947419299399 -91.85809371114318 -92.90782420343184 -94.03912456376196 -95.25594356021018 -96.56226307603242 -97.96413156044324 -99.46957074975978
-101.08856502428448 -102.83317222364583 -104.71774938474401 -106.7592973608231 -108.97793151937101 -111.39708849732656 -114.03240865689435 -116.72279323822542
-117.98125570513135 -112.12889756344093 -91.86166004754018 -64.43954484097635 -50.11721553074572 -50.61893755376338 -50.42025828311643 -43.56119324270706
-32.47592873789303 -18.653952894813273 -1.787996585323341 19.179961668534954 45.94187470581215 81.18601607282908 128.69436316554098 188.43641214376117
236.55643443035834 211.29486461593777 -22.416733506871864 -22.416733506871864 1.7554113014108903 2.585833114069177 3.2551770742033947 3.7672497243699703
4.301102742522733 4.862392207493934 5.445340520193954 6.04049803364641 6.580004820486235 6.738025149878573 5.874705599520309 4.074752230883439
2.9403089909964404 3.3133487542501165 4.09847921253669 4.491047324045861 4.612915486325346 4.673065137487802 4.728878345298734 4.786761846987057
4.846800454610244 4.908811776507558 4.972689195608625 5.038386684111866 5.105900524931536 5.175256762379049 5.246502719721453 5.319701334672515
5.394927565115226 5.472274129326744 5.552113322040389 5.639460520732164 5.778946756631318 6.166464043081045 7.12508489705228 8.497676334606327
9.432223060069704 9.64775011924552 9.752058604856616 10.081334565874121 10.545298252401828 10.994700605528713 10.933185099970828 8.363013152954812
0.21280858885979667 -11.572769888289272 -18.71395002496634 -19.07059761295526 -18.637813910755522 -20.36843591017709 -23.332632383210402 -26.65574751432072
-30.1368375075265 -33.76454156518085 -37.545389749918236 -41.42279097735106 -44.805506052602034 -45.176764598410365 -38.83320226699859 -28.690429615274525
-24.964261461922582 -29.338120988658645 -34.22432392247258 -36.62477013370532 -37.88778874111833 -38.99577140568322 -40.15910255134007 -41.401190331341525
-42.72813456855545 -44.146657877229515 -45.66498994571954 -47.29295894900933 -49.042142672299725 -50.9261019776226 -52.96070389617803 -55.16454904004775
-57.55952091287783 -60.17117144992854 -63.02047497073014 -65.99458522034654 -67.96574140932562 -64.59323437988787 -50.293311463116176 -30.659791854640606
-21.261704111273993 -23.46127298072384 -25.400442115376848 -22.5753595070935 -16.946086751251926 -9.78418436591834 -1.0384798912399882 9.82931163978436
23.695912055807636 41.954340842084925 66.56339909388225 97.50244190604121 122.3915909803981 109.21546371989447 -11.788605414220681 -11.788605414220681
-6.768362159318567 -6.806386703569642 -6.86709299202475 -6.937168024202182 -7.010261465990178 -7.084873551691548 -7.155715526908457 -7.124537419883889
-6.013463584213417 0.9776915909038325 23.296307899059745 59.688439357643865 86.48150165469693 91.23796614427071 90.14928411627945 95.11222024780147
104.33410520326655 114.73559681654214 125.4700288891589 136.30147710210605 145.8177701087304 147.4912330027123 129.62935047357288 95.90907764332051
76.47050683285889 84.14431279395957 97.9134723152212 104.29399557710242 105.97833037304167 106.62654259147524 107.20157655210225 107.79312018613088
108.2688822472492 108.04083303490556 106.14261242645081 103.04257741590655 101.28439673081557 101.70749980129534 102.49834429670591 102.65418677618398
102.43242353636928 102.04719988277455 100.94541387945736 96.50345994650685 84.67232870846398 68.01167424920534 57.42836777922761 55.73957559123315
55.043281527224806 51.44583410373133 46.169231387202686 40.362538677876145 34.28686238880577 27.95324178366153 21.349953990299138 14.567454281553434
