old_robot_pepper/primitive_saved/sway_joyful_weights.npy (npy, 38528 bytes, 1 tensors)

array f8 [48, 100]
00000000: cf74 fff1 c1fa 3840 ccf3 9f53 4a74 3d40
00000010: e354 9628 0935 4040 9556 201a 7ffd 4040
00000020: e466 c13c 6ec1 4140 0f4f d610 4f85 4240
00000030: 9f62 1b7c 7542 4340 e621 f2f6 80f5 4340
00000040: 9ed7 7ee0 559c 4440 272b f59d 9135 4540
00000050: 88f8 bb06 4dc0 4540 2555 9c88 f43b 4640
00000060: f937 3c22 2da8 4640 579d b70e c204 4740
00000070: 7b9f 6a5d 9851 4740 abfa 4e92 a68e 4740
00000080: 1981 fd04 efbb 4740 0a71 591d 7cd9 4740
00000090: c793 93d4 5de7 4740 1729 1b12 a8e5 4740
000000a0: cd99 749d 71d4 4740 c26b b974 d3b3 4740
000000b0: 3afb 1567 e883 4740 bba8 37dd cc44 4740
000000c0: 71ce d6c0 9ef6 4640 dfad 6c79 7d99 4640
000000d0: 49fe 75f7 892d 4640 3ab5 e4c9 e6b2 4540
000000e0: aa0b f23a b829 4540 6ee9 9672 2492 4440
000000f0: 6d11 b09d 53ec 4340 d802 5319 7038 4340
00000100: 9124 2aa2 a676 4240 2fad e387 26a7 4140
00000110: 3fac e6e4 21ca 4040 4029 4fb5 9bbf 3f40
00000120: fdec 39a6 c5d0 3d40 ef7e f48f 39c8 3b40
00000130: 32d1 e720 77a6 3940 ba9a c96c 066c 3740
00000140: 68e6 78a7 7819 3540 9419 67f2 68af 3240
00000150: 7d5f cf3e 7d2e 3040 d3e3 cd8e ce2e 2b40
00000160: 003d 6049 cbd5 2540 a4c4 3dff 8953 2040
00000170: 76e4 f79a 8553 1540 e823 2554 3e69 0340
00000180: df2c 293b 0b8d e1bf e530 5928 d9b5 0cc0
00000190: 0565 2fea 98c2 1ac0 4e35 acd6 ccb1 23c0
000001a0: 4d64 b224 3a1c 2ac0 fbcb e418 cd4e 30c0
000001b0: fcee 4a95 5799 33c0 28f4 a3f3 f7eb 36c0
000001c0: 5fd5 be95 bf44 3ac0 a4cf a4d3 90a1 3dc0
000001d0: 810c c5a0 0c80 40c0 34f0 378d e52e 42c0
000001e0: 3d49 fcd3 eadb 43c0 a476 dd3b 8e85 45c0
000001f0: d8b4 2392 162a 47c0 a546 b7b5 99c7 48c0
00000200: e42e a89d f55b 4ac0 d49a aa25 c8e4 4bc0
00000210: 0ce8 165e 655f 4dc0 d105 610c ccc8 4ec0
00000220: 2c88 d4f9 cb0e 50c0 70f4 b4b0 f8ac 50c0
00000230: 9c33 14ab bc3c 51c0 e612 23b9 98bb 51c0
00000240: 1910 b947 af26 52c0 b103 cc4c b27a 52c0
00000250: 890d 03e3 ccb3 52c0 1c22 1c54 87cd 52c0
00000260: 58f5 5be3 a3c2 52c0 db7b f80d f28c 52c0
00000270: 8dc5 3b1a 1525 52c0 761e 6c8e 3982 51c0
00000280: c4b4 3b53 b399 50c0 ba79 a411 f7bc 4ec0
00000290: aeeb 59d7 0181 4bc0 c9a1 7e5f 6e57 47c0
000002a0: 3db8 b9e8 8e0d 42c0 6666 21f5 ccc4 36c0
000002b0: 7cc0 d12a f709 18c0 6f1d adbe 8519 2e40
000002c0: b766 9217 6ecc 4440 485e 55fb d0cc 5240
000002d0: 21e1 055d 4b55 5d40 d64a 349e 8ac5 6440
000002e0: beb9 5ea4 be02 6a40 2865 0aa3 ed29 6a40
000002f0: 473b ac18 6507 5e40 fbfc 140d 6a21 5bc0
00000300: 11b2 5d16 a185 7dc0 444c 2084 fb16 88c0
00000310: d7ac 66d9 b108 80c0 d7ac 66d9 b108 80c0
00000320: 719a 91d8 cd6e 46c0 ceaf 2b89 65be 4ac0
00000330: 706a 45e9 1fdf 4dc0 94a3 cd21 3ccd 4fc0
00000340: b114 df13 5bde 50c0 490c 931b f8db 51c0
00000350: 2af9 96b9 e1d9 52c0 ad29 be51 25d5 53c0
00000360: bde2 e2c3 e1cb 54c0 52b7 efe7 d5bc 55c0
00000370: 45e8 667b 2ba7 56c0 2c16 b066 548a 57c0
00000380: 5507 9c2b f365 58c0 5a15 95e5 ca39 59c0
00000390: db07 e071 b405 5ac0 2b7b 851a 97c9 5ac0
000003a0: 0ff2 61a4 6385 5bc0 9716 51fc 1039 5cc0
000003b0: a732 dafd 99e4 5cc0 f983 5ef8 fb87 5dc0
000003c0: c85a d8b4 3523 5ec0 b9be 0bd2 46b6 5ec0
000003d0: ccd4 905a 2f41 5fc0 45a3 5d81 efc3 5fc0
000003e0: 310e e1bb 431f 60c0 5e7f 08aa 7b58 60c0
000003f0: 46a8 8981 9f8d 60c0 502f 2a20 afbe 60c0
00000400: bae1 5049 aaeb 60c0 56f0 7ea5 9014 61c0
00000410: 0ae6 6fc2 6139 61c0 55cf 8313 1d5a 61c0
00000420: 4afc 3af2 c176 61c0 9006 a19e 4f8f 61c0
00000430: cf58 913f c5a3 61c0 c56a c6e2 21b4 61c0
00000440: af90 a97c 64c0 61c0 e765 dde7 8bc8 61c0
00000450: 8285 80e4 96cc 61c0 de72 2817 84cc 61c0
00000460: fa86 9407 52c8 61c0 b0bc 161f ffbf 61c0
00000470: d09b ada6 89b3 61c0 3ac4 c8c4 efa2 61c0
00000480: d544 b17a 2f8e 61c0 2b44 8fa1 4675 61c0
00000490: c21a 06e7 3258 61c0 efbd 5dc9 f136 61c0
000004a0: d453 2c93 8011 61c0 063c 6e56 dce7 60c0
000004b0: c43d f7e6 01ba 60c0 a166 25d4 ed87 60c0
000004c0: 368c bc61 9c51 60c0 546b ce7f 0917 60c0
000004d0: 24d9 1a83 61b0 5fc0 25cc bda5 1a2a 5fc0
000004e0: 8dff ecd8 339b 5ec0 a7d7 718c a103 5ec0
000004f0: 3767 320f 5763 5dc0 bb77 306b 46ba 5cc0
00000500: 0505 fe3b 6008 5cc0 f098 ac7e 934d 5bc0
00000510: fb2a 005a cd89 5ac0 2bea 5fdd f8bc 59c0
00000520: 4d17 a1b4 fee6 58c0 3018 59ce c407 58c0
00000530: c893 ddf1 2d1f 57c0 2704 6e41 192d 56c0
00000540: f0aa 1ea4 6131 55c0 7cc2 eb11 dd2b 54c0
00000550: 7740 c6ba 5b1c 53c0 b537 56ff a602 52c0
00000560: 2955 722f 80de 50c0 a5c9 52fd 3d5f 4fc0
00000570: f773 a134 5feb 4cc0 dab0 8e8b a060 4ac0
00000580: 6dfa 5db0 1cbe 47c0 1535 1ed3 c402 45c0
00000590: 13c1 c2d4 562d 42c0 0f73 b114 a178 3ec0
000005a0: eb6f e306 be5b 38c0 5fd6 7796 90ff 31c0
000005b0: ea0f 1797 35bd 26c0 2f45 6182 09c8 11c0
000005c0: ee99 2a57 0f77 0640 406c 54ae 5ade 2440
000005d0: db7d b3e8 597d 3240 607d 3a0a 9e0c 3b40
000005e0: 9803 edde 591b 4240 bc2b 0736 e90c 4740
000005f0: 9161 4259 b256 4c40 1195 12f0 ecb5 5040
00000600: 1e3d bbd5 c003 5240 f1bf 5d18 eaf6 4e40
00000610: 4357 e1ec b502 3540 6dea 4e6c d87d 50c0
00000620: 4f7b 18da 9448 68c0 608a 6211 6212 72c0
00000630: d508 9f1c 1d99 65c0 d508 9f1c 1d99 65c0
00000640: cc6c 9ee3 c1ff 5e40 50ab c6fb d4bc 6140
00000650: a060 1f14 d88e 6240 ee76 6691 365d 6240
00000660: 98fb 9765 be19 6240 dc92 ecc0 32c5 6140
00000670: 79ac b145 0e56 6140 a4bf c444 10c9 6040
00000680: 5be0 40a1 1b1d 6040 d734 932f 79a4 5e40
00000690: 78f2 d91a 99d2 5c40 f777 b0d9 71c7 5a40
000006a0: cb70 0005 ba86 5840 d9dc 315a d114 5640
000006b0: 6676 14ad 9f76 5340 f778 e4e7 7fb1 5040
000006c0: f358 49b1 6696 4b40 934b 157d b593 4540
000006d0: 6ddb b271 cdcf 3e40 f886 e893 5b41 3240
000006e0: 0d0f 1b82 d763 1640 eeb1 4a34 ed2b 1cc0
000006f0: 8d06 eabf 748a 33c0 9401 276e c1c3 3fc0
00000700: f61d 2e01 b0c9 45c0 bb60 c396 f269 4bc0
00000710: fc91 5cb6 7657 50c0 730d 780c e7c1 52c0
00000720: 01f7 3c98 4be9 54c0 1b4c b271 05c2 56c0
00000730: 204f c8d8 c93f 58c0 4e40 4886 9555 59c0
00000740: 9f60 a5d9 9ef5 59c0 1f1e 66c6 4611 5ac0
00000750: 765a 106e 0899 59c0 c1d8 be27 697c 58c0
00000760: 6cd8 3ff2 0aaa 56c0 01c2 352e 2411 54c0
00000770: 2ab0 8a02 0aaa 50c0 1fab 3de2 791a 49c0
00000780: cb16 a13c da09 40c0 837d 4118 0543 2bc0
00000790: ecf7 c8cb 7526 1240 7c15 99f1 1091 3640
000007a0: b82a 8c91 884c 4440 6e34 755e cb40 4d40
000007b0: ebbc 6d83 4001 5340 6e6f 427f 4234 5740
000007c0: 4987 05df 1c23 5b40 0c42 b9ff c5b5 5e40
000007d0: f095 8ac5 24e9 6040 55f0 20ad 482e 6240
000007e0: 2118 a254 141b 6340 3b49 a72f fc9e 6340
000007f0: 71e3 c1a9 fda7 6340 8486 33ee 7822 6340
24.979521870486504 29.454259134817946 32.41434199657831 33.980441346922056 35.51117667621091 37.04147539581583 38.519210351344775 39.91799818823692
41.22137075608701 42.41850637885209 43.5023506563021 44.46840007432392 45.31387737217296 46.03717216458852 46.63746230798912 47.11445835930257
47.468231796056166 47.69910017840637 47.807550975856024 47.79419161153981 47.659717256483056 47.40489062360531 47.03052986691769 46.53750195710878
45.926719765554374 45.19914167219735 44.35577290784256 43.39766811053637 42.32593476122504 41.14173729294531 39.84630175683092 38.4409209876373
36.926960249497945 35.30586336724297 33.57915936721155 31.74846966917653 29.81551588930323 27.782128331366888 25.65025525722121 23.421973036975693
21.099497286812408 18.685195112391355 16.181598592403578 13.59141966117196 10.917566578862989 8.163162208833747 5.33156435144439 2.4263884137949283
-0.5484672694668936 -3.5887931015223438 -6.690036448614824 -9.847265919229041 -13.055131098533957 -16.307817035540193 -19.59899266318733 -22.92175219300057
-26.26854835423489 -29.63111613057812 -33.000385376181846 -36.36638035994875 -39.71810388392121 -43.043403132568784 -46.32881380790212 -49.55937835167905
-52.718433100815474 -55.78735800581276 -58.74528099173048 -61.5687270616287 -64.23119970088072 -66.70267884894724 -68.94901539776623 -70.93119648385218
-72.6044482524161 -73.91713256762775 -74.80938029573566 -75.21138479945552 -75.04125293712912 -74.20227383867261 -72.57941299283102 -70.03476296003814
-66.40157013731647 -61.47628994494467 -55.00786868944793 -46.683055817443865 -36.10592373913139 -22.768752403883262 -6.0097319307825465 15.049848517067145
41.597109743580795 75.20025523506877 117.33272481512223 166.17317114079805 208.08577173710904 209.31025840788175 120.11554543323028 -108.52209784555082
-472.35182797050317 -770.8728106044077 -513.0868404408928 -513.0868404408928 -44.86565692052398 -53.487473627406516 -59.74316135301058 -63.603397584352166
-67.47430893693196 -71.43701829300075 -75.40440215819822 -79.33040278978906 -83.18565461308295 -86.95055578622603 -90.61202893304387 -94.1614014358135
-97.59296694028065 -100.90300883826185 -104.08913847806927 -107.14984763179079 -110.08420667233462 -112.89166171950124 -115.57189890201936 -118.1247540400508
-120.55015298012142 -122.8480725397775 -125.01851524490047 -127.06149324554742 -128.9770182986845 -130.76509572658227 -132.42572094808764 -133.9588776420519
-135.36453691289154 -136.64265703957307 -137.79318353514856 -138.81604934448356 -139.71117507477385 -140.4784691948921 -141.11782816303318 -141.62913645509084
-142.01226647489736 -142.26707833520706 -142.39341950513705 -142.3911243238462 -142.26001338013867 -141.99989275399048 -141.61055311115206 -141.09176863872727
-140.4432958090098 -139.66487195951171 -138.7562136763791 -137.71701496418925 -136.54694517762857 -135.2456466820733 -133.81273220338164 -132.24778182320463
-130.5503395731518 -128.7199095756174 -126.75595166799445 -124.65787642989069 -122.42503951210365 -120.05673514478131 -117.55218868181406 -114.91054801686452
-112.13087367827036 -109.21212736945358 -106.15315866485973 -102.95268949858352 -99.60929599505944 -96.121387087828 -92.48717924726873 -88.70466647857448
-84.77158453936477 -80.68536804221543 -76.44309872971085 -72.04144271297157 -67.4765738121538 -62.744079270766896 -57.83884294398734 -52.75489944903684
-47.48525051678448 -42.02163161253899 -36.354212374777624 -30.471207898447627 -24.35836833050409 -17.998299984223532 -11.369549485745626 -4.4453487750882195
2.808134728419865 10.434285590940021 18.4896531522953 27.049286498336528 36.21368013928367 46.10086703634394 56.67731776944414 66.84258653464009
72.05864470753701 61.92901901795984 21.01058845998274 -65.96633441645254 -194.26817040235116 -289.14894236080545 -172.78480368672777 -172.78480368672777
123.99620905371847 141.9009989624269 148.4638767826882 146.91291112911807 144.80449180301798 142.16244550901217 138.689242217082 134.28323591639958
128.90962279006166 122.56989659667612 115.2905947807684 107.11632387383712 98.10510373156573 88.32527785176661 77.85349585531512 66.77343175231714
55.17500892716807 43.153976092718175 30.811728578726093 18.255303615826932 5.597501786138094 -7.042897049960159 -19.54084395850673 -31.764670261881818
-43.57568373443421 -54.827715726279585 -65.36662062683166 -75.02972709392434 -83.64523893312072 -91.03158228313298 -96.9966947513717 -101.33725125366001
-103.8378204455389 -104.26994476292064 -102.39113952252396 -97.94391816747067 -90.6569181083193 -80.26783328294552 -66.65686095756305 -50.20684459696917
-32.07697255960155 -13.630898244852466 4.537558731213704 22.56666479098702 40.59791774124227 58.50620632861033 76.0195625850353 92.81655866134471
108.54863715686692 122.84020989505387 135.28573872630614 145.44637161668166 152.84623176249536 156.968284441691 157.2497147356876 153.07726202071728
