robot_pepper/primitive_saved/bow_humble_weights.npy (npy, 38528 bytes, 1 tensors)

array f8 [48, 100]
0	0xc026a3f525c580ba	-11.320229702338441
1	0xc025926b1e1fb847	-10.78597349297719
2	0xc01dbdb64ac5a168	-7.435265701591881
3	0xc007ba9fd0ad1c32	-2.9661251356915495
4	0x3ff8c3b333c161a4	1.5477783223815118
5	0x4018a92c8a2bd5c8	6.16520896809147
6	0x4025cf566da344e3	10.904956270389851
7	0x402f768d8696c18b	15.731548505690418
8	0x403497eb867feeae	20.593437582238657
9	0x40396e2eaa86792d	25.430399568396002
10	0x403e2ce65e3919e8	30.175390137615892
11	0x404160b534ee1f4d	34.755529991408004
12	0x40438bdd9a8139bf	39.09270030317156
13	0x40458d4bba51e925	43.10387352942988
14	0x404759c2d1ffbbad	46.701257943982775
15	0x4048e56a60925a16	49.79230887552346
16	0x404a23cb7adfd976	52.279647216130726
17	0x404b07d044d5e473	54.06104336208309
18	0x404b8407f48f8186	55.03149277693869
19	0x404b8d2b15bf1579	55.10287734823482
20	0x404b25a1cbcf6320	54.2940001261361
21	0x404a74bae131863f	52.911953114682994
22	0x4049ca599c7787ed	51.580859716763236
23	0x40496d587e425fc9	50.85426309815336
24	0x40496fc031caca55	50.87305281068681
25	0x4049c6dd565d98e1	51.55362968034911
26	0x404a713585425f63	52.88444581738329
27	0x404b7b28bbb7ddbf	54.962180580881515
28	0x404cf6af0547f333	57.92721620572265
29	0x404ef6ae4e30f1c2	61.92719437970983
30	0x4050c47e188e261f	67.07019628411989
31	0x405252630f7a66ff	73.28729617074349
32	0x40540ace994a3925	80.16885978935586
33	0x4055c761e2d41709	87.11534949027931
34	0x405773103ede27f9	93.79786655135094
35	0x40591199970a3ccb	100.27499938964608
36	0x405aab6cc9e93bbb	106.67851493622486
37	0x405c41c75004f178	113.02779007418383
38	0x405dd101b2e678ae	119.26572868830655
39	0x405f53fb1c61fa3f	125.31220159118764
40	0x4060628d1e22deac	131.07972628412733
41	0x40610f33dd5497a7	136.47508112451507
42	0x4061acc318cc155f	141.3988155351644
43	0x406237d3ab10fa55	145.74458840671528
44	0x4062acc03c1a270d	149.3984661589424
45	0x4063079f149d17f9	152.23816900904038
46	0x4063443b64fd0ae7	154.13225030348187
47	0x40635e0e0227aeff	154.93921001196574
48	0x4063503862c48743	154.5068830336041
49	0x406315a47bf0186d	152.67632862943302
50	0x4062aa1750f19d0f	149.3153462142004
51	0x40620e0d92ddadd0	144.43915694519683
52	0x40614bf687b5db79	138.373844008627
53	0x406074e645108428	131.6531091044028
54	0x405f25f866507fc2	124.59328611241565
55	0x405d48e98b1ea32d	117.13925436012205
56	0x405b49122641a7dc	109.14173275386514
57	0x40592343b288b878	100.5510069213068
58	0x4056d92a87a75add	91.39322081893211
59	0x40546df9c55018a3	81.71836979696177
60	0x4051e55e8f41d54d	71.58389645985626
61	0x404e86c95d16f509	61.05302013035732
62	0x4049190524ebe3e5	50.19546948926999
63	0x40438b53c62e73db	39.088494084054865
64	0x403bd1698594f452	27.81801638495046
65	0x40307ade9142cb20	16.47995860939693
66	0x4014ba2762aa4a77	5.18179086841939
67	0xc017d2949143ac82	-5.955644864802823
68	0xc030cbc49939a099	-16.79596860558431
69	0xc03b2f469879f7f1	-27.18467095353839
70	0xc04279163f719aa9	-36.94599144980504
71	0xc046f087704494f1	-45.879133256423195
72	0xc04ae0775b2488f5	-53.753642456855154
73	0xc04e26e08d1ab6b6	-60.30372775844937
74	0xc0504e288b7c61cf	-65.22122466227232
75	0xc051096557d8f376	-68.14681049524901
76	0xc0512a2c19e7581d	-68.65894172279555
77	0xc05090a0799f01a7	-66.25979462173437
78	0xc04e2db95498e6de	-60.35721833673391
79	0xc0491ee3773ac71b	-50.24131670351036
80	0xc04186e03ed96d93	-35.053718429723766
81	0xc02b7ee0d7bbc7e0	-13.747809163734871
82	0x402ddcbc9c911641	14.931126492224509
83	0x4049fa0b07e52bed	51.95346163454074
84	0x4057697040c8d6bf	93.64747638333482
85	0x405d5bb4fd6adc90	117.43292174754811
86	0x40545a84bf0f5adb	81.41435219287398
87	0xc020befc7dacc775	-8.373020102826311
88	0xc05037520cc86fb0	-64.86438293050628
89	0xc04888c7a8df3a24	-49.068593129155744
90	0xc03048fb2063f58d	-16.28508188667688
91	0xbffd170f237da9f3	-1.8181296717035564
92	0x3fefadf39dad4040	0.9899843291877986
93	0x3ff2f46150864a16	1.1846631188860832
94	0x3ff2a97715852a42	1.1663733330375554
95	0x3ff392cf08ad6907	1.22334197415927
96	0x3ff679c87f4b8275	1.4047322246989584
97	0x3ffb9fc0ed1e115f	1.7265023481750956
98	0x3ffafcfd149fcf34	1.6867647939333894
99	0x3ffafcfd149fcf34	1.6867647939333894
100	0xc02535a0ca868886	-10.604742363855859
101	0xc0297588a9f5b8c7	-12.729558287854514
102	0xc02cb2e8411221a9	-14.349428208792988
103	0xc02f0555788c7a0a	-15.510417716167485
104	0xc030c727d81a4325	-16.777951723491373
105	0xc0322cba60de7c24	-18.17471890861283
106	0xc033b1280166d1e2	-19.692016685106758
107	0xc035552dad98210b	-21.33272824253167
108	0xc0371aba15eb8102	-23.1044019412957
109	0xc039047cdf2b819a	-25.017530391809125
110	0xc03b15b71d041f66	-27.084825337893015
111	0xc03d521fe6b02fb5	-29.32079927255082
112	0xc03fbdf1fec83f65	-31.74197380436762
113	0xc0412f63eeaf4c45	-34.37023719367475
114	0xc0429f6627f00f16	-37.24530505391719
115	0xc044388ca5c66ca2	-40.44179222286881
116	0xc046077881a55311	-44.05836506435856
117	0xc0481610d9ad84ee	-48.17238923046703
118	0xc04a69594d0204cc	-52.82303774450847
119	0xc04d05428b6b0c3c	-58.04109328009551
120	0xc04fef64f3aae0b4	-63.87026830524101
121	0xc051975a6fa0a468	-70.3648947781345
122	0xc053656658c07275	-77.58437174600279
123	0xc05565dac983bed4	-85.59147870889439
124	0xc0579cf2cb22f4db	-94.4523189393398
125	0xc05a0f2367f80e18	-104.23653601860167
126	0xc05cc11fc9b43ebf	-115.01756517984448
127	0xc05fb7dd54aff65a	-126.87288396056957
128	0xc0617c48ad06e79a	-139.88387156818936
129	0xc063442fca549300	-154.13083378332522
130	0xc0653511e4422a82	-169.65843403742844
131	0xc0674b8cdd6da8e4	-186.36094542901913
132	0xc0697b0b56a10400	-203.84513408134808
133	0xc06bb1cb36525804	-221.55605617602134
134	0xc06de52d682beea2	-239.16179283695698
135	0xc0700a69e231d77e	-256.65085048169556
136	0xc071211b09fa9b3f	-274.06910131352555
137	0xc07235d44a008f5c	-291.36432838648557
138	0xc07346a78c323723	-308.41590518584616
139	0xc0745143f762bd68	-325.0790933472658
140	0xc0755329ee18ca09	-341.19773683245927
141	0xc07649aeb7ac0038	-356.605155631903
142	0xc07731f8c3c3b880	-371.12323357060814
143	0xc07808fb1fd389d4	-384.5613096488207
144	0xc078cb708a5091ee	-396.71497565720244
145	0xc07975d610c0a097	-407.3647620701317
146	0xc07a0465221855b1	-416.2746907187057
147	0xc07a730d1a40d3d5	-423.19069886515837
148	0xc07abd6ea622ee6e	-427.839513908816
149	0xc07adef65cf95279	-429.93514726058453
150	0xc07ad3c51bb0ecf3	-429.2356221114307
151	0xc07a9bf5dfb2c097	-425.7475277884018
152	0xc07a400c9cd97ea3	-420.00307927092416
153	0xc079ce2840d209d9	-412.8848274426105
154	0xc0794e795d90e6dc	-404.9046302471377
155	0xc078bf12bd172448	-395.94207486190544
156	0xc0781b6ec3f8771a	-385.71454236084685
157	0xc07761b01bf52a4e	-374.1054954125183
158	0xc07691fb993eaf51	-361.1239254425646
159	0xc075ad0d50f28158	-346.81575102547276
160	0xc074b3c4c8755f9c	-331.23554273461355
161	0xc073a717360aeb13	-314.44316677346177
162	0xc07288121aebaaff	-296.50442020471377
163	0xc07157df638f3258	-277.49203830658143
164	0xc07017ca02e9a9ef	-257.48681918406413
165	0xc06d928656bdfe8d	-236.57889878376264
166	0xc06adbd0afffd250	-214.86922454800742
167	0xc0680f14bd5ae34c	-192.47128169776477
168	0xc065306b9c796975	-169.51313613618154
169	0xc0624479d7da25e8	-146.13987343413396
170	0xc05ea10ee46205ef	-122.51653394291473
171	0xc058b53a15faed73	-98.83167027954714
172	0xc052d34edd57f0fb	-75.30168851459523
173	0xc04a168d2dc73e96	-52.176183435714094
174	0xc03dbe9a93691ddb	-29.744546139872778
175	0xc020b03cde2d58c6	-8.344214385066504
176	0x4027420419b1b59e	11.628937533324287
177	0x403db517d1765aff	29.707394687075972
178	0x4046aae304f295c3	45.33505308003398
179	0x404cec30661b407c	57.845227015787685
180	0x40509ba22174c619	66.4317706718797
181	0x40518714887ec038	70.11062824609769
182	0x4050eab25bdc8643	67.6671361592826
183	0x404cca4c77c453d3	57.580458613265044
184	0x40430396279f4bae	38.02801986005885
185	0x40206b987ca6bdfc	8.210147757868064
186	0xc039a2ceff55e012	-25.635971029725688
187	0xc0468f49e676830b	-45.11944275652612
188	0xc042962fb7b76b81	-37.17333122688343
189	0xc02f3f53bd53b0ac	-15.623685757127838
190	0xbff2a53f38167bec	-1.1653434935503766
191	0x400cbcbdcabd906d	3.5921588744259254
192	0x401286de27cb3d10	4.6317068307682945
193	0x4014b632a7ea3299	5.177927611989298
194	0x4017e77bb0bbea44	5.97605777880614
195	0x401d03f470445a24	7.253862146541483
196	0x4022ae9dcb24bf23	9.341047619090721
197	0x4027466b8e3dad6b	11.637539334324819
198	0x401124f44ce5c0e8	4.286088181994479
199	0x401124f44ce5c0e8	4.286088181994479
200	0xc00614ae0477e3a9	-2.7600975369536696
201	0xc0104556d9d517be	-4.067714122420453
202	0xc01792361ad40c4f	-5.8927845184253576
203	0xc01f3657c291be91	-7.803069152970822
204	0xc0239fd5a33a9edd	-9.812176800638037
205	0xc027e68e4d2fa253	-11.950304424347598
206	0xc02c71495a61ad20	-14.22126276438081
207	0xc0309ef147643eb3	-16.62086912343393
208	0xc03324afdc75a710	-19.143308428500916
209	0xc035c83d69f35421	-21.782187101274875
210	0xc03887d8ce99ccb3	-24.530651962803585
211	0xc03b61a4d5ea7468	-27.38142144178383
212	0xc03e53a914c6816d	-30.326798723662638
213	0xc040ade90445bab3	-33.358673605010516
214	0xc0423bf8566f1e1b	-36.468516163117066
215	0xc043d2dcd45c9db2	-39.64736418268457
216	0xc045716213d05734	-42.88580558464892
217	0xc0471644371f0f3a	-46.17395676628662
218	0xc048c02f1accc5d1	-49.50143752096813
219	0xc04a6dbd69546837	-52.85734287854614
220	0xc04c1d7795543327	-56.23021189318961
221	0xc04dcdd2b96f4ef3	-59.60799329695683
222	0xc04f7d2f5dc3ce83	-62.9780080038154
223	0xc05094ec116cba64	-66.32690845125177
224	0xc05169002836418a	-69.64063458727301
225	0xc05239e1226ae8af	-72.90436611595463
226	0xc053068ee0ffcb4f	-76.10247063617611
227	0xc053cdfb0fc8f52f	-79.21844858765392
228	0xc0548f089a69d304	-82.23490009626772
229	0xc05548902f68e47f	-85.13380036586203
230	0xc055f9840187c245	-87.89868200547888
231	0xc056a1684a8c2fc4	-90.52199042978378
232	0xc05740e363dc63b3	-93.01387878916175
233	0xc057d9379dafd541	-95.39401952906793
234	0xc0586aab07371f0f	-97.66668873198454
235	0xc058f41f1c289855	-99.81439880337105
236	0xc0597425b2993a7f	-101.81480088199349
237	0xc059e9a3ed3a2df3	-103.65063028985587
238	0xc05a53b127458a76	-105.30768758574581
239	0xc05ab1663e66b9c2	-106.77186546356009
240	0xc05b01ce1c4a1dca	-108.02820498693396
241	0xc05b43e286375684	-109.06070094493958
242	0xc05b768a99845a7a	-109.85220945286883
243	0xc05b989939b9b86d	-110.38435214173087
244	0xc05ba8cb4ba69769	-110.63740817326256
245	0xc05ba5c5b7f8bafc	-110.59019278802947
246	0xc05b8e1330602d8e	-110.21992120163324
247	0xc05b6021bcc8709b	-109.50205916952329
248	0xc05b1a4117aad26c	-108.41022292787392
249	0xc05abaae730872f7	-106.91689754319292
250	0xc05a3ff881a33e1a	-104.99954262677821
251	0xc059aa673025531a	-102.6625480999468
252	0xc058fde2c4f8de8b	-99.96696590713161
253	0xc05840c08eba54b9	-97.01175277897245
254	0xc05776d11c694f0b	-93.85651312145289
255	0xc0569f9585ebd0f4	-90.49350116757324
