robot_pepper/primitive_saved/indicate_right_weights.npy (npy, 38528 bytes, 1 tensors)

array f8 [48, 100]
000000 59 1d 6e 8f a4 96 41 40 aa 34 41 2d f0 00 45 40
       35.17689698101703 42.00732961353181
000010 72 b1 5b d5 da 85 47 40 10 80 75 50 06 06 49 40
       47.04574076630787 50.04706769692723
000020 3e d5 01 1b 7a 82 4a 40 53 73 0d 5a 5b 06 4c 40
       53.019351364035614 56.049662834708805
000030 ad a5 11 2d 23 88 4d 40 94 c4 95 9e 84 02 4f 40
       59.06357348787001 62.019672225121354
000040 8c d0 13 a0 fe 38 50 40 18 7b ca a5 0a ea 50 40
       64.89054109511397 67.65689987920302
000050 20 96 90 3f 82 93 51 40 5e e4 87 57 bb 34 52 40
       70.30482472533959 72.82393444319447
000060 7b 3f df cb 31 cd 52 40 02 3b 9b d3 79 5c 53 40
       75.20616432954368 77.44493570479611
000070 b5 4e 01 c6 36 e2 53 40 fa d9 73 d8 14 5e 54 40
       79.53459310653382 81.47002230943318
000080 78 f4 bf db c4 cf 54 40 f7 45 63 51 f9 36 55 40
       83.24639028306581 84.85896715826662
000090 dc 7d 41 67 64 93 55 40 28 22 d5 8c b6 e4 55 40
       86.30300313373249 87.57364197553454
0000a0 ea ea b1 6d 9d 2a 56 40 d0 ed f8 2d c3 64 56 40
       88.66585867285508 89.57441281613796
0000b0 a6 7e ba d0 cd 92 56 40 9e 84 ed b7 5e b4 56 40
       90.29381197178245 90.81828115649338
0000c0 b5 3f cf 32 12 c9 56 40 a7 c7 f6 12 7f d0 56 40
       91.14173574675699 91.25775598620986
0000d0 cc 71 b8 42 36 ca 56 40 50 53 fd 58 c2 b5 56 40
       91.15956180584107 90.83998703707516
0000e0 6f 4f b2 27 a7 92 56 40 aa c9 93 42 61 60 56 40
       90.29145233548273 89.50593628342054
0000f0 4b 65 7c 7c 65 1e 56 40 ee c3 91 59 20 cc 55 40
       88.47494423053756 87.1894744800081
000100 a0 fa be 74 f5 68 55 40 9a 21 ea d6 3e f4 54 40
       85.63998144769948 83.81633541931515
000110 28 00 44 3e 4c 6d 54 40 77 ac 3b 55 62 d3 53 40
       81.70777851715741 79.30287676646718
000120 f1 9f 16 02 ba 25 53 40 9e 19 61 c3 82 63 52 40
       76.58947803697062 73.55485615236691
000130 94 2c ac c3 03 8c 51 40 e3 49 73 78 57 9f 50 40
       70.18772975744133 66.48971377619414
000140 e6 01 c5 d0 cf 40 4f 40 e4 31 b8 fc 0f 2d 4d 40
       62.50634202594283 58.35205039018527
000150 3b 9e a5 0c f3 14 4b 40 cd 8d 23 c1 de 01 49 40
       54.16366727911778 50.01461042629271
000160 3d b6 8d 49 d8 f4 46 40 85 f3 87 53 9f ee 44 40
       45.91285056514287 41.86423725260014
000170 33 8d cc 79 24 f3 42 40 30 20 8d c3 54 08 41 40
       37.89955065238828 34.06508678809075
000180 92 6e 78 3a e7 69 3e 40 9a 34 8a 09 ac 00 3b 40
       30.413684515383075 27.002625080339023
000190 8e e5 84 97 ce e4 37 40 c2 c3 29 6e 72 27 35 40
       23.89377734179066 21.154089818188147
0001a0 47 13 1d 0b 2d db 32 40 ea 34 33 d0 2e 14 31 40
       18.856156057928526 17.078839313985476
0001b0 f8 b2 29 28 d1 d0 2f 40 99 c8 8c 68 a1 de 2e 40
       15.90784574040434 15.434825198350426
0001c0 fe 6c 73 0b 43 7e 2f 40 fe e1 c5 8c 91 e2 30 40
       15.746605260696466 16.885033415137507
0001d0 d9 0d 60 a7 32 ca 32 40 79 a5 4e 86 96 53 35 40
       18.78983541579314 21.32651557369306
0001e0 81 21 3d c4 2b 6e 38 40 fc 89 3f 66 5f 2c 3c 40
       24.430355324673204 28.17333067942853
0001f0 fa a7 89 d2 99 56 40 40 77 bd df 84 a7 04 43 40
       32.676569287505075 38.0363622753602
000200 bf 39 5f 6b 07 2a 46 40 8d 70 ec 21 34 d0 49 40
       44.32835142278372 51.62659095806985
000210 1d d7 1a 19 27 00 4e 40 c4 ac b0 4c 1e 5e 51 40
       60.001193178277596 69.4705993390408
000220 62 05 0b c6 1c f9 53 40 d3 40 94 b2 ad ba 56 40
       79.8923812015178 90.9168516586099
000230 b4 a8 37 9b c4 8b 59 40 31 da 36 93 6a 63 5c 40
       102.18387489734124 113.55337982517882
000240 60 74 24 5d 75 42 5f 40 17 3d 8e 9b c4 13 61 40
       125.03841332016009 136.61774995594962
000250 60 af 01 36 06 86 62 40 f3 6c f6 5a 1a f3 63 40
       148.1882581742202 159.59696720247265
000260 33 8b d7 43 12 55 65 40 a7 ef ed ef ea a4 66 40
       170.65847961519611 181.1536788603964
000270 7c 37 1f e3 4f da 67 40 f7 06 04 93 46 eb 68 40
       190.8222518548681 199.3523650244385
000280 49 ea 86 6a bf cb 69 40 19 d6 79 71 02 6d 6a 40
       206.36711622572537 211.4065482501617
000290 c7 32 0d b8 e8 bc 6a 40 e6 cd f7 59 cc a4 6a 40
       213.90340807512095 213.14994524382854
0002a0 c3 10 93 56 0d 08 6a 40 55 91 46 9b f6 c1 68 40
       208.2516281959889 198.0613533380771
0002b0 d4 64 4c 05 af a2 66 40 91 ae e1 97 ab 6a 63 40
       181.08386483116794 155.33344644621369
0002c0 72 06 8b 80 6d 87 5d 40 8c cf bc e4 d7 6b 50 40
       118.11605847908666 65.68505209387348
0002d0 22 9e 25 19 b7 49 1d c0 3e 62 ef 42 5e 33 5b c0
       -7.321987526818278 -108.80262826325722
0002e0 27 2b 15 26 1c 3f 6f c0 90 e2 49 63 6b 62 7b c0
       -249.97218612799153 -438.15121773587543
0002f0 b2 60 8d c8 8b 8f 83 c0 ee 2e bc e2 a4 c1 82 c0
       -625.9432536168226 -600.205510587866
000300 e8 96 ca 33 e8 b2 52 c0 44 30 b6 22 cc 0a 87 40
       -74.79542250427369 737.3496755822639
000310 13 24 13 49 99 35 91 40 13 24 13 49 99 35 91 40
       1101.3996928206222 1101.3996928206222
000320 14 18 8e 7c 50 c5 4d c0 f7 41 e8 a0 87 df 51 c0
       -59.541518754369605 -71.49265310937322
000330 c3 62 93 ef 81 3f 54 c0 ed 09 a7 41 91 d1 55 c0
       -80.99230565446037 -87.27449075043087
000340 30 1b 06 c1 67 64 57 c0 1c a7 1b cd c4 02 59 c0
       -93.56883264156636 -100.04326179218737
000350 40 0a 4e 95 3b a5 5a c0 4a 42 9b 59 45 47 5c c0
       -106.58176167126749 -113.11360778963095
000360 70 a4 32 db b0 e5 5d c0 d3 4c ce 1e 19 7e 5f c0
       -119.58891944833317 -125.97028322359556
000370 89 2b ce 25 4f 87 60 c0 f7 4a 1c 45 db 4a 61 c0
       -132.228411581684 -138.33926635290092
000380 5d 11 9e 02 07 09 62 c0 51 f5 2b 8f 38 c1 62 c0
       -144.28210574028608 -150.03815420709228
000390 e8 7e 20 c4 de 72 63 c0 16 49 2a 03 6c 1d 64 c0
       -155.58969312998602 -160.91943510302434
0003a0 51 57 dc a5 52 c0 64 c0 57 64 94 78 02 5b 65 c0
       -166.01008885417335 -170.84405163748553
0003b0 a0 37 d5 e6 e6 ec 65 c0 6c 8c 05 9c 65 75 66 c0
       -175.40318624156953 -179.6686534984941
0003c0 8e e4 08 6f dd f3 66 c0 a1 4a 5b 7c a5 67 67 c0
       -183.62078048455118 -187.23895089941382
0003d0 ef 8d 42 5b 0c d0 67 c0 ce 19 a7 60 57 2c 68 c0
       -190.50150835989868 -193.38566620480418
0003e0 f6 30 2b e6 c1 7b 68 c0 f0 18 c3 8e 7c bd 68 c0
       -195.86741932330887 -197.9214547930237
0003f0 31 75 d1 83 ac f0 68 c0 87 02 eb a6 6a 14 69 c0
       -199.52105894956324 -200.63801904583326
000400 28 41 16 b5 c2 27 69 c0 f5 28 c0 58 b2 29 69 c0
       -201.2425179896029 -201.3030208352208
000410 e7 54 cd 27 28 19 69 c0 2d 12 36 8b 02 f5 68 c0
       -200.78615179160917 -199.65656052170507
000420 7c 1e 85 8d 0e bc 68 c0 75 c5 62 8d 06 6d 68 c0
       -197.87677646636791 -195.40704983989022
000430 1d ae 1a d1 90 06 68 c0 97 77 48 f9 3d 87 67 c0
       -192.20517783366168 -188.22631515649547
000440 a7 b6 ba 82 87 ed 66 c0 4c 60 08 e7 d1 37 66 c0
       -183.42279182879903 -177.74437286029786
000450 2e 03 36 c2 93 64 65 c0 6a 4b 9b 81 37 73 64 c0
       -171.14303694295216 -163.60052566843962
000460 63 6e 9e 2e 80 66 63 c0 25 24 07 a4 76 46 62 c0
       -155.20314722961038 -146.20198251147045
000470 5c 03 4c 3c d0 1c 61 c0 5a 3b e7 f8 97 dc 5f c0
       -136.90041937681497 -127.4467756517528
000480 ef eb 4d b5 11 75 5d c0 28 2f e9 f9 d1 01 5b c0
       -117.82920582398923 -108.02844093105216
000490 eb 79 17 48 4e 85 58 c0 d0 2e a0 d9 34 04 56 c0
       -98.08290293018915 -88.06572571413858
0004a0 30 6a 12 27 05 84 53 c0 b1 81 c4 d5 b7 0a 51 c0
       -78.06281449125595 -68.16747039976214
0004b0 e4 1e e2 cb 7d 3d 4d c0 bc 26 50 d0 25 8e 48 c0
       -58.480401502047044 -49.11052898324621
0004c0 53 e8 84 9a 84 16 44 c0 6a 04 3f 95 08 ce 3f c0
       -40.175921740432976 -31.804818466076917
0004d0 b3 08 ac 9d ef 22 38 c0 1f af 8d 69 85 51 31 c0
       -24.13646874856995 -17.318441960421406
0004e0 21 4a 45 be 17 f6 26 c0 b9 b5 c2 2e 83 8f 1a c0
       -11.48064989658184 -6.640148859628817
0004f0 78 6c 36 15 f0 86 04 c0 0e 8e 7b ce b0 81 f2 3f
       -2.565887609218006 1.1566627565124494
000500 a6 cf ad cf e3 26 13 40 51 34 ef 08 8d 8e 20 40
       4.787978405936803 8.278419760894538
000510 fb 20 03 83 89 f3 26 40 d7 88 a9 b7 d7 99 2c 40
       11.475658506519258 14.300473918385633
000520 15 69 22 54 23 bd 30 40 47 37 31 07 ed cb 32 40
       16.738820322419162 18.796585511699302
000530 5e 1d 22 6e 8c 7b 34 40 65 d5 59 ee f2 cd 35 40
       20.482611544922626 21.80448808377459
000540 d6 5b cf 5e c7 c3 36 40 93 6c d1 47 0a 5c 37 40
       22.764760900139514 23.359531868580756
000550 af d4 22 c2 e4 95 37 40 2f 22 aa 15 c5 72 37 40
       23.585521825317013 23.448319772755152
000560 20 2a 17 a7 d7 f5 36 40 ff ce cc 81 70 22 36 40
       22.960321849017532 22.13452922105989
000570 8e 97 d4 71 b7 fb 34 40 68 44 8c 54 0f 85 33 40
       20.98326789322123 19.519765171284604
000580 7f 39 79 8e 63 c2 31 40 8e ab 80 d6 a9 70 2f 40
       17.759331612201546 15.720045760351947
000590 27 c2 11 a6 cb d8 2a 40 cf 28 2f 4d 64 ca 25 40
       13.42342871634271 10.895296489722027
0005a0 2e d0 99 1a 71 55 20 40 5f 49 b8 00 f0 1a 15 40
       8.166878539348627 5.276306163070642
0005b0 de 55 88 5b 3b 2a 02 40 f2 e5 c0 e2 bc 53 e9 bf
       2.270621028040053 -0.7914719036845652
0005c0 90 c7 03 b7 a5 af 0e c0 b9 31 56 56 80 11 1b c0
       -3.8357652948406624 -6.767091130267027
0005d0 ea 45 db 4c 3b ec 22 c0 ed d8 7b 60 ff 81 27 c0
       -9.461389924780594 -11.753901496046149
0005e0 73 21 c8 55 98 d7 2a c0 d5 e0 98 cc d7 4d 2c c0
       -13.421084099464428 -14.152037042295357
0005f0 f5 c1 bf 97 de 00 2b c0 1b da c0 0e 09 a0 25 c0
       -13.501698248060146 -10.81256910423422
000600 2b cd 4e 51 69 70 14 c0 bc 6d f8 aa c0 eb 12 40
       -5.109776754793795 4.730227157032854
000610 f2 fd 4c e3 b6 fb 31 40 ed db 49 79 65 d2 3a 40
       17.98325939778983 26.82186086705399
000620 67 86 c8 c6 41 75 31 40 b7 f3 9b 53 3f 19 20 c0
       17.458034919697095 -8.04931126860343
000630 d3 e4 6d 74 52 53 39 c0 d3 e4 6d 74 52 53 39 c0
       -25.325476910428574 -25.325476910428574
000640 c5 ab be a2 a2 78 41 40 48 27 e3 bb 87 d5 44 40
       34.94246324834925 41.668204770960585
000650 3f 5d 9f 47 f1 53 47 40 59 86 70 1b 68 d4 48 40
       46.65580077439744 49.65942709917426
000660 d3 e5 ba 18 05 53 4a 40 65 5a 2e 07 e2 da 4b 40
       52.64859303594462 55.71002282870612
000670 4c 7d 54 8c d9 62 4d 40 d6 4d 66 a7 ee e5 4e 40
       58.772264043097124 61.79634563918414
000680 51 19 35 2e 74 30 50 40 af 01 a7 d0 ca e8 50 40
       64.75709109483184 67.63737884816395
000690 8b d5 6f 12 3a 9b 51 40 9a 54 b0 17 3b 47 52 40
       70.4254194347506 73.11298172206662
0006a0 03 8c 09 b3 6d ec 52 40 1a 28 26 24 8b 8a 53 40
       75.69419551784817 78.16474250532374
0006b0 ff 02 88 24 5d 21 54 40 da 3c a5 dd b7 b0 54 40
       80.52130997927087 82.76122227798933
0006c0 6a 22 4c d6 75 38 55 40 bf 73 40 33 75 b8 55 40
       84.88219220576289 86.88215333265451
0006d0 7a 43 ec db 95 30 56 40 fb 4e e0 37 b8 a0 56 40
       88.75914667198768 90.51124379067544
0006e0 90 1a 33 52 bc 08 57 40 a4 ac 49 40 81 68 57 40
       92.13649420729257 93.63288886255992
0006f0 8a a8 bd b4 e4 bf 57 40 8f cd a0 ae c2 0e 58 40
       94.99833410760235 96.2306324549047
000700 38 d2 76 3a f5 54 58 40 65 03 ae 3d 54 92 58 40
       97.32746755221967 98.2863916587208
000710 7d e1 ad 47 b5 c6 58 40 1e 09 1e 65 eb f1 58 40
       99.1048144529395 99.77999236996808
000720 a8 fb 0d f3 c6 13 59 40 d3 76 52 70 15 2c 59 40
       100.30901790967494 100.68880851796284
000730 6e ce db 4b a1 3a 59 40 bf 9e 0d af 31 3f 59 40
       100.91609474626031 100.9874074585923
000740 92 45 48 43 8a 39 59 40 b8 9d e8 f1 6a 29 59 40
       100.89906389291562 100.64715240208068
000750 60 48 08 9e 8f 0e 59 40 45 26 44 d7 af e8 58 40
       100.22751570519313 99.63573247580742
000760 26 e3 c1 84 7e b7 58 40 58 07 9a 87 a9 7a 58 40
       98.86709708151156 97.91659727136482
000770 0f a2 b2 53 d9 31 58 40 f2 7b f7 7d b0 dc 57 40
       96.7788895840133 95.44827222030997
000780 06 b4 b7 3e cb 7a 57 40 fe 2e c5 e6 be 0b 57 40
       93.9186550897576 92.1835266996022
000790 68 8f bf 45 19 8f 56 40 70 6f b9 ff 5f 04 56 40
       90.23591750819253 88.0683593092815
0007a0 1f ef 21 d0 0f 6b 55 40 84 9e 8c b7 9b c2 54 40
       85.67284015001177 83.04075421078056
0007b0 70 47 94 11 6c 0a 54 40 39 84 a7 8f dd 41 53 40
       80.16284598808647 77.02914801939995
0007c0 65 4e 0d 15 40 68 52 40 d0 e1 d7 6f d5 7c 51 40
       73.62891126918255 69.95052715379938
0007d0 d6 d3 c8 e9 cf 7e 50 40 94 06 af 56 a1 da 4e 40
       65.98144001590785 61.70804866357972
0007e0 25 1e ee d5 cb 8e 4c 40 df 34 22 0a 12 18 4a 40
       57.11559557082027 52.1880505244278
0007f0 27 74 ab 0f 3f 74 47 40 03 57 d7 15 46 a1 44 40
       46.90817447540058 41.25995133413928
