robot_pepper/primitive_saved/nod_agreement_weights.npy (npy, 38528 bytes, 1 tensors)

array f8 [48, 100]
00000000: d45a 3185 913a 45c0 dad4 bd32 0558 45c0
00000010: 13d0 51fe c687 45c0 a966 df34 bbbf 45c0
00000020: a69d 183e 52fa 45c0 511a 8111 4b36 46c0
00000030: f6ec 29ff 8473 46c0 cf96 78fb 0ab2 46c0
00000040: 064a aacb eaf1 46c0 34d1 9f01 3233 47c0
00000050: 2ebd 7320 ee75 47c0 864a 8fd0 2cba 47c0
00000060: 1c80 22c2 fbff 47c0 6ee5 6853 5c47 48c0
00000070: e719 ffde 208f 48c0 f8fa dbf7 d6c7 48c0
00000080: 6aee 8b96 6792 48c0 731e 2329 52fa 46c0
00000090: 15bf ab6d 4daf 43c0 8cf2 cfeb 2ee5 40c0
000000a0: fb31 7a00 ac70 40c0 51fe 04fb ede7 40c0
000000b0: 258c bd0b 9cd1 40c0 ccc2 3587 4c40 40c0
000000c0: b677 4bb3 5c18 3fc0 4814 166e e49f 3dc0
000000d0: b326 0cd2 501d 3cc0 ad7d 9761 6d90 3ac0
000000e0: 5ca2 0f1b a7f8 38c0 af64 8ce8 6b55 37c0
000000f0: eafc 2219 2aa6 35c0 f5f3 09eb 4dea 33c0
00000100: 788f 78d8 4d21 32c0 2bdc e609 fe4b 30c0
00000110: a930 9847 54f8 2cc0 846e 543f 8f49 2ac0
00000120: e1c9 89ad 4df4 2ac0 a2dd fadf dbfd 2fc0
00000130: 232d c940 8300 32c0 cd2f 3d87 c7fa 30c0
00000140: 7f31 f65c a325 2dc0 2601 d018 8a8f 29c0
00000150: a8f7 7e85 d428 27c0 4d23 c576 a505 25c0
00000160: d532 7a87 8fd8 22c0 37a0 e4e0 a996 20c0
00000170: ec15 8966 c67c 1cc0 b6b6 0c99 429d 17c0
00000180: 7ef6 b7eb 4f8c 12c0 a35e 0192 558e 0ac0
00000190: 0b25 6f51 122b ffbf 8714 f6e7 0b9e e0bf
000001a0: 7fd8 837c 5c0c ef3f f0bf 3356 3532 0440
000001b0: 2d6b f604 9795 1040 bfc5 6feb 5e3c 1740
000001c0: feea 3a24 dcee 1c40 b56c 4c84 9aa6 1c40
000001d0: 8221 8df8 28d8 0c40 0194 616a 90c6 00c0
000001e0: c3e5 d137 6f5b 12c0 7726 2629 0db2 06c0
000001f0: 5ad6 9ed0 6409 eabf 8c91 2872 e28b b9bf
00000200: 8969 1519 9a7e 833f d5c9 5bae 2962 863f
00000210: d747 c76b dfa7 763f 02cd 1c22 ce19 5d3f
00000220: b1cd 4b3e ef7e 42bf 7240 9e8d 41c6 5fbf
00000230: b51b eb66 87da 65bf db2a aacd 8655 68bf
00000240: da45 3cc7 1093 68bf 1171 5e59 bd6c 67bf
00000250: 6499 6561 5a75 65bf ab38 f526 750e 63bf
00000260: ea88 40fd 7f77 60bf 22d5 b2f5 e3b0 5bbf
00000270: 4ca6 8227 6792 56bf b369 97fa 8fad 51bf
00000280: 3c32 50c0 731b 4abf f9fe b823 e168 41bf
00000290: 0bf1 edbc b972 32bf efd2 c4cd 349e 07bf
000002a0: 70f4 9035 52bc 273f 2ee4 d8b0 f940 3a3f
000002b0: 3014 7104 bd3e 443f 2627 9861 e974 4b3f
000002c0: 4928 a699 b37b 513f 434b 6e6f 4e84 553f
000002d0: 2ba8 d597 7b00 5a3f e637 08cb 6e2e 5f3f
000002e0: aae5 db30 82b5 623f 4d9d 81ca 17a5 663f
000002f0: 10da 13d0 e5e4 6b3f aec3 641f 58b1 713f
00000300: cfa7 6f47 1580 773f 055e ffd8 caa3 7f3f
00000310: a73a b764 a6bc 743f a73a b764 a6bc 743f
00000320: 6b70 eb64 44e2 40c0 db73 dac6 b0f9 40c0
00000330: 24f3 a427 ac1f 41c0 45e1 8f90 2c4c 41c0
00000340: e3f8 c2b8 c57a 41c0 bcfe 1743 78aa 41c0
00000350: 7a03 ef2e 2adb 41c0 433d b432 e40c 42c0
00000360: 488a 3542 b13f 42c0 c4c2 6128 9c73 42c0
00000370: 26e8 62a4 afa8 42c0 0edf 1493 f6de 42c0
00000380: f512 b4da 7b16 43c0 eae7 f628 414f 43c0
00000390: 4235 8cee 6488 43c0 2b8c 8a08 52b6 43c0
000003a0: 1b39 bfcc b791 43c0 3053 723e 3663 42c0
000003b0: 1a65 3d3d 2edd 3fc0 c2b4 5359 78b5 3bc0
000003c0: 7c43 17e4 5d0e 3bc0 64ee efb8 1dc9 3bc0
000003d0: 2588 b492 b3af 3bc0 3b2d d30c 03de 3ac0
000003e0: 5c0f 1bf2 54d8 39c0 6f77 d4ac b4c6 38c0
000003f0: 5b1c 9e17 bdad 37c0 1316 a060 498d 36c0
00000400: 56da 96f7 ed64 35c0 7236 7224 4034 34c0
00000410: 4df0 67a5 d5fa 32c0 beb8 67f3 42b8 31c0
00000420: c47c 691f 296c 30c0 01a3 33d6 422f 2ec0
00000430: 3000 80f7 d99b 2bc0 ba69 865d 7314 2ac0
00000440: 2307 2108 042d 2cc0 7c88 93f8 c27e 31c0
00000450: 6271 3698 b260 34c0 fad2 7787 c00b 34c0
00000460: 52ce fa4c 9542 32c0 14d7 ccb3 2c28 31c0
00000470: 33c0 7724 50b7 30c0 577e b72c 4472 30c0
00000480: af02 692e 0d30 30c0 fe74 7761 92d6 2fc0
00000490: d8f6 9986 3b47 2fc0 402e c967 f3b1 2ec0
000004a0: db92 4136 8816 2ec0 fd1f 5a02 b774 2dc0
000004b0: 4ddb 8326 2ecc 2cc0 7eb5 82c1 8e1c 2cc0
000004c0: 76ed 256c 6d65 2bc0 b47f 6359 52a6 2ac0
000004d0: 482c de00 b9de 29c0 e483 cd71 0f0e 29c0
000004e0: 0595 70a0 b533 28c0 d781 f32d fd4e 27c0
000004f0: cf1c 8c53 275f 26c0 fa8b cd55 5c63 25c0
00000500: b4aa 9d06 a85a 24c0 9af9 304e 0444 23c0
00000510: ad3f 88f7 561e 22c0 4679 03f6 61e8 20c0
00000520: 00eb b00c 7e41 1fc0 edca faa5 bc8b 1cc0
00000530: 741a d1d9 00ac 19c0 0dc2 1997 5c9e 16c0
00000540: 1163 0666 605e 13c0 eb02 babd 0bce 0fc0
00000550: 0082 8a70 2b65 08c0 0e11 0b99 1075 00c0
00000560: 29cd 323f f9ba efbf fa1a 6d49 47f1 c33f
00000570: 102f 0eb2 df50 f63f 45cf 8925 41e4 0540
00000580: 9639 a502 0ec1 1040 447d 9b1b 55be 1640
00000590: 4f68 db39 30be 1a40 6407 535d d3f6 1540
000005a0: bc94 d69b af2b ec3f 60c1 d738 e9c3 0dc0
000005b0: 4ee3 90da 9dfe 0fc0 a03c b321 6e43 fcbf
000005c0: a520 3c3e 5d06 d6bf 1406 82f6 04ec 903f
000005d0: 0823 523f 85a3 ac3f d61d 8165 fde0 ab3f
000005e0: 2869 1010 f815 ab3f 21be fe73 bd83 ab3f
000005f0: 0b56 11a5 2c17 ad3f ef63 d359 89d1 af3f
00000600: 9ce0 927f d4ed b13f f462 01de 8fcb b43f
00000610: 3d85 bad4 45e3 b83f b496 46e2 cff6 be3f
00000620: c432 515e 924c c43f 25ec 773c 7234 cb3f
00000630: 87fd b132 ed3c c33f 87fd b132 ed3c c33f
00000640: 0000 0000 0000 0000 0000 0000 0000 0000
00000650: 0000 0000 0000 0000 0000 0000 0000 0000
00000660: 0000 0000 0000 0000 0000 0000 0000 0000
00000670: 0000 0000 0000 0000 0000 0000 0000 0000
00000680: 0000 0000 0000 0000 0000 0000 0000 0000
00000690: 0000 0000 0000 0000 0000 0000 0000 0000
000006a0: 0000 0000 0000 0000 0000 0000 0000 0000
000006b0: 0000 0000 0000 0000 0000 0000 0000 0000
000006c0: 0000 0000 0000 0000 0000 0000 0000 0000
000006d0: 0000 0000 0000 0000 0000 0000 0000 0000
000006e0: 0000 0000 0000 0000 0000 0000 0000 0000
000006f0: 0000 0000 0000 0000 0000 0000 0000 0000
00000700: 0000 0000 0000 0000 0000 0000 0000 0000
00000710: 0000 0000 0000 0000 0000 0000 0000 0000
00000720: 0000 0000 0000 0000 0000 0000 0000 0000
00000730: 0000 0000 0000 0000 0000 0000 0000 0000
00000740: 0000 0000 0000 0000 0000 0000 0000 0000
00000750: 0000 0000 0000 0000 0000 0000 0000 0000
00000760: 0000 0000 0000 0000 0000 0000 0000 0000
00000770: 0000 0000 0000 0000 0000 0000 0000 0000
00000780: 0000 0000 0000 0000 0000 0000 0000 0000
00000790: 0000 0000 0000 0000 0000 0000 0000 0000
000007a0: 0000 0000 0000 0000 0000 0000 0000 0000
000007b0: 0000 0000 0000 0000 0000 0000 0000 0000
000007c0: 0000 0000 0000 0000 0000 0000 0000 0000
000007d0: 0000 0000 0000 0000 0000 0000 0000 0000
000007e0: 0000 0000 0000 0000 0000 0000 0000 0000
000007f0: 0000 0000 0000 0000 0000 0000 0000 0000
-42.457565926646254 -42.68765863675226 -43.060760297725345 -43.497900590021636 -43.955634843844834 -44.42416590503547 -44.90249623820448 -45.3909601534666
-45.889977892064095 -46.39996357253622 -46.92132955218618 -47.45449263569485 -47.99987055477706 -48.55750506040464 -49.118190645753025 -49.5612478088496
-49.1437862571009 -45.95563234534065 -39.36955042730384 -33.79049441960987 -32.88024908033909 -33.811950089872546 -33.63757464175459 -32.50233545422597
-31.09516449539634 -29.624579315557895 -28.114514472929567 -26.564169024930084 -24.97129983073897 -23.333677801395137 -21.64907986740301 -19.915251436166688
-18.130094079431245 -16.296845072614968 -14.485018002822772 -13.143671015793423 -13.477155135221382 -15.995818137524854 -18.002002762904464 -16.979607059896626
-14.57351198678293 -12.780350470915959 -11.579746410130454 -10.51102801472157 -9.422970040957276 -8.294264820011547 -7.1218505879564695 -5.9035743631372295
-4.637023623564913 -3.319499149958419 -1.9480155163785777 -0.5192927866452387 0.9702589446958568 2.5245157942335865 4.146083905735208 5.808955839821862
7.233261648269716 7.162698809780683 3.60554689579675 -2.096955138304566 -4.589291450677993 -2.8369391646163495 -0.8136467051142049 -0.09979071890899699
0.009518817797176353 0.010929418214321732 0.005531189668959122 0.0017761719722784734 -0.0005644481830970241 -0.0019393577735833637 -0.002667679268913282 -0.002970469749305022
-0.00299981381420687 -0.0028594682907635634 -0.0026194348567287074 -0.0023262298706533033 -0.0020101070204115905 -0.0016901231927424838 -0.0013776786200118294 -0.0010789781612091486
-0.0007967295829317054 -0.0005313014330070302 -0.0002814963781288127 -4.5047747081394345e-05 0.00018108848124312764 0.0004006013485625151 0.0006178305565148808 0.000837911563565917
0.001067090407192344 0.0013132825822352457 0.0015870291675477248 0.0019031602824983672 0.0022838156499999833 0.0027642693203692504 0.0034050453692728924 0.0043195192613873345
0.005737383958129129 0.007724563954944146 0.005062723135280812 0.005062723135280812 -33.767712225876345 -33.95070729891423 -34.247441249410514 -34.59511000657452
-34.959158988190914 -35.33179510757097 -35.71222483320794 -36.100714052207444 -36.497597004072816 -36.9032030560825 -37.31786017255244 -37.741899857703274
-38.17565473358801 -38.61917602592423 -39.06558019491287 -39.42437845959679 -39.13842162453712 -36.775092893431406 -31.863986804474827 -27.708867628990227
-27.056120162658303 -27.78560977800079 -27.686333817553663 -26.867234040791327 -25.845046168905682 -24.776194383498872 -23.678666568852673 -22.55190090092044
-21.394256090478244 -20.204103734859423 -18.97982248103681 -17.719771588156384 -16.422502482656242 -15.09230679874736 -13.804397329688157 -13.039942667634808
-14.087921384841655 -17.495162521380266 -20.377725137035107 -20.045906512025773 -18.260090647918624 -17.15693210364323 -16.716066626773863 -16.446352762983533
-16.18770113052113 -15.91908554633346 -15.63912602071234 -15.347560160930811 -15.044007964615437 -14.727958749295789 -14.398789599986822 -14.055776641088183
-13.698100452070076 -13.324847024341445 -12.93500521385262 -12.527461582505516 -12.10099507688802 -11.654275356268881 -11.185846911290723 -10.694063836423073
-10.177063185450017 -9.632845347860712 -9.059257254964757 -8.453872383045233 -7.813957403467384 -7.13646182387559 -6.417971995723395 -5.654650078723091
-4.842164606227713 -3.975608331908338 -3.0493992607373457 -2.0571605640890374 -0.9915739282936659 0.1558007343794186 1.3947445826806337 2.7364523823434035
4.188530007681399 5.6858715356496 6.685730842606133 5.491040666763954 0.8803327602114659 -3.7206596794932665 -3.999324519678715 -1.7664624515926235
-0.3441384418260987 0.016525342507980836 0.0559350623889881 0.054450911179227 0.0529019851312163 0.0537394718261306 0.05681743159281546 0.062145511832291216
0.07003524889558083 0.08123110933355432 0.09721790736741283 0.120953552954769 0.15858678441363427 0.21253803207932367 0.15029683089595045 0.15029683089595045
0.0 0.0 0.0 0.0 0.0 0.0 0.0 0.0
0.0 0.0 0.0 0.0 0.0 0.0 0.0 0.0
0.0 0.0 0.0 0.0 0.0 0.0 0.0 0.0
0.0 0.0 0.0 0.0 0.0 0.0 0.0 0.0
0.0 0.0 0.0 0.0 0.0 0.0 0.0 0.0
0.0 0.0 0.0 0.0 0.0 0.0 0.0 0.0
0.0 0.0 0.0 0.0 0.0 0.0 0.0 0.0
