robot_pepper/primitive_saved/offer_item_weights.npy (npy, 38528 bytes, 1 tensors)

array f8 [48, 100]
-20.264204351009532 -20.374021780636557 -20.552009012121232 -20.758014916355936 -20.934108070961518 -20.798301559214963 -19.42912124381604 -16.04425730665358
-12.46844096811966 -11.308569381619025 -11.712022558600045 -11.697167574515491 -11.05393332174094 -10.204412434352601 -9.310758730315259 -8.395563127597997
-7.459262971402127 -6.500799199845743 -5.519114684680845 -4.513177018189854 -3.4819560072345985 -2.4244062589784092 -1.3394539403370136 -0.22598638786056222
0.9171554042242549 2.0911244081100433 3.295217286978438 4.49775294276413 5.424754204509936 5.015405115712353 1.9802525245700844 -2.005542206550671
-3.180105962794963 -1.7167841725056263 -0.43494691574250355 -0.04377514411259171 0.00780683819696249 0.006621021974201613 0.003058197007312361 0.0006952216095746543
-0.0007424283313213161 -0.0015613063796469729 -0.0019745586785062537 -0.0021277235040487786 -0.002119365217931909 -0.002015547623320312 -0.0018599480431946466 -0.0016809098866522013
-0.001496347522995642 -0.0013171464680992392 -0.001149511056437967 -0.0009965772994753924 -0.0008595139658590031 -0.0007382682560041034 -0.0006320655604363066 -0.0005397398217455949
-0.0004599478644801273 -0.000391304806589844 -0.0003324662989572738 -0.0002821753501300651 -0.0002392859514933142 -0.00020277183130435765 -0.00017172597816156974 -0.00014535472736193158
-0.00012296889564597494 -0.00010397358752550915 -8.785769918336411e-05 -7.41837398401294e-05 -6.257831853641817e-05 -5.272348035692702e-05 -4.434894391441731e-05 -3.722525468172973e-05
-3.115778570014149e-05 -2.598152937059074e-05 -2.1556602726893682e-05 -1.7764373944585042e-05 -1.4504146735483746e-05 -1.1690309223433924e-05 -9.249891598431628e-06 -7.120464430678777e-06
-5.248314725641907e-06 -3.5868502076806437e-06 -2.0951734760613453e-06 -7.367706359958345e-07 5.217563053771399e-07 1.7119766471263358e-06 2.865069190169027e-06 4.01354198814513e-06
5.193537176810784e-06 6.4481384758388956e-06 7.83250279814648e-06 9.42241207861346e-06 1.1329525239349426e-05 1.373049609706358e-05 1.692741035948654e-05 2.1485282071821628e-05
2.854799892785743e-05 3.844062174670654e-05 2.5139680297891328e-05 2.5139680297891328e-05 -8.68465900757534 -8.73172362027276 -8.808003862337593 -8.896292107009804
-8.971760601840671 -8.913557811092158 -8.326766247349825 -6.87611027428015 -5.3436175577654925 -4.846529734979593 -5.019438239400272 -5.013071817649514
-4.73739999503171 -4.373319614722628 -3.990325170135089 -3.5980984832563 -3.196826987743941 -2.786056799933973 -2.3653348648631747 -1.9342187220813205
-1.4922668602435525 -1.0390312538477882 -0.5740516887157447 -0.09685130908304956 0.39306660181041625 0.896196174904261 1.4122359801337818 1.927608404041689
2.324894659075524 2.149459335305505 0.8486796533873361 -0.8595180885217142 -1.3629025554836238 -0.7357646453597121 -0.18640582103246595 -0.018760776048265752
0.0033457877988098644 0.0028375808460913564 0.0013106558601422209 0.0002979521183532558 -0.00031818357084325785 -0.000669131305447503 -0.0008462394336340919 -0.0009118815018295517
-0.0009082993789159319 -0.0008638061239986533 -0.0007971205901967064 -0.0007203899516383702 -0.0006412917955983214 -0.0005644913432853742 -0.0004926475954638405 -0.00042710455713053076
-0.0003683631283713413 -0.00031640068097882736 -0.00027088523983316175 -0.00023131706649374127 -0.00019712051347334195 -0.00016770206013860703 -0.00014248555650831946 -0.00012093229298706538
-0.00010255112249375494 -8.69022134045078e-05 -7.359684754024033e-05 -6.229488334272503e-05 -5.2700955225843086e-05 -4.456010919467274e-05 -3.765329986794817e-05 -3.179303123720812e-05
-2.681927935721125e-05 -2.2595777195235435e-05 -1.9006689881228476e-05 -1.59536805731788e-05 -1.3353336970020972e-05 -1.1134941259535563e-05 -9.238544495019541e-06 -7.613303372935534e-06
-6.216062974598546e-06 -5.010132626956004e-06 -3.9642392141002364e-06 -3.0516273246164457e-06 -2.2492775988920346e-06 -1.5372213001942635e-06 -8.979322983032222e-07 -3.157585407845297e-07
2.236104624239232e-07 7.33704689111493e-07 1.2278864230603203e-06 1.7200893017493685e-06 2.225802111985018e-06 2.7634888177295925e-06 3.3567867765653438e-06 4.038177089167567e-06
4.8555107971750415e-06 5.884496597582854e-06 7.2546039418281e-06 9.207976713038691e-06 1.2234858741810282e-05 1.6474554971056833e-05 1.077414082679368e-05 1.077414082679368e-05
0.0 0.0 0.0 0.0 0.0 0.0 0.0 0.0
0.0 0.0 0.0 0.0 0.0 0.0 0.0 0.0
0.0 0.0 0.0 0.0 0.0 0.0 0.0 0.0
0.0 0.0 0.0 0.0 0.0 0.0 0.0 0.0
0.0 0.0 0.0 0.0 0.0 0.0 0.0 0.0
0.0 0.0 0.0 0.0 0.0 0.0 0.0 0.0
0.0 0.0 0.0 0.0 0.0 0.0 0.0 0.0
00000000: fe0b 77e5 a243 34c0 61d3 33e4 bf5f 34c0
00000010: 7028 6e76 508d 34c0 01a1 fb43 0dc2 34c0
00000020: 99b5 dfb4 21ef 34c0 902c b17d 5dcc 34c0
00000030: 7035 cce3 da6d 33c0 a9af 6472 540b 30c0
00000040: 6d5c 9c7e d7ef 28c0 8933 55ce fc9d 26c0
00000050: 2367 8638 8e6c 27c0 59c0 f825 f364 27c0
00000060: 7f15 fa25 9d1b 26c0 5ee1 20bf a868 24c0
00000070: 114d afc4 1b9f 22c0 e112 1140 87ca 20c0
00000080: 61be 4908 49d6 1dc0 3fcd 6481 d100 1ac0
00000090: 724f c6cc 9213 16c0 a4bc b846 7e0d 12c0
000000a0: 7b77 49c0 0bdb 0bc0 633d d41b 2f65 03c0
000000b0: d5ee 4341 676e f5bf 83e4 9938 1fed ccbf
000000c0: 4ec5 4f4a 5659 ed3f 9699 056f 9fba 0040
000000d0: 374a 86e1 9a5c 0a40 88a3 8af2 b2fd 1140
000000e0: aed5 24c4 f2b2 1540 deb3 d05b c60f 1440
000000f0: 6499 6d45 1daf ff3f fe0f 5fb6 590b 00c0
00000100: d426 2065 db70 09c0 c03b 33ae f277 fbbf
00000110: 360c a796 2bd6 dbbf b9ba ae18 b269 a6bf
00000120: 069e db2b 10fa 7f3f 4052 860d a51e 7b3f
00000130: 083b 3204 810d 693f a3e2 cd09 f1c7 463f
00000140: d4ff 89b3 f053 48bf 2455 bcf5 9794 59bf
00000150: e3cb 571e f32c 60bf 0d9b acdb 286e 61bf
00000160: 45d8 9389 a15c 61bf b1a9 05e4 e882 60bf
00000170: 934f 2301 3079 5ebf f288 673f 3f8a 5bbf
00000180: c18f 2eeb 2284 58bf 6530 4a40 8394 55bf
00000190: 2ce1 3319 66d5 52bf 170d 30ba f253 50bf
000001a0: c052 d92f 202a 4cbf 5e7c f201 0b31 48bf
000001b0: 65b5 9b74 26b6 44bf d5d3 fd70 aaaf 41bf
000001c0: e8a8 2a09 a524 3ebf e3a4 d958 01a5 39bf
000001d0: 9f13 8ce1 dbc9 35bf 682e 8ae6 1d7e 32bf
000001e0: 1a89 0fac 1a5d 2fbf 39f1 9bc4 e493 2abf
000001f0: f148 8feb 2a82 26bf 86f7 c599 4b0d 23bf
00000200: f92b 3cc5 261e 20bf 6d10 dda1 8c41 1bbf
00000210: faf4 5dc7 0708 17bf 393d 2ff2 6272 13bf
00000220: 7285 8253 8f67 10bf ec90 acfd 6ca4 0bbf
00000230: 569f 1b1c 6a40 07bf 75b4 f402 4a84 03bf
00000240: 6a6c 625d ed55 00bf 76e8 671a 5d3e fbbe
00000250: 5336 a875 8e9a f6be a84d 657b 96a0 f2be
00000260: d180 92bf da6a eebe 7b01 8ddd 2f84 e8be
00000270: 0dd4 c76b ff65 e3be d9d6 f25b 8add ddbe
00000280: 5be5 4ac4 5503 d6be 65f4 55c1 b316 cebe
00000290: 0888 b0cc 5993 c1be c14e 37c3 cfb8 a8be
000002a0: b130 cf3f da81 a13e e20a e13a e2b8 bc3e
000002b0: 29e3 c971 b008 c83e 28fc 6805 82d5 d03e
000002c0: 24e1 f8a0 84c8 d53e ec15 d4ce a20b db3e
000002d0: c238 d6fc 0a6d e03e 8559 8c74 9ec2 e33e
000002e0: fa6f 9c17 7ec2 e73e f7b1 a403 81cb ec3e
000002f0: c054 4bc8 eabf f13e 1b9b 6c57 6987 f63e
00000300: 0bac 558c 4bef fd3e cb2d b7b4 6927 043f
00000310: facb e5ac 615c fa3e facb e5ac 615c fa3e
00000320: 53e5 1ca0 8b5e 21c0 8090 757a a476 21c0
00000330: 3490 a7ae b29d 21c0 438a 8ecc e6ca 21c0
00000340: d8e4 089b 8af1 21c0 d64a 73d9 bdd3 21c0
00000350: b99b d3e7 4da7 20c0 2fe4 3e0d 2381 1bc0
00000360: 9abc f347 dd5f 15c0 cb50 dbb0 d862 13c0
00000370: 5f10 2a9e e713 14c0 3c37 d5b2 620d 14c0
00000380: 52ed fafb 18f3 12c0 8bc1 407f 477e 11c0
00000390: 3516 519a 2fec 0fc0 eefb 8adb e7c8 0cc0
000003a0: b3a4 1a07 1a93 09c0 5f1e c425 d849 06c0
000003b0: 4668 85af 34ec 02c0 2867 aa54 8ff2 febf
000003c0: 1b69 1a37 53e0 f7bf 1ec5 6c3c df9f f0bf
000003d0: 20ed a7a5 a15e e2bf ec23 1655 3fcb b8bf
000003e0: e73c fbd1 0028 d93f 7b73 c099 a3ad ec3f
000003f0: ab8b 4ec1 8498 f63f 33a9 ede8 7bd7 fe3f
00000400: ddfe fa5e 6299 0240 99c0 69bc 1732 0140
00000410: 0189 823b 6228 eb3f a2ad 1014 2c81 ebbf
00000420: e9fd f6e8 72ce f5bf a1ef 2b4c 628b e7bf
00000430: 082a 8f5c 25dc c7bf bead 4c5e 0636 93bf
00000440: b799 9b25 a068 6b3f 6105 e19d d63e 673f
00000450: da4d 8f03 4a79 553f 905f a69a ce86 333f
00000460: c2d1 e807 3cda 34bf 779a 6c89 14ed 45bf
00000470: bae5 9458 c5ba 4bbf f02c 359d 6ae1 4dbf
00000480: 2755 4f10 5ec3 4dbf 8085 bd86 214e 4cbf
00000490: e599 d46e bb1e 4abf 1c00 2ea4 119b 47bf
000004a0: da62 07a5 8b03 45bf 0e4f dced 4b7f 42bf
000004b0: 62df cda7 a024 40bf c954 d71a a0fd 3bbf
000004c0: 3f63 e396 1b24 38bf 4ac0 c593 52bc 34bf
000004d0: b74c fd3e b3c0 31bf c834 a078 b651 2ebf
000004e0: f533 4651 44d6 29bf d8af 3fba 25fb 25bf
000004f0: 7391 579c 05ad 22bf de66 40f9 a0b3 1fbf
00000500: 4153 7ede 16e2 1abf 9c8d 78a8 e8c7 16bf
00000510: a777 8d36 004b 13bf a358 58f2 8954 10bf
00000520: 8b96 8608 67a1 0bbf bf5b 8eb1 c15c 07bf
00000530: cc47 3b88 bdbd 03bf 3c6f 383c 30ab 00bf
00000540: 597b 07d8 3e1f fcbe eb9b 3cfc 81b1 f7be
00000550: aba5 7ac8 11ee f3be 548e bc94 88ba f0be
00000560: a1ad 94a8 0401 ecbe 3479 76ac 065a e7be
00000570: 776e 12e3 e75f e3be e0a4 65e5 b8ee dfbe
00000580: 4674 4061 7212 dabe e257 1fc5 9603 d5be
00000590: a3b7 1dc7 91a0 d0be 4721 10dd 5199 c9be
000005a0: a5c8 e16f 49de c2be 9fda abb1 50ca b9be
000005b0: b95a 8101 2e21 aebe cc70 a7bf b030 95be
000005c0: a9cf 9f6d 3203 8e3e af70 8fac 799e a83e
000005d0: 6290 5566 bb99 b43e 5d70 2630 badb bc3e
000005e0: eb16 d1a6 dfab c23e fd27 4e0b 8c2e c73e
000005f0: acd0 e00b a528 cc3e e01f 88aa f5ef d03e
00000600: 5c67 23a5 905d d43e 628c b01b 6eae d83e
00000610: dd8c e458 926d de3e c15a dbae 7e4f e33e
00000620: 4a18 6d2e 8aa8 e93e 0ebf 0ccc 5a46 f13e
00000630: 0e92 c9a3 5298 e63e 0e92 c9a3 5298 e63e
00000640: 0000 0000 0000 0000 0000 0000 0000 0000
00000650: 0000 0000 0000 0000 0000 0000 0000 0000
00000660: 0000 0000 0000 0000 0000 0000 0000 0000
00000670: 0000 0000 0000 0000 0000 0000 0000 0000
00000680: 0000 0000 0000 0000 0000 0000 0000 0000
00000690: 0000 0000 0000 0000 0000 0000 0000 0000
000006a0: 0000 0000 0000 0000 0000 0000 0000 0000
000006b0: 0000 0000 0000 0000 0000 0000 0000 0000
000006c0: 0000 0000 0000 0000 0000 0000 0000 0000
000006d0: 0000 0000 0000 0000 0000 0000 0000 0000
000006e0: 0000 0000 0000 0000 0000 0000 0000 0000
000006f0: 0000 0000 0000 0000 0000 0000 0000 0000
00000700: 0000 0000 0000 0000 0000 0000 0000 0000
00000710: 0000 0000 0000 0000 0000 0000 0000 0000
00000720: 0000 0000 0000 0000 0000 0000 0000 0000
00000730: 0000 0000 0000 0000 0000 0000 0000 0000
00000740: 0000 0000 0000 0000 0000 0000 0000 0000
00000750: 0000 0000 0000 0000 0000 0000 0000 0000
00000760: 0000 0000 0000 0000 0000 0000 0000 0000
00000770: 0000 0000 0000 0000 0000 0000 0000 0000
00000780: 0000 0000 0000 0000 0000 0000 0000 0000
00000790: 0000 0000 0000 0000 0000 0000 0000 0000
000007a0: 0000 0000 0000 0000 0000 0000 0000 0000
000007b0: 0000 0000 0000 0000 0000 0000 0000 0000
000007c0: 0000 0000 0000 0000 0000 0000 0000 0000
000007d0: 0000 0000 0000 0000 0000 0000 0000 0000
000007e0: 0000 0000 0000 0000 0000 0000 0000 0000
000007f0: 0000 0000 0000 0000 0000 0000 0000 0000
