robot_pepper/primitive_saved/scratch_head_weights.npy (npy, 38528 bytes, 1 tensors)

array f8 [48, 100]
00000000: 1121 4706 781f 2dc0 2aa0 1dc6 21e2 2ac0
00000010: 5ad1 2d50 7e44 29c0 ecac 65d1 05f6 27c0
00000020: 1bbf b383 4ab1 26c0 1766 4d70 1730 26c0
00000030: 9835 01f1 6676 28c0 c39e 6ca7 dd6b 2ec0
00000040: e67f 1294 14c0 31c0 88ad 72c4 4dc5 31c0
00000050: b555 0c92 e6c4 30c0 3e95 df27 a953 30c0
00000060: f460 351c 312e 30c0 35ec 874c ed93 2dc0
00000070: fcf6 765f c07d 21c0 51d7 4fa3 02f8 0b40
00000080: 7376 d731 70ef 2c40 cdf9 8e68 be33 3140
00000090: 03fe 9eb2 2b87 3040 1284 bc20 e4c8 3140
000000a0: 9f61 cb80 83b5 3440 f161 9169 d8b2 3740
000000b0: 4265 9670 595c 3840 365f 0787 21a2 3240
000000c0: c439 be98 c594 1e40 10b2 02d1 0406 fb3f
000000d0: 58d8 b3c3 2c51 1240 31c0 6386 de81 2140
000000e0: 382b 49b5 7ad8 2440 5770 0602 799a 2540
000000f0: 637c 5f80 2aa5 2540 651a 46fc 8900 2540
00000100: b3a3 f843 62d1 2340 8b76 d88f 9622 2340
00000110: 4829 27f1 845b 2340 7ca7 2f56 c9b8 2340
00000120: 647f edcc cdd4 2340 a838 b681 a4ce 2340
00000130: bc3e 6fae afc1 2340 5093 078a d9b3 2340
00000140: f1e7 0c20 9fa5 2340 e093 6bcf f696 2340
00000150: c712 274c d387 2340 a8f6 b900 2978 2340
00000160: 468e 7e70 ed67 2340 8fd2 f5a8 1657 2340
00000170: 2198 a5d8 9a45 2340 223c 4b00 7033 2340
00000180: 239b f3b5 8b20 2340 39a1 e1f3 e20c 2340
00000190: b366 d5ee 69f8 2240 6852 6ff0 13e3 2240
000001a0: e791 3833 d3cc 2240 c36e 65be 98b5 2240
000001b0: ea64 c03f 549d 2240 a73c 62e2 f383 2240
000001c0: 2bc8 f420 6469 2240 bf11 4092 8f4d 2240
000001d0: c349 b0ae 5e30 2240 83d8 5e8d b711 2240
000001e0: a668 f296 7df1 2140 4d1a 5f2c 91cf 2140
000001f0: 6f03 2e3f cfab 2140 852e 75d8 1086 2140
00000200: 341e 088b 2a5e 2140 b2ea 9bcc eb33 2140
00000210: 33f8 9330 1e07 2140 85ba db7d 84d7 2040
00000220: 4d34 8097 d9a4 2040 18ba 872d cf6e 2040
00000230: 082c a428 0c35 2040 9f19 1b7f 55ee 1f40
00000240: e7fe 823f 6c69 1f40 379e 2919 4fda 1e40
00000250: 1a4b 8b9c c53f 1e40 c7e6 1b7c 6398 1d40
00000260: 2803 3555 7de2 1c40 bed7 1a6f 1a1c 1c40
00000270: 8590 eb6e e242 1b40 0a5b 7599 0554 1a40
00000280: e04a 73a6 1d4c 1940 6065 7a49 0427 1840
00000290: b60f 4d41 9bdf 1640 3746 00af 7f6f 1540
000002a0: 76b4 ee30 9fce 1340 a26b dfe9 9ff2 1140
000002b0: 8221 5064 079c 0f40 3a5d 7797 be9d 0a40
000002c0: e8bf d5de c5b9 0440 e21d d7bf f958 fb3f
000002d0: 1b39 4dce 4054 e43f 6d2c 9573 de6f e6bf
000002e0: 65ad 7e68 ff43 03c0 120e e6e4 77a4 12c0
000002f0: 112b 1fa1 4901 1fc0 8151 a85d c943 28c0
00000300: 2c70 10c5 5304 32c0 5a0f 0a8e 9839 37c0
00000310: d7ce 13f3 4f36 30c0 d7ce 13f3 4f36 30c0
00000320: 816c c6f3 e200 2bc0 34f7 50c2 cd24 2bc0
00000330: 230e 1366 2e60 2bc0 de28 4add eca6 2bc0
00000340: b1cf 2cde 50f1 2bc0 533e eaa3 863d 2cc0
00000350: 6303 6ff5 588b 2cc0 db03 66a1 d3da 2cc0
00000360: 6938 6e58 072c 2dc0 e3ef fc78 047f 2dc0
00000370: 6c75 cb78 c8d3 2dc0 d952 3cc7 6028 2ec0
00000380: aeed 0675 5b61 2ec0 130f 9c43 66c7 2dc0
00000390: 325d bf3c 2658 2ac0 7f23 75fd 8324 23c0
000003a0: f811 1184 df70 19c0 8cab 0266 31a3 16c0
000003b0: ec10 3930 35ff 17c0 d6e9 d736 ec04 17c0
000003c0: 92ab b547 7e06 14c0 f584 a6c1 6cf7 10c0
000003d0: a9be 29ce 92c1 10c0 3bae da34 1557 18c0
000003e0: 6aeb 9fe6 222c 23c0 a49d 3860 cb1e 27c0
000003f0: 4d41 6d8c 20b1 25c0 af27 db8e a77d 23c0
00000400: c0f1 162f e3d1 22c0 66c6 81cf c8e4 22c0
00000410: 4415 85e1 1be7 22c0 1354 596d d75a 22c0
00000420: 9b2a 1407 7154 21c0 21c8 e6f4 52bd 20c0
00000430: a10c fbc1 3ef0 20c0 0ca4 bf01 7c42 21c0
00000440: 4921 11a2 525b 21c0 b01b 282a 0e56 21c0
00000450: 4fc8 b24f b74a 21c0 e256 acf7 873e 21c0
00000460: fb25 f543 f631 21c0 010e 457f ff24 21c0
00000470: e76f 4ead 9b17 21c0 38d6 fbe8 c209 21c0
00000480: b4d7 9850 6dfb 20c0 2279 e4da 92ec 20c0
00000490: 51fd 9933 2bdd 20c0 d484 289d 2dcd 20c0
000004a0: 1bd5 95d5 90bc 20c0 4bd2 03fd 4aab 20c0
000004b0: 398b a57c 5199 20c0 ecea 29ed 9886 20c0
000004c0: 4d1f c6fb 1473 20c0 908a 1d4d b85e 20c0
000004d0: 08ee 4b5d 7449 20c0 77c4 525c 3933 20c0
000004e0: acdd 1c06 f61b 20c0 f09f 3475 9703 20c0
000004f0: 75ac 50de 11d4 1fc0 9167 d952 679e 1fc0
00000500: 2352 ab0a fd65 1fc0 3646 ed82 9b2a 1fc0
00000510: 059d c33c 05ec 1ec0 1d4b 9ae8 f5a9 1ec0
00000520: 7836 2b6d 2164 1ec0 3592 c8c2 321a 1ec0
00000530: 2dc7 a699 cacb 1dc0 f1ba 94bf 7d78 1dc0
00000540: 7437 9936 d31f 1dc0 2e02 11ea 41c1 1cc0
00000550: 8baf ddea 2d5c 1cc0 6a1e 8c14 e5ef 1bc0
00000560: ac97 7bf4 9a7b 1bc0 f73d 24c0 63fe 1ac0
00000570: ba83 6e17 2e77 1ac0 1a9a db39 bbe4 19c0
00000580: 2688 7036 9545 19c0 1383 0a73 0298 18c0
00000590: a443 1aaa f5d9 17c0 d3d9 a924 f908 17c0
000005a0: 3909 c773 1322 16c0 5b2d 2129 a321 15c0
000005b0: 8b91 8fe5 2d03 14c0 7468 df46 1dc1 12c0
000005c0: 63a4 9761 6154 11c0 eba2 b594 d767 0fc0
000005d0: 7c61 e7ca dca7 0bc0 7065 5c76 7749 07c0
000005e0: ec02 b9fb 1c22 02c0 bc4e 0ee4 44ed f7bf
000005f0: 331e 7081 43c9 e1bf dbbf 8920 75a1 e33f
00000600: 2f7d ddac 1bdb 0040 b9c2 e234 874f 1040
00000610: 51af cf20 7d20 1b40 98f4 2f0e d03a 2540
00000620: b315 da13 d486 2f40 3589 d2c6 ea51 3440
00000630: 65a9 f423 615e 2c40 65a9 f423 615e 2c40
00000640: fb15 9537 b5a9 1a40 3adf 7f2d 5195 1f40
00000650: 0718 dd49 a6c5 2140 33eb 0c67 5783 2340
00000660: 153e d0d0 063d 2540 e167 d786 0a36 2640
00000670: 16dc 8346 156a 2440 7003 d5a6 2ae3 1d40
00000680: 2070 f352 ebb9 1440 5c10 0e48 f8a9 1540
00000690: 9745 135b ffb5 1a40 ce4d f8a8 da81 1d40
000006a0: d989 8131 8d9d 1e40 c001 3096 8c76 2040
000006b0: 3d5b 6898 c470 2440 9909 802f c332 2c40
000006c0: ce34 29ac 7498 3140 93c9 bbad c796 3240
000006d0: b61d c3d0 928c 3240 98cb 700e e019 3340
000006e0: d6a9 0f12 342a 3440 0b06 f5f1 bf40 3540
000006f0: b1e0 e28d 20a3 3540 8731 8376 e214 3440
00000700: a92d 5e9c 07ee 3040 e4bc d352 13a1 2e40
00000710: a8c5 13e9 b265 3040 cb73 cf2c 4fe0 3140
00000720: b2de 289b 8798 3240 6239 97a9 d7e5 3240
00000730: 206d 75df e7ea 3240 c176 ff78 2e5d 3240
00000740: 3055 b93d ac55 3140 78c8 648c d9bd 3040
00000750: a307 2e7d 5af0 3040 b0a7 0717 5c42 3140
00000760: a694 6782 145b 3140 733b 11f9 c455 3140
00000770: 868c 7145 6f4a 3140 96a7 e261 483e 3140
00000780: b943 ed18 c331 3140 a5d5 a484 da24 3140
00000790: 8936 0b44 8517 3140 4c2d 1498 ba09 3140
000007a0: 457a 3a22 72fb 3040 ca0a f399 a3ec 3040
000007b0: 13e6 6a93 46dd 3040 f510 5a52 52cd 3040
000007c0: b26d d4a4 bdbc 3040 ee78 18c3 7eab 3040
000007d0: c5e5 1f32 8b99 3040 76dd 3da7 d786 3040
000007e0: f767 72eb 5773 3040 fec3 55bd fe5e 3040
000007f0: c639 a1b0 bd49 3040 0eaa 6a0a 8533 3040
-14.561462589438209 -13.441663924328243 -12.63377619323062 -11.980513137494619 -11.346271625224793 -11.093928822944731 -12.23125413074267 -15.210675460824296
-17.75031400157595 -17.770717885968708 -16.76914322663443 -16.326799861989677 -16.18043686202232 -14.78891982230389 -8.74560831381995 3.496098781465584
14.467652852584456 17.202124152094076 16.52801052457472 17.78473095514716 20.709037828115125 23.698614690774722 24.360739742963467 18.633324088382516
7.6452850214104195 1.6889694370721635 4.5792723253744825 8.753650855709653 10.422811188871137 10.801704467092504 10.822589885383598 10.501052745397098
9.908952831365104 9.567554946111406 9.67874864199679 9.86091107684819 9.915632633201035 9.903598836416066 9.878293467597693 9.851269067215668
9.823479653907244 9.794851762659107 9.765283946771332 9.734687826824782 9.702983394097043 9.670094757087353 9.635947008337157 9.600463875945994
9.563565908419667 9.525169011395166 9.485183204221675 9.443511499013042 9.400048828750142 9.35468096721832 9.307283394084568 9.257720064632236
9.205842046623806 9.151485987015688 9.094472369212673 9.034603517368174 8.97166129788486 8.905404459580632 8.835565542570945 8.761847271255883
8.683918328038182 8.601408380539713 8.513902204573332 8.420932705948198 8.321972593688907 8.21642439157317 8.103608388939406 7.982748018292482
7.852951996202797 7.713192361035502 7.562277265550415 7.3988170043973644 7.221181231842628 7.027444587720252 6.815316899421423 6.582052610194987
6.324331856524367 6.038102291198214 5.718365688637212 5.358885511771908 4.951779141015427 4.486938146840574 3.951185973830605 3.327023681001859
2.5907094391804897 1.7092225545655926 0.6352848080948975 -0.7011558778261936 -2.4082019961985446 -4.660613609830323 -7.7512574363015725 -12.132395674511601
-18.01690322543452 -23.224984052139327 -16.21215743287652 -16.21215743287652 -13.501731508227978 -13.57188231695509 -13.68785399420364 -13.82602588205594
-13.971320097894791 -14.120167848915264 -14.272163076211376 -14.427395862296114 -14.585993541197427 -14.74808099830256 -14.913638853870644 -15.07886335955975
-15.19015088758064 -14.889452088165433 -13.172166727409238 -9.571319504307892 -6.360227645437128 -5.659368127739878 -5.9992263350325 -5.754807335785207
-5.006341095412511 -4.2416258104215006 -4.189036580369852 -6.085041833731846 -9.586203772565302 -11.560145384703738 -10.8459514506691 -9.7454189913295
-9.409936400938818 -9.446844563094782 -9.45138458966779 -9.177424828676555 -8.66492483254597 -8.369773533984757 -8.469228803535147 -8.629852347034124
-8.678364815321986 -8.668076817890181 -8.645929804395704 -8.622131099498294 -8.597581981349313 -8.572261788539437 -8.5461095960854 -8.519065170995518
-8.491068380982917 -8.462057915105621 -8.431970226810025 -8.400738631435537 -8.36829249814996 -8.334556490627753 -8.299449820716847 -8.262885485999014
-8.224769466338012 -8.18499985681163 -8.143465915221 -8.10004700193734 -8.054611388229056 -8.007014906572266 -7.957099412607126 -7.904691023368188
-7.849598089892001 -7.791608854038307 -7.730488728942196 -7.665977129380534 -7.59778376175165 -7.525584262363329 -7.449015045933078 -7.3676671919372305
-7.281079152204132 -7.188728005684011 -7.090018911152479 -6.98427230935304 -6.870708293956266 -6.748427393161811 -6.61638676273372 -6.473370460537376
-6.317952013605497 -6.148446843639948 -5.96285119805626 -5.758762905947566 -5.533277329467006 -5.282848971033071 -5.003104769599655 -4.688588244806045
-4.332402729874135 -3.925704156678298 -3.456964097200567 -2.9108723875948996 -2.2666568437419894 -1.495427027552906 -0.5558183219990894 0.6134591708669136
2.106986380109127 4.077664209690448 6.7817273260842095 10.614868586877762 15.763336773273158 20.319988657379515 14.184334872833185 14.184334872833185
6.665730350946883 7.895817480973898 8.886034305800434 9.756526203467365 10.619192624492863 11.105549062533045 10.207193568798214 7.471842390776928
5.181561752422596 5.415986181124108 6.6777319174301715 7.3768106843521775 7.653858922511483 8.231541341171464 10.220249903429812 14.099145397548272
17.595530281124233 18.588984354349645 18.549115226398236 19.101075079477226 20.16485703356178 21.252928850479332 21.637215488328994 20.081580550222068
16.92980363177563 15.31460055193606 16.397261206938907 17.876208115241564 18.595819184759144 18.89782199804302 18.917600599449656 18.36399036633407
17.334659440753228 16.74160077534222 16.938880752313377 17.259217681282905 17.355781698501822 17.33503681822499 17.290760364744095 17.243291967235187
17.194383199621118 17.14395932220727 17.091877224671894 17.03800344936944 16.982210292126428 16.924371358715497 16.864358152006456 16.802037379254177
16.73726873575442 16.669902986025527 16.59978020933865 16.526728108028202 16.45056029837721 16.371074517668596 16.28805068908857 16.201248789826472
