robot_pepper/primitive_saved/wave_arm_weights.npy (npy, 38528 bytes, 1 tensors)

array f8 [48, 100]
000000 5b ae 81 4a a9 2a 1e c0 61 22 78 3e 45 1c 20 c0
       -7.541661419072251 -8.055215789952117
000010 72 a7 8a a5 80 b1 1e c0 57 00 e5 90 40 7e 1c c0
       -7.673342310512327 -7.1232931747218435
000020 73 68 da 4c 25 2e 1b c0 1a 80 da 53 4e d3 1a c0
       -6.795064164000098 -6.706353483401495
000030 f1 e2 b2 64 b9 93 1b c0 f6 45 6b 9e 4a a6 1d c0
       -6.894261907022824 -7.412394023225252
000040 03 76 c5 c0 15 a4 20 c0 f2 0a 8a 2e 8b 5d 23 c0
       -8.320478462318539 -9.682702497816965
000050 2d 04 b7 7c 7d 22 27 c0 be 5b 30 7a ec 17 2c c0
       -11.567363641110285 -14.046726053622361
000060 81 21 35 2e 6d 32 31 c0 ec bb 2b 8c 20 19 35 c0
       -17.196978462191968 -21.0981528860829
000070 82 5b 99 42 fa d4 39 c0 d2 af 55 ec 8e 75 3f c0
       -25.831943666878495 -31.459212084693554
000080 e6 0f 64 49 2d f4 42 c0 58 6d ee 7f 73 5e 46 c0
       -37.90763203988881 -44.73789977209043
000090 18 0f fd be 03 91 49 c0 a2 d6 a5 b7 fc 36 4c c0
       -51.13292682033915 -56.429587322212015
0000a0 f8 17 93 cb d1 3d 4e c0 bc 0e a9 50 82 ab 4f c0
       -60.48296494180971 -63.33991440062297
0000b0 38 2a 9c fc 0d 3b 50 c0 97 7b 55 2b a1 42 50 c0
       -64.9227286839531 -65.04108699176719
0000c0 5a 85 be 59 8d bb 4f c0 cb c6 86 55 89 f9 4d c0
       -63.465251176860605 -59.94950360375295
0000d0 f4 1c 93 f0 06 1e 4b c0 12 b6 50 98 02 06 47 c0
       -54.23458678420312 -46.04695419255235
0000e0 b1 db da a2 82 8c 41 c0 b7 a5 16 62 f1 14 35 c0
       -35.097736698974934 -21.08180821469224
0000f0 65 73 10 d1 79 74 0d c0 e8 93 8d e2 4a 5a 31 40
       -3.681872971834695 17.352705154003985
000100 b6 81 e3 fc f3 c9 44 40 48 4a 56 1e df 5e 50 40
       41.5777584181664 65.4823680727651
000110 8e 2b 10 05 1b d8 53 40 16 8e 93 88 47 b5 51 40
       79.37664915637126 70.83249105844183
000120 ab a5 6e cb e7 26 42 40 26 70 36 67 ce 75 29 c0
       36.303948811556744 -12.73009035625007
000130 2d b2 5f 79 da 40 4d c0 de a3 98 bb b2 de 56 c0
       -58.50666730091721 -91.47965898424397
000140 be c5 49 dd cb 34 5c c0 be e3 d5 6b 6f 64 5f c0
       -112.82494289593066 -125.56930061233194
000150 cf 12 14 6a 3a 4d 60 c0 fa 91 28 d5 66 03 60 c0
       -130.41338066025352 -128.10630281375762
000160 e8 1b 99 ec 50 83 5e c0 04 6d 7f e7 2f 31 5d c0
       -122.05181422187854 -116.76854884571009
000170 30 b5 a1 6b 53 77 5c c0 37 a9 84 af 02 00 5c c0
       -113.8644665793588 -112.00016391711402
000180 d2 75 2c 27 ac 73 5b c0 87 bb 31 7e 79 b6 5a c0
       -109.8073823866064 -106.85116534096424
000190 65 68 e4 0b 7f c7 59 c0 1c 86 fa 19 18 ab 58 c0
       -103.11712930016945 -98.67334603753301
0001a0 b0 b6 79 91 6b 66 57 c0 4e a9 b7 4a 0a ff 55 c0
       -93.60031544576736 -87.98500316558531
0001b0 6a ea 78 46 f9 7a 54 c0 dd c5 65 1d c2 e0 52 c0
       -81.92146455581829 -75.5118478292347
0001c0 e3 26 b4 d2 84 37 51 c0 5e eb 99 da 16 0e 4f c0
       -68.86748187630614 -62.11007244601818
0001d0 c7 7b 93 c1 bf af 4b c0 07 d6 a0 b2 c9 66 48 c0
       -55.37303943349212 -48.803030327351784
0001e0 55 65 02 1b e4 47 45 c0 d7 23 c4 65 e9 69 42 c0
       -42.56164872757896 -36.827435227176174
0001f0 54 d0 5b 65 45 cc 3f c0 69 96 97 a9 49 b0 3b c0
       -31.797933897891497 -27.688624000080754
000200 96 96 52 f0 76 b4 38 c0 20 bd e1 93 7b eb 36 c0
       -24.70493986145319 -22.919854395496372
000210 ba 03 f2 65 4a 15 36 c0 e0 a2 f9 a1 d5 b8 35 c0
       -22.083166476808152 -21.722009776541086
000220 59 af 83 18 fd 9c 35 c0 88 40 55 9f fb ed 35 c0
       -21.61323693480458 -21.929620703042502
000230 c2 fd 02 1e 1b ec 36 c0 9c e2 99 af 5d bf 38 c0
       -22.922288776140483 -24.747523284024837
000240 99 18 c3 72 0d 83 3b c0 5c 79 a9 ec 9a 52 3f c0
       -27.511923954611664 -31.322676459670546
000250 d5 c4 08 a1 b9 26 42 c0 d2 81 1a 53 1f 4c 45 c0
       -36.30253994873207 -42.59470595163624
000260 78 98 72 d1 00 2f 49 c0 ac 46 b7 e7 98 e8 4d c0
       -50.36721246810424 -59.81716629456545
000270 3c 16 f9 c4 21 ca 51 c0 9b 66 1e 84 f4 1e 55 c0
       -71.15831112217796 -84.4836740776904
000280 0c 67 40 6e ed cf 58 c0 81 02 93 64 24 66 5c c0
       -99.24886661805448 -113.59597124439644
000290 d7 51 07 59 1c 37 5f c0 13 e0 80 e9 6c 64 60 c0
       -124.86110521044553 -131.1382949368568
0002a0 34 bb 56 32 57 6d 60 c0 bc 38 ab 7f 5d 17 5f c0
       -131.41689412059497 -124.36508170815335
0002b0 88 c4 88 92 2b ee 5a c0 70 a5 02 6c 45 8f 53 c0
       -107.72140944820615 -78.2386121774523
0002c0 4c 8e 6a 25 13 77 3f c0 a1 91 05 17 d3 5b 43 40
       -31.46513589717351 38.71737945339124
0002d0 23 89 c4 bb 4b 71 61 40 17 7f 6b 42 b7 af 70 40
       139.54049480806233 266.98224107733535
0002e0 b5 74 f3 90 13 18 76 40 3c e7 98 8f a5 52 6e 40
       353.5047769079204 242.58271007408064
0002f0 ba 6f 0f 80 92 20 51 c0 0a 76 45 d8 d3 e1 70 c0
       -68.50894166476692 -270.11421992429007
000300 81 53 7e 16 1e d4 69 c0 14 72 fb be b5 b0 52 c0
       -206.62867283509334 -74.76109289698826
000310 67 c1 61 a7 d4 22 21 c0 67 c1 61 a7 d4 22 21 c0
       -8.5680286700087 -8.5680286700087
000320 c0 bc 73 8d ce db 0c c0 6d d3 b0 28 6e 77 12 c0
       -3.6073275614686224 -4.6166311605382875
000330 ba 4e 4f 51 75 b0 16 c0 7d 9b 34 7b cf ef 19 c0
       -5.67232253119044 -6.4841899157389635
000340 e5 fe a6 11 ea 04 1c c0 d6 18 6b 75 57 c3 1c c0
       -7.004799152200325 -7.190763315831836
000350 a1 cb b6 a9 01 f0 1b c0 6d fb c1 e1 bb 48 19 c0
       -6.9843813436336015 -6.321029212441187
000360 64 be 05 c9 af 87 14 c0 cd 6f 1d 5b 8d c7 0a c0
       -5.1325065049892125 -3.3474375837667822
000370 9b 3d 5c f1 62 84 ec bf 69 78 d6 11 f7 83 02 40
       -0.8911604608601239 2.3144360917640836
000380 36 97 63 5f 84 67 19 40 02 c2 04 5a c6 9b 26 40
       6.351090898946316 11.304247677880088
000390 7e 24 a5 7b ce 42 31 40 66 e2 de 2e 87 49 38 40
       17.260963180368428 24.28721898023141
0003a0 4d c2 07 10 39 28 40 40 de 63 85 6e 70 73 44 40
       32.31424141291482 40.90186864388646
0003b0 1d bd 2a 96 23 9d 48 40 fa 43 0e 5c 06 50 4c 40
       49.22764851652958 56.625194079366295
0003c0 9c 62 95 ad fa 79 4f 40 9d 62 16 2a e2 10 51 40
       62.95296258730124 68.26380397974067
0003d0 49 37 c2 f4 05 1f 52 40 2a c7 62 f6 75 db 52 40
       72.48473853079226 75.42907485624588
0003e0 14 c4 9f d4 b6 37 53 40 42 85 b8 bd 49 24 53 40
       76.87053409196989 76.56700079936584
0003f0 e0 7b b0 45 d5 90 52 40 4f 20 97 65 19 6c 51 40
       74.26301710352664 69.68905009992999
000400 77 bd 06 91 bd 47 4f 40 07 a9 69 80 ce 49 4a 40
       62.56047261075121 52.57661442908471
000410 ae ca d9 dd 45 b6 43 40 ae 28 5f 11 9c d7 36 40
       39.42400715956079 22.84222515652862
000420 5e 2c 0c d1 ef 32 09 40 87 56 ee 16 be c4 30 c0
       3.149871476348877 -16.76852553671645
000430 65 09 5f b1 5f da 3c c0 ab 88 02 e9 89 ba 36 c0
       -28.853022657110518 -22.728666842573755
000440 93 ec f7 d6 fd 98 12 40 54 59 e5 ae 2b fe 45 40
       4.649405821687782 43.98570810507468
000450 da c8 98 0d c5 38 54 40 3a 63 b2 fe 71 ea 5a 40
       80.8870271675145 107.66320769711174
000460 83 a6 fb 59 c8 54 5f 40 10 a8 3b 51 5a 0c 61 40
       125.32472848487127 136.3860250630537
000470 99 a5 1e 28 e0 ae 61 40 0f 62 4a 2c 60 a4 61 40
       141.46486288057056 141.13673986938417
000480 6d 95 70 e1 12 3f 61 40 ff 83 63 31 25 ec 60 40
       137.97105476368907 135.37954015194552
000490 1d 7e 17 fe 24 d2 60 40 9a 21 4f 36 1d d0 60 40
       134.56701569164662 134.5035659356625
0004a0 e3 6e be 90 5c c4 60 40 ba dd 61 18 ca a3 60 40
       134.13629948801017 133.11841982950665
0004b0 d7 0a fb bd 74 6d 60 40 1f 83 bc e1 5e 22 60 40
       131.4205007460757 129.07408224886692
0004c0 40 78 0e 5d 94 87 5f 40 bc a1 4b 16 22 a6 5e 40
       126.11843038952884 122.59583051095882
0004d0 7e ab 76 7c 51 a3 5d 40 f9 4b fd 64 4b 82 5c 40
       118.55184852208001 114.03585171447766
0004e0 94 95 28 fa 7f 46 5b 40 9c cc 91 7f b0 f3 59 40
       109.10156110728559 103.80764760244568
0004f0 b3 09 67 1a fa 8d 58 40 26 f2 7e eb e1 19 57 40
       98.21839008390707 92.40441405674991
000500 ac a3 e7 ce 62 9c 55 40 f9 53 6f 0c fd 1a 54 40
       86.44353077527074 80.4216948592365
000510 6f ff 83 46 c6 9b 52 40 fd 3b f7 63 5a 25 51 40
       74.43397677317056 68.58364199775674
000520 34 03 e9 8e 8e 7b 4f 40 3c e1 d2 b9 cb cb 4c 40
       62.96528803231777 57.59215472027651
000530 7c 8e c9 60 3a 24 4a 40 95 f5 15 4a 4b 5c 47 40
       52.28303155748014 46.7210476500724
000540 bb 5f 2c 9a b0 5d 44 40 b9 4a 80 76 50 2f 41 40
       40.73195197264382 34.36964303268673
000550 9c 17 ee 9c 48 ba 3b 40 da f8 7d a4 f5 d5 34 40
       27.72767048657225 20.835779457812215
000560 54 af aa e9 ca 5e 2b 40 b1 a5 29 2c 6c 06 19 40
       13.685141851506764 6.256272020379968
000570 16 94 18 10 ca 96 f7 bf df 02 b2 93 63 11 23 c0
       -1.4743137959242225 -9.533962836723218
000580 e9 77 9e 75 65 f4 31 c0 6a 45 4c 8c 0b c6 3a c0
       -17.95467314833505 -26.773613709088217
000590 45 0e d1 5c 65 03 42 c0 a0 cc d3 ed 4f d8 46 c0
       -36.02653083999443 -45.68993923990024
0005a0 94 4a d2 40 fa bb 4b c0 73 9b 66 f1 19 21 50 c0
       -55.46857462185031 -64.51720843334424
0005b0 07 e5 f6 bf 17 e9 51 c0 76 aa f2 29 7f fb 52 c0
       -71.64207457648091 -75.92963646600569
0005c0 d1 9f e5 87 c5 32 53 c0 8f 84 bc 2b d8 5d 52 c0
       -76.7933063261437 -73.46631902131979
0005d0 1f 9b e1 87 16 2f 50 c0 5d 93 e3 b0 22 72 48 c0
       -64.73575017005759 -48.891683684464375
0005e0 b5 25 98 2d 86 98 37 c0 f9 70 83 d5 3a bb 2c 40
       -23.595797395367942 14.365683243079262
0005f0 99 9c 3e 51 18 33 51 40 9c b2 d3 36 09 35 61 40
       68.7983592139666 137.65737477633672
000600 fb 02 7c 24 d9 36 67 40 45 fe 18 00 38 58 60 40
       185.71400665493988 130.75683598405354
000610 c3 16 1e 5e 64 61 3e c0 65 08 02 42 8d 2c 61 c0
       -30.38043773874848 -137.3922433891013
000620 f8 86 5b a8 41 e3 5a c0 3e 63 ca df de b3 44 c0
       -107.5508824247189 -41.40523908025942
000630 15 0b 33 0b a1 71 1f c0 15 0b 33 0b a1 71 1f c0
       -7.860965895643649 -7.860965895643649
000640 ce 90 98 7a d8 1d 14 40 94 c9 fb 5a fb 3e 13 40
       5.02914611393153 4.811505719774136
000650 13 04 7a 90 1c 45 0b 40 9c e9 78 20 ba 59 f8 3f
       3.408745888446455 1.52190602001665
000660 c9 52 ac f7 b9 52 df bf d2 0b e5 b0 44 06 05 c0
       -0.4894242209132185 -2.6280607051753373
000670 50 7e a0 a0 c7 90 13 c0 30 bb b2 39 b8 0f 1d c0
       -4.891386518283596 -7.265351201566588
000680 9a 2a c0 f9 d7 76 23 c0 73 e2 d6 6a ff 8a 28 c0
       -9.732116512973608 -12.271479929667498
000690 fb a0 db 2d f7 b8 2d c0 67 6b aa 92 3e 7a 31 c0
       -14.861260827121887 -17.477517286878903
0006a0 ae 35 8c cb 3c 18 34 c0 32 2f 00 33 84 af 36 c0
       -20.09467765973175 -22.685610950036057
0006b0 46 42 5f 2f be 38 39 c0 8e 53 ba 08 2f ac 3b c0
       -25.221651993519366 -27.672592683305588
0006c0 10 a9 46 a0 b3 01 3e c0 24 6a f8 e6 5e 18 40 c0
       -30.006647126437258 -32.190396186157415
0006d0 1a bc 1b d1 27 18 41 c0 1b a0 8e da 7a fb 41 c0
       -34.1887151132034 -35.964686698571505
0006e0 15 7d b6 4d 60 bd 42 c0 ba 82 03 c8 9e 58 43 c0
       -37.47950145159317 -38.692345620836434
0006f0 27 d8 23 2b b7 c7 43 c0 b8 0f f6 29 e0 04 44 c0
       -39.56027735948765 -40.03809093966214
000700 81 f1 c6 6d 01 0a 44 c0 52 7f 33 4e ae d0 43 c0
       -40.078168604030914 -39.630319380898655
000710 0f 3b 1d 14 20 52 43 c0 7b fe 5d be 2f 87 42 c0
       -38.641603960297395 -37.05614451970629
000720 2c 7e 04 3e 4f 68 41 c0 43 ce 4d 8f 04 db 3f c0
       -34.81491828173998 -31.855538326736006
000730 34 f2 1e 5d b6 1c 3c c0 43 46 9d 37 77 84 37 c0
       -28.11215765004654 -23.517444110772214
000740 48 a2 04 fd 17 05 32 c0 0c 92 04 15 d3 4c 27 c0
       -18.019897283202482 -11.65004792862694
000750 1e ec 91 54 56 70 12 c0 3b a0 b8 ec 91 6d 06 40
       -4.609704324156182 2.8035009855120996
000760 fb 3d 3a 71 56 df 24 40 d1 ae c7 95 84 52 32 40
       10.436206377372391 18.322335587740614
000770 05 75 54 3f ae 83 3a 40 22 89 9a ca fb 80 41 40
       26.5143775540537 35.007684064347146
000780 5f 8f bc d1 19 e2 45 40 6a f4 01 97 7c 5f 4a 40
       43.766412941999754 52.74598968120047
000790 0e e3 85 cf f6 f2 4e 40 a0 b3 b0 9f f5 ca 51 40
       61.89815706288765 71.17124168640157
0007a0 85 ae 2c 7e a1 20 54 40 58 4b 6f dc b0 76 56 40
       80.50985674251031 89.8545447432383
0007b0 a4 af e7 6d 0c c9 58 40 c4 8c c7 9b 4c 13 5b 40
       99.14138362527461 108.30155081260006
0007c0 47 78 b2 93 b1 50 5d 40 c8 94 c4 69 1a 7c 5f 40
       117.26083843640036 125.9391121310938
0007d0 88 45 f7 94 fd c7 60 40 86 0f ad d7 28 c3 61 40
       134.24970482154117 142.09873565483957
0007e0 a2 5c 03 89 4c ac 62 40 9e 39 6e b9 dd 7f 63 40
       149.3843426767026 155.99581595924695
0007f0 0f c6 68 f2 00 3a 64 40 0e ec 07 13 81 d6 64 40
       161.81261558974845 166.70325614497455
