robot_gen3_lite/robot_gen3_lite_primitives/indicate_right_weights.npy (npy, 5728 bytes, 1 tensors)

array f8 [7, 100]
-79.88781094370589 -85.00510057971093 -93.2067200703776 -102.18237025038829 -111.17272699442059 -120.14789266817112 -129.10444920711325 -138.0332510463727
-146.94290528519994 -155.8344882634898 -164.6974245353588 -173.53732544959254 -182.35086618023064 -191.14399258925013 -199.9029495325427 -208.63424207585877
-217.3471293655264 -226.0192785447436 -234.66121042240266 -243.2781008051793 -251.85891289085774 -260.3951104931995 -268.91038234221077 -277.38071670467406
-285.8108516014865 -294.2031556477251 -302.55491258827533 -310.8606226737001 -319.11597968607475 -327.32860807315086 -335.4932751838395 -343.6055328544731
-351.65564566799094 -359.6595196856121 -367.596071130559 -375.47070452460326 -383.2877501502214 -391.0317705565193 -398.70583981191174 -406.30256700598534
-413.81540493536727 -421.2527328000298 -428.60368815953603 -435.8525816208585 -443.0099928450893 -450.07114970011895 -457.01282800268723 -463.8441664887009
-470.56040432344815 -477.13610120343714 -483.5819877993763 -489.88713081083887 -496.0259947569472 -502.0094888200672 -507.81921825906363 -513.429614558463
-518.8473338170202 -524.0579528250817 -529.0235347547432 -533.7445498923796 -538.210756895616 -542.3802160113443 -546.243418689164 -549.7639537921627
-552.9125095551861 -555.676108783744 -558.0014509685745 -559.844233440196 -561.1842128071254 -561.9385587363596 -562.0556022748851 -561.4774071740271
-560.1384800166953 -557.9190754825554 -554.7309609987041 -550.448474581469 -544.9519955555651 -538.0384305194093 -529.5108955015214 -519.1977787940209
-506.71786540614244 -491.75413432231295 -473.90850041809006 -452.6098325207043 -427.11010957476907 -396.66239047328116 -360.0291893159294 -315.6846872222799
-261.61103151250865 -194.9142281512223 -111.47572855003337 -5.126375208255022 133.49859934152863 319.81760760900426 580.8077102690734 966.983544426924
1580.5471571280584 2460.886200963185 2043.5697898106764 2043.5697898106764 76.81186391271625 81.7371760237422 89.62289453632455 98.24927107372521
106.89681206844641 115.52935167540019 124.13484535775916 132.72549379254548 141.29375871081083 149.84070475430417 158.36016401589248 166.8651674642432
175.3416084648543 183.78906836071974 192.2113244303928 200.61343643046123 208.98740502944844 217.3254601687468 225.63803968174784 233.91813673989088
242.16910399338045 250.3895490753006 258.5633646751274 266.7110408577872 274.81935947011544 282.883365784518 290.91803061727927 298.90495492259413
306.8423932599412 314.7421392116511 322.5885819099436 330.38869988657535 338.13260923601126 345.8238899437929 353.4601332388436 361.03190939212504
368.5442238959518 375.9918755658201 383.367142557388 390.6756506288829 397.9015031254989 405.0522503850442 412.1161085130502 419.0896127010351
425.9752605059433 432.7600615704787 439.43462687983856 446.00131061119765 452.4591480528783 458.788700468769 464.9859457620618 471.0456004546417
476.94553341258177 482.6993982312219 488.2852747385267 493.6865257120719 498.8914277081689 503.89775381253037 508.67875838853814 513.2211480522278
517.5111626625305 521.5179236315734 525.2319136091774 528.6143948954564 531.6499028688236 534.3056679894374 536.5351811421727 538.3153549036829
539.5958811677115 540.319504959995 540.4455497915851 539.881520563367 538.6033381575888 536.4634202136446 533.3884256752261 529.2857761664158
523.9809821796737 517.3304279664309 509.18037618057105 499.2130800160046 487.22718081461454 472.843587031585 455.6778676982347 435.1990236083864
410.71125326450647 381.3786545850297 346.15990610103665 303.5613822657554 251.5613265710614 187.38819145515956 107.17780293702535 4.9589871732066095
-128.3543627854981 -307.5649047561633 -558.4177605798574 -929.7738932417196 -1519.8573855836646 -2366.201725345291 -1964.7620637971993 -1964.7620637971993
-30.92012992194755 -32.91202445632655 -36.08511138767349 -39.56332545245846 -43.045666968261536 -46.51588307525069 -49.98647410946209 -53.44571312164092
-56.89122040514891 -60.337085953490515 -63.76705733820768 -67.18852637526295 -70.60200759639609 -74.00932817072315 -77.3991951571758 -80.7803521433943
-84.14908104701735 -87.508571049353 -90.85658429184922 -94.19508503105654 -97.51355526856445 -100.82061550817444 -104.11423368798913 -107.39421828416418
-110.66360478929714 -113.90892170470505 -117.13788174538604 -120.36369951224044 -123.55501047329655 -126.7322690574732 -129.89992058810145 -133.03663553854759
-136.1540481135646 -139.25031924819055 -142.32407086813964 -145.37684482551435 -148.40099968872602 -151.3977259006529 -154.37141379955182 -157.31155558622217
-160.22132770784586 -163.10344670907685 -165.94621145707399 -168.75319939697368 -171.5235369107681 -174.2544588006303 -176.9468595793121 -179.59244391075651
-182.187994287965 -184.7396040706598 -187.2345560827005 -189.6716625130297 -192.05515868258746 -194.36952672526485 -196.61445564468974 -198.78840237187902
00000000: da0f fee4 d1f8 53c0 24c3 6191 5340 55c0
00000010: b66c d1e6 3a4d 57c0 964b 45f4 ab8b 59c0
00000020: 0f0b 86f5 0dcb 5bc0 3e47 cf12 7709 5ec0
00000030: a014 dda5 5723 60c0 5097 7f64 1041 61c0
00000040: 1965 b447 2c5e 62c0 b412 bb20 b47a 63c0
00000050: 6959 424d 5196 64c0 df29 24c5 31b1 65c0
00000060: 9e2b b64b 3acb 66c0 43b6 5896 9be4 67c0
00000070: b306 6bf6 e4fc 68c0 f0b1 09b6 4b14 6ac0
00000080: 590d 0baf 1b2b 6bc0 06e6 09ee 9d40 6cc0
00000090: cd7f c2a2 2855 6dc0 90e7 a833 e668 6ec0
000000a0: 190b e336 7c7b 6fc0 9369 615f 5246 70c0
000000b0: 6b2a 13ed 90ce 70c0 db39 666a 1756 71c0
000000c0: b364 873f f9dc 71c0 a2ef 2220 4063 72c0
000000d0: 80ac 05ec e0e8 72c0 cfdb 471c c56d 73c0
000000e0: 10eb 830d dbf1 73c0 27f6 89fa 4175 74c0
000000f0: 4ee8 8474 e4f7 74c0 d9e9 3743 b079 75c0
00000100: 90dc 4f86 7dfa 75c0 5b8c 8364 8d7a 76c0
00000110: 73bd e181 89f9 76c0 01b4 7701 8877 77c0
00000120: ecc9 e69f 9af4 77c0 9ed3 d721 8270 78c0
00000130: 03c6 af1e 4beb 78c0 e438 8050 d764 79c0
00000140: 64a6 0be6 0bdd 79c0 126c 8c31 0b54 7ac0
00000150: 0963 eab4 a8c9 7ac0 202c a02c a43d 7bc0
00000160: a4ed 41ee 28b0 7bc0 1932 de6d 2321 7cc0
00000170: 3cc0 228b 3490 7cc0 9855 b8b4 81fd 7cc0
00000180: f31b 866a f768 7dc0 579b 7478 2dd2 7dc0
00000190: e04f 70d2 4f39 7ec0 3bbd 13b0 319e 7ec0
000001a0: 4b6f 7a79 6a00 7fc0 dcbd bfdd 2660 7fc0
000001b0: 6eef 9a84 1bbd 7fc0 dff3 c1d9 6f0b 80c0
000001c0: 2cc7 f356 c736 80c0 7e83 f8af 7660 80c0
000001d0: 884f fd32 3088 80c0 16f0 92d6 f4ad 80c0
000001e0: 9eb0 4fa1 afd1 80c0 1d31 b1ae 0af3 80c0
000001f0: 8e69 7f85 f211 81c0 f447 ce93 1c2e 81c0
00000200: 7f46 cfd1 4c47 81c0 c0d5 b8ab 685d 81c0
00000210: 9ab4 b9f8 0270 81c0 a73e 76fd c07e 81c0
00000220: dd70 9044 7989 81c0 5130 152b 828f 81c0
00000230: b801 9bdf 7190 81c0 943a daba d18b 81c0
00000240: d936 699b 1b81 81c0 0c21 3f44 5a6f 81c0
00000250: af80 1402 d955 81c0 f963 d779 9633 81c0
00000260: b788 d8af 9d07 81c0 4000 a9b4 4ed0 80c0
00000270: aa75 6150 168c 80c0 4c61 0c0d 9539 80c0
00000280: fca4 6f60 7cab 7fc0 01b2 26ef 10bc 7ec0
00000290: 9601 bc37 899e 7dc0 65c7 bedf c149 7cc0
000002a0: c1e9 4102 c3b1 7ac0 cbbe c026 99ca 78c0
000002b0: f354 378f 7780 76c0 e6ba 967a f4ba 73c0
000002c0: cdb0 fac8 c659 70c0 a252 655b 415d 68c0
000002d0: ad0a 2956 72de 5bc0 0aec a980 6881 14c0
000002e0: 8635 9b86 f4af 6040 255a b7eb 14fd 7340
000002f0: 8232 cd30 7626 8240 6a5e 8a4c de37 8e40
00000300: 234b f549 30b2 9840 20f5 21bc c539 a340
00000310: cce9 fa76 47ee 9f40 cce9 fa76 47ee 9f40
00000320: cf7a 0e94 f533 5340 8e57 58e4 2d6f 5440
00000330: bf97 0b81 dd67 5640 455f a90e f48f 5840
00000340: ab28 725e 65b9 5a40 4e7b d9e5 e0e1 5c40
00000350: f465 6c4e a108 5f40 e20d c23e 3797 6040
00000360: 20fb aa78 66a9 6140 802a a80d e7ba 6240
00000370: 89ae af76 86cb 6340 9c8f ad73 afdb 6440
00000380: c012 e074 eeea 6540 3073 4a0c 40f9 6640
00000390: 41ac 732b c306 6840 31e0 6f45 a113 6940
000003a0: 62ac 6ed2 981f 6a40 619d 712b 6a2a 6b40
000003b0: 08d5 31d2 6a34 6c40 cce2 4c60 613d 6d40
000003c0: 2526 c74c 6945 6e40 4d53 9f2f 774c 6f40
000003d0: 4d76 ad8a 0329 7040 0ee5 606c 60ab 7040
000003e0: 05fd ac18 1c2d 7140 902e 2944 22ae 7140
000003f0: 0f5f df40 b02e 7240 564e 03b2 7aae 7240
00000400: 18dd 5a71 7a2d 7340 eeb1 5dcd dfab 7340
00000410: 9a63 ddd4 6a29 7440 cd4c 5f1d 38a6 7440
00000420: 0ebd dc2a 1f22 7540 80c1 38a7 2e9d 7540
00000430: 2cca abb4 5c17 7640 cc39 6cb3 8290 7640
00000440: 09ad 1d24 b508 7740 62ce e9b8 de7f 7740
00000450: 38cf dfd0 dff5 7740 2fa9 0877 cf6a 7840
00000460: 2794 8a8e 6cde 7840 7eef 7f04 d650 7940
00000470: 68a5 9994 dbc1 7940 0844 ba0d 6f31 7a40
00000480: b6a1 c2aa 9a9f 7a40 7042 5236 290c 7b40
00000490: e8ad 503b f476 7b40 b583 465e 05e0 7b40
000004a0: 26f2 a0ab 5847 7c40 3efb 6184 9eac 7c40
000004b0: f73a 106f c60f 7d40 e7d5 8ac7 ba70 7d40
000004c0: 06c5 a4e7 20cf 7d40 a71f 33bc 302b 7e40
000004d0: 8e85 3e7c 9084 7e40 6493 6202 fcda 7e40
000004e0: 5755 b349 432e 7f40 d60a 1a33 5d7e 7f40
000004f0: 838a c131 dcca 7f40 241f 45e9 c409 8040
00000500: 0a34 73dc 162c 8040 771b 25b5 244c 8040
00000510: 50b7 85f5 da69 8040 84f6 de47 ea84 8040
00000520: 6479 4600 339d 8040 8b10 0f02 72b2 8040
00000530: 8bf8 0c0d 48c4 8040 9caf cad8 85d2 8040
00000540: fc7c 585d c4dc 8040 b5d0 9d58 8ee2 8040
00000550: c8bc 687c 90e3 8040 4d33 a75a 0ddf 8040
00000560: 2fba f4a2 d3d4 8040 452f a815 b5c3 8040
00000570: 2fa0 eb7e 1bab 8040 dbc5 0345 498a 8040
00000580: 425d 2f0d d95f 8040 09ec 6ab7 a42a 8040
00000590: 7b48 22d2 e2d2 7f40 bc42 97c6 6833 7f40
000005a0: c590 5988 a273 7e40 cc7f 1d55 7f8d 7d40
000005b0: edae cc8b d87a 7c40 6d12 6133 2f33 7b40
000005c0: a863 1a4b 61ab 7940 ee32 1cf8 0ed6 7740
000005d0: 2226 b3f9 8ea2 7540 957f f86b fbf8 7240
000005e0: b422 2463 f671 6f40 e78f 7c10 6c6c 6740
000005f0: 06ea 911f 61cb 5a40 d1d2 c8bb 00d6 1340
00000600: 48d4 9ff0 560b 60c0 38d1 91d9 0939 73c0
00000610: 5de0 db92 5773 81c0 409e f0ee 300e 8dc0
00000620: 9b87 7cf6 6dbf 97c0 9961 8b48 677c a2c0
00000630: bfb9 735a 0cb3 9ec0 bfb9 735a 0cb3 9ec0
00000640: f4d5 72a2 8deb 3ec0 9089 a637 bd74 40c0
00000650: 9449 11ee e40a 42c0 20a8 650c 1bc8 43c0
00000660: 6b98 4b6a d885 45c0 7d61 e474 0842 47c0
00000670: c53e 9bc8 44fe 48c0 446c a820 0db9 4ac0
00000680: 3bd2 9e82 1372 4cc0 6417 eda1 252b 4ec0
00000690: 20e1 52ef 2ee2 4fc0 050c eed0 10cc 50c0
000006a0: bf9d de4a 87a6 51c0 ff0b 2fd5 9880 52c0
000006b0: aa32 d869 8c59 53c0 7dcf 1d4a f131 54c0
000006c0: 2659 3b8b 8a09 55c0 772a 966d 8ce0 55c0
000006d0: 9ff0 eb46 d2b6 56c0 ed14 ed45 7c8c 57c0
000006e0: 0fcb ea16 de60 58c0 c78c e8f6 8434 59c0
000006f0: f280 d09a 4f07 5ac0 1b7e 53df 3ad9 5ac0
00000700: 03e0 3880 78aa 5bc0 4c15 f1c5 2b7a 5cc0
00000710: 80c9 f40d d348 5dc0 35a9 51da 4617 5ec0
00000720: c1ef a54a 85e3 5ec0 176e 097f ddae 5fc0
00000730: 92dc 4226 cc3c 60c0 ddfd 4a1e 2ca1 60c0
00000740: a838 4ff6 ed04 61c0 3511 839d 0268 61c0
00000750: e087 dec9 5eca 61c0 0828 e11c 0f2c 62c0
00000760: 1a99 4cfd d48c 62c0 7102 ab2b baec 62c0
00000770: 764b 319f e24b 63c0 bbb6 6b43 f8a9 63c0
00000780: b15c d81d 1507 64c0 a50b 796f 4f63 64c0
00000790: 77e7 3f5d 47be 64c0 ce2b 9f35 1a18 65c0
000007a0: eebf 7ad0 c070 65c0 5e5c c886 24c8 65c0
000007b0: 98e1 75ac 4c1e 66c0 3cad ee4c f572 66c0
000007c0: a0d4 980c 04c6 66c0 1def 27d6 aa17 67c0
000007d0: d908 c27b 8167 67c0 2ded 6142 7eb5 67c0
000007e0: b739 24dc c301 68c0 5600 b629 d34b 68c0
000007f0: 1f59 e29e a993 68c0 e569 9c97 3ad9 68c0
