robot_gen3_lite/robot_gen3_lite_primitives/sway_joyful_weights.npy (npy, 5728 bytes, 1 tensors)

array f8 [7, 100]
0	0xc061ce77afe6e5c8	-142.45211024377045
1	0xc0623e255054a04a	-145.9420549061636
2	0xc0631b7a4a669554	-152.85867805515102
3	0xc063fa0d56ba483a	-159.81412826903562
4	0xc064b03e532986e2	-165.50760801420898
5	0xc0653af80d9acdd9	-169.84277992472815
6	0xc06598ad3b11b05c	-172.77114633040298
7	0xc065c7d803e431c8	-174.24511904305677
8	0xc065c7081054c793	-174.21973434980882
9	0xc06594916e6db5b4	-172.6427528517503
10	0xc0652eaf64272a22	-169.45891006135304
11	0xc06493bca9e44ca6	-164.61678022947052
12	0xc063c1b663dbfc06	-158.05351441350666
13	0xc062b6cb0b15e72a	-149.71228555944373
14	0xc06170e77a8281ac	-139.52825665940816
15	0xc05fdbd848860210	-127.43507588469242
16	0xc05c572357c7e954	-113.36153215906717
17	0xc0584f3f350d13fc	-97.23823286320834
18	0xc053bedf5a1003e4	-78.98238231243118
19	0xc04d424e1296b924	-58.518007587046924
20	0xc041e10998f8e529	-35.758105393915976
21	0xc0253cebef1c8d88	-10.618987533793884
22	0x403101f2a333aed9	17.00760860454361
23	0x404799a0521753bd	47.20020509852427
24	0x405404dbf6213b33	80.07592538113822
25	0x405cef82944ecb1b	115.74234492964426
26	0x40634a16c52738ea	154.31527955685243
27	0x40687afc091673c8	195.84326605210504
28	0x406df04759df9f8d	239.50870984722533
29	0x4071ab6fbb248c74	282.7147780826265
30	0x40744ba3ffca8096	324.7275388632055
31	0x4076e3fa27bc751b	366.248573051607
32	0x407971ebb152be88	407.1200421554754
33	0x407bef3dbda166c6	446.9525734238381
34	0x407e54eb4840a63d	485.30744195226345
35	0x40804dd416487771	521.7285581265879
36	0x40815dcd141809d5	555.7251359823227
37	0x4082564a42ebc0c6	586.7862604540067
38	0x408332c5db082b40	614.346609176464
39	0x4083ee961419a0b4	637.8232805254142
40	0x408484ad7fd36b18	656.5847164647157
41	0x4084f00d103cbcdd	670.0063786263596
42	0x408532a357fd8fe3	678.3297576722656
43	0x4085617d74088bb1	684.1862564723616
44	0x4085838364df55d2	688.4391572425905
45	0x40858c3db0580dba	689.53012150566
46	0x408576d3ce33927b	686.8534206418111
47	0x4085417e60228241	680.1867068000794
48	0x4084ea95dbe43323	669.3231733158212
49	0x4084701f2e6d1bd7	654.0152252697106
50	0x4083d03134fd730e	634.0240268517243
51	0x408308810e580a69	609.0630156400849
52	0x408216b82f7be45e	578.8399343184535
53	0x4080f82a27136a75	543.020582343756
54	0x407f54584cc6a63a	501.27155759427444
55	0x407c53a369f972bd	453.22739598694517
56	0x4078f3d9ddb00da0	399.2406899334983
57	0x407563ac231a0f92	342.2295256631852
58	0x4071c22ba8f62bb9	284.1356591812178
59	0x406bfa91c548a616	223.83029426755155
60	0x4064222f350af098	161.0682625974339
61	0x40580b8e4d95c52f	96.1805604899025
62	0x403d98373c810ce6	29.594592839724008
63	0xc04321b1e623de8e	-38.26324154616769
64	0xc05ab865b8b2d649	-106.88120858635479
65	0xc065f613b902a4b8	-175.68990755573554
66	0xc06e81dc4f5438b7	-244.05814329576035
67	0xc073745d44be729e	-311.2727706374516
68	0xc07788b28adf1850	-376.5435894693992
69	0xc07b6fcef9ff31b2	-438.988031384327
70	0xc07f23a8fded8698	-498.22875778945445
71	0xc0816634e4a1495a	-556.7758267021666
72	0xc083485406fe4fbb	-617.0410289638597
73	0xc08529a2afd687ad	-677.2044369468837
74	0xc087009d68bf5a53	-736.0768599461975
75	0xc088c9b9ecc3ca1e	-793.215783624273
76	0xc08a819023ff0987	-848.1953811573775
77	0xc08c23c6894b5e2b	-900.4719415557969
78	0xc08dab8a3ff68304	-949.4425048121198
79	0xc08f12baf18378ca	-994.341280963062
80	0xc09029398ae8af67	-1034.3061939580018
81	0xc090b0e1229c67d9	-1068.219858592833
82	0xc0911ae699e7d462	-1094.7251964782122
83	0xc091608a3e9fc288	-1112.1350045168383
84	0xc09179698dbfaf49	-1118.3530797911392
85	0xc0915a64ce35fbe7	-1110.598442882061
86	0xc090f546b2ddc3b1	-1085.3190416956606
87	0xc090372cedc2ab2e	-1037.7938757340412
88	0xc08e0cbdefcaa93d	-961.592742522516
89	0xc08a7e0b1e81c360	-847.75542928102
90	0xc0855c18d19716f3	-683.5121185115698
91	0xc07c1c3b205b92ae	-449.764435155589
92	0xc05d4b6de6bb50c8	-117.17858284275565
93	0x4076a42460facee1	362.25888154956743
94	0x4090c03b15533745	1072.057698536156
95	0x40a0f36cac1c9028	2169.7122506071064
96	0x40af200a796bf71e	3984.020457624355
97	0x40bc4832edb5ee04	7240.198939676866
98	0x40c869171de9b020	12498.180600367545
99	0x40c869171de9b020	12498.180600367545
100	0x406cfdbd5b455af6	231.92936481042824
101	0x406d391684b1d214	233.7839988205966
102	0x406e03f6724f21e6	240.12383380370665
103	0x406ec498d9e7908e	246.14365859248613
104	0x406f3f9e3c950bd6	249.98806599722474
105	0x406f7289a4c8f3c0	251.579302208409
106	0x406f5e7b4a85c610	250.9525501835601
107	0x406f045165089f3f	248.1349358719253
108	0x406e64ec719f853c	243.15386277347886
109	0x406d81570b081f2b	236.04187537752418
110	0x406c5acbaf581a49	226.8373638840442
111	0x406af21a95506080	215.5657450265753
112	0x4069488f8d68ece1	202.26752348416542
113	0x40675f6b08a241b8	186.98181564036145
114	0x406537ddaf6588c4	169.74581117468745
115	0x4062d34f55648d79	150.6034342731398
116	0x406032f7c69a56f5	129.59274606842487
117	0x405ab0e950d6b890	106.76424046486704
118	0x40548a8067f97003	82.16408728942046
119	0x404bebae4330d833	55.841255568361156
120	0x403bd8fac59d9527	27.84757647607071
121	0xbffc1699dade05d2	-1.7555178212645512
122	0xc040758137c1c1ca	-32.91800591431418
123	0xc05064d1c0103914	-65.57530213913225
124	0xc058ea727eb3d4f1	-99.66323821603488
125	0xc060e389ec03f15d	-135.11058617372592
126	0xc0657b1c24346e9f	-171.84718523255012
127	0xc06a36f0c562d2e3	-209.7168909959938
128	0xc06eeb8f5e3259ba	-247.36125097116548
129	0xc071919da0cb1f26	-281.1009834227028
130	0xc0735ae3709f5292	-309.68052732692115
131	0xc074db9743e34882	-333.7244299772502
132	0xc0760b81a9bc9667	-352.7191560141277
133	0xc076dcede76e6135	-365.80808203808857
134	0xc077410487ab5208	-372.06360594675107
135	0xc077282112f2a864	-370.50807471073335
136	0xc076816ce4c9970a	-360.0890853762254
137	0xc0753b493f7137da	-339.7053827688775
138	0xc07342765ea4b871	-308.1538988527673
139	0xc070830111e9a4d3	-264.1877612234795
140	0xc069ce605e25fe0b	-206.44926364345915
141	0xc060b7c3f66b0372	-133.74267121220652
142	0xc0486a672cf48d3b	-48.831273669633866
143	0x40414b8c2acfee1c	34.590215064552666
144	0x405ba80f7a89d920	110.62594474279149
145	0x4067084ab3f6c0ba	184.2591190165893
146	0x406ffcc854b9e71c	255.89945446309218
147	0x407441f4c15aea40	324.122254710328
148	0x4078342a036c2a86	387.2602571702231
149	0x407bb87860c2cb63	443.52938915340036
150	0x407eb014dd2480ae	491.0050937105069
151	0x40807cc43ae4c68f	527.5958154557319
152	0x4081383fcf6d4c3a	551.0311573542488
153	0x408176afcbe18970	558.835838090903
154	0x408122c1e8c27041	548.3446822348125
155	0x4080266a6d1b3b6b	516.801965916396
156	0x407d121a9d666f05	465.13149776471283
157	0x407981f64ff3125e	408.1226348395338
158	0x4076311572877cd9	355.06773617672803
159	0x4072aa871a317df4	298.6579839642793
160	0x406d8746647894ff	236.22734283019233
161	0x406502816abc1110	168.0782979653527
162	0x4057af85810bb3d3	94.7425234426767
163	0x4030d377eee18306	16.826048784309954
164	0xc050413a12499431	-65.01916939912259
165	0xc062c23a221cf2f0	-150.06959634451005
166	0xc06daed8f0284db2	-237.46398170348908
167	0xc07464e2d9b891a4	-326.3053834161494
168	0xc079f85370e6c765	-415.5203713431168
169	0xc07f7f34af6b5cf1	-503.9503626054639
170	0xc0827898cffe56ee	-591.0746154661445
171	0xc0853f168deaca9c	-679.8860128729898
172	0xc0882986441f05b9	-773.1905596183416
173	0xc08b254bb29bc38c	-868.6619617623378
174	0xc08e25893f078108	-964.6920147501232
175	0xc0909237345bae36	-1060.553910667904
176	0xc0920e068dbcea59	-1155.5064000623736
177	0xc09382ac572e64c7	-1248.6683013199815
178	0xc094ebf27c06c2b3	-1338.986801248201
179	0xc09644ea397aefda	-1425.228734894647
180	0xc0978765325d4b06	-1505.8488249375382
181	0xc098ac0d96744549	-1579.0132692496575
182	0xc099a9c598ff726e	-1642.4429664529412
183	0xc09a7521f4d80bb5	-1693.283160567965
184	0xc09affc8391b42bb	-1727.9455303439597
185	0xc09b370f9390e833	-1741.765211357281
186	0xc09b03186c0779fd	-1728.7738495987135
187	0xc09a43e7f02f5970	-1680.9765021704043
188	0xc098cdd2fa238091	-1587.4560323283406
189	0xc096649f6f5307e2	-1433.1556981061517
190	0xc092b1e604b6c3bb	-1196.4746273571934
191	0xc08a69c2d87929c7	-845.2201394525408
192	0xc0749b4712f13592	-329.7048520490872
193	0x407af13a10e7de89	431.07667627881943
194	0x4098a88a95838913	1578.1353359749235
195	0x40aa62f7811d0d69	3377.483406932723
196	0x40b8f07eea23fb5f	6384.49576020133
197	0x40c718cbb992d4b8	11825.591600755564
198	0x40d4373d0d85a15a	20700.953950316973
199	0x40d4373d0d85a15a	20700.953950316973
200	0x406888f0f8140f64	196.27941516798012
201	0x4068e7cadf8c2947	199.24351479888193
202	0x4069cdd06ed23da8	206.4316934686915
203	0x406aafdd0a5df013	213.49573248240685
204	0x406b58a3ea602301	218.77000921990114
205	0x406bc4d35ee2551d	222.15080208020746
206	0x406bf40f3b2080e9	223.62685924862242
207	0x406be5f022a573c6	223.1855633956422
208	0x406b99e4ea6b61f8	220.80919381116087
209	0x406b0f6e9df9326f	216.48225306197443
210	0x406a4624ee0aba26	210.1920080384745
211	0x40693d3bb69c1752	201.9135392235426
212	0x4067f4501af9b18c	191.63477848785658
213	0x40666ac265ccb5bb	179.33623018247985
214	0x40649fe44b8850fa	164.9966180479458
215	0x40629304cd1f6646	148.59433609135357
216	0x4060437e879f0c96	130.1091955286435
217	0x405b615450c0d40e	109.52077120619671
218	0x4055b33534d4c2ce	86.80012245919644
219	0x404ef5ffe4ad01b4	61.92187174270239
220	0x40416ef5b80b09f0	34.86687374629025
221	0x401666de5db53060	5.600457634147546
222	0xc039e85b9f534721	-25.90764804633284
223	0xc04dd70447386544	-59.67981806043329
224	0xc057f05443979a64	-95.75514306836118
225	0xc060c569394143c3	-134.16909468409548
226	0xc065de5a311212fd	-174.94850972681152
227	0xc06b40aa97b7039e	-218.02082429642627
228	0xc0705a90ea994a22	-261.66037998083823
229	0xc072ce4957b017d6	-300.8929058912885
230	0xc074e270c98ddce9	-334.1525359670182
231	0xc076a7c7e7570e66	-362.48630460745187
232	0xc07815e137efca05	-385.36748498599655
233	0xc0791cdeac59de63	-401.8043635855194
234	0xc079abafe1f43981	-410.7304400959038
235	0xc079afea3fdff44c	-410.99468982202666
236	0xc0791653563ba9c2	-401.39534591012864
237	0xc077ca44533a3c24	-380.64168093441026
238	0xc075b593503888d0	-347.34846517642745
239	0xc072c10a0bd0ff87	-300.0649526752463
240	0xc06da6f2616dae43	-237.2170874731256
241	0xc063ad22dbab26ea	-157.4105051367581
242	0xc04fde3c08e6d3e9	-63.736207115849375
243	0x403c5441279f6c3f	28.32911918298873
244	0x405c09bbeec541be	112.15209550155029
245	0x40682d761d77d55e	193.4206683483598
246	0x40710ada2bde4b07	272.67826449235184
247	0x4075c567ee7abe97	348.33787391612117
248	0x407a2975d6afc3a5	418.5912691942015
249	0x407e17cfedbddf91	481.4882638375212
250	0x4080b746dde78e98	534.909602936782
251	0x4082048b27872d49	576.567946487493
252	0x4082dfc7daa964e6	603.9725850328366
253	0x40833373582b20fa	614.4313205117644
254	0x4082e80229cfcb63	605.0010563119835
255	0x4081e566f37d59f9	572.6752691071589
