robot_gen3_lite/robot_gen3_lite_primitives/wave_arm_weights.npy (npy, 5728 bytes, 1 tensors)

array f8 [7, 100]
0	0x406729f7e2c23f9a	185.31150949420118
1	0x406a62a6b8a1cab8	211.08285171127295
2	0x406f132e7204e993	248.5994196029611
3	0x407227892148556f	290.47097900634157
4	0x4074e3b0df89e195	334.23068193302
5	0x4077ba53225018ac	379.645296395184
6	0x407aa95e5926c211	426.58553424014923
7	0x407dae9aaf0218e8	474.9127645570684
8	0x408063d23a0f8a72	524.4776498045087
9	0x4081f90600b46e0e	575.1279310318075
10	0x408395a37db16510	626.7048295840232
11	0x4085385fc65ee4f9	679.0467650807979
12	0x4086dfc258b0e07f	731.9698957270156
13	0x40888a5cff6e77cf	785.2954090719521
14	0x408a36b0945cbbee	838.8362204785205
15	0x408be31ddda7c20d	892.3895829301924
16	0x408d8df46fe801b8	945.744354069283
17	0x408f35762f50ae99	998.6827074340137
18	0x40906be652f47762	1050.974925823008
19	0x4091397df58dd37b	1102.3730070267036
20	0x409202824c2b5b05	1152.6272436880402
21	0x4092c5e3d73b7e61	1201.4725007339368
22	0x4093827b3bc7661b	1248.620345225913
23	0x4094371cb2d0d216	1293.7780258777834
24	0x4094e28b20454908	1336.6358652902436
25	0x4095836ff957e106	1376.8593496066183
26	0x4096186a98dd998a	1414.1040987610781
27	0x4096a008f362bddd	1448.0087409428008
28	0x409718b5e9ef5bdf	1478.177650203688
29	0x409780d1e75de3d6	1504.2049841566381
30	0x4097d6a5908dacde	1525.6616842400322
31	0x4098185ebeefad84	1542.092525238958
32	0x409845669258978e	1553.3501676409246
33	0x409867a4ba764d86	1561.9108675465409
34	0x4098913cd9f538cc	1572.3094251933971
35	0x4098c06dbb9fa51d	1584.1071610397842
36	0x4098f079b5e5c398	1596.118857946456
37	0x4099224f444aaff0	1608.577408949841
38	0x409957ccd5f4be2c	1621.9500349274704
39	0x409992f98293568d	1636.7436621686531
40	0x4099d6006999f441	1653.500402837308
41	0x409a232f08b205e5	1672.795931607828
42	0x409a7cf756749df1	1695.241540739193
43	0x409ae600275d16b5	1721.500150160323
44	0x409b6126ee076d49	1752.2880173836186
45	0x409bf16a8b0e7412	1788.3540460832924
46	0x409c9a1b0d742052	1830.5264185089804
47	0x409d5ebdd2666d6e	1879.6853729252139
48	0x409e42abbbe4151f	1936.6677089345828
49	0x409f416dff77c85f	2000.357419845204
50	0x40a01f197c001377	2063.549774172188
51	0x40a0951a9ea59d4c	2122.551991630031
52	0x40a10875c81fdb36	2180.2300424532978
53	0x40a17a372b3f7871	2237.1077518305324
54	0x40a1e91ab3277776	2292.5521480878188
55	0x40a2539bccd5f6e0	2345.804297148119
56	0x40a2b8114c8c3d8f	2396.033787138476
57	0x40a314acc144dcd3	2442.33741202541
58	0x40a36772badf1af1	2483.724081966437
59	0x40a3ae2db9bcbef6	2519.0893076880557
60	0x40a3e674819aefde	2547.2275513093764
61	0x40a40d9a13d417ba	2566.8009325293506
62	0x40a420b16e185b6c	2576.346543084297
63	0x40a41c6b402e6f88	2574.209474040141
64	0x40a3fd2788769e2a	2558.577213007743
65	0x40a3c078af52a159	2528.2357126066167
66	0x40a36fb0c4720190	2487.845248758975
67	0x40a31cb8e544c034	2446.361124180281
68	0x40a2c38af3919f62	2401.7713895327624
69	0x40a25d67ad509d44	2350.702494162748
70	0x40a1e97f2bf1243a	2292.748382125542
71	0x40a167c0ea6bdd8b	2227.87678849296
72	0x40a0d829dde3a553	2156.081771005565
73	0x40a03ac097ae9f36	2077.376157242713
74	0x409f1ecd8e347f89	1991.7007377817956
75	0x409dac537a0bdd20	1899.0815202573503
76	0x409c1df73090a318	1799.4913961982293
77	0x409a73a7f3b60818	1692.914015621418
78	0x4098ad40353a9862	1579.3127030520923
79	0x4096caaa75e7d885	1458.6664653993514
80	0x4094cbca9a8c70b7	1330.9478551811023
81	0x4092b07d4f0793c4	1196.1223717864932
82	0x409078775db8e156	1054.1165684592756
83	0x408c4706fffab407	904.878417929286
84	0x408762bbcaafd97e	748.3416951883553
85	0x40824329ee1bcde5	584.3954736873826
86	0x4079ce40a65b0688	412.890783649033
87	0x406d363397fd3a64	233.69379806002246
88	0x404742aa24df8daa	46.520817383915826
89	0xc0629e4a8df3a88f	-148.9466008910135
90	0xc076130d8c76cae8	-353.1908077850662
91	0xc081b7080aa7d79b	-566.8789265740082
92	0xc088b91a7a1b3598	-791.1379282117587
93	0xc0900f1b0fb701f3	-1027.776427134985
94	0xc093ff65db19ed46	-1279.8494686175413
95	0xc09844af1fc4721a	-1553.1710196203844
96	0xc09d0fed226e300b	-1859.9815766541312
97	0xc0a150326b7a3e24	-2216.0984762383323
98	0xc0a1d1b7fe41a29f	-2280.8593616972935
99	0xc0a1d1b7fe41a29f	-2280.8593616972935
100	0xc047b9c2e3dd36e1	-47.45126007367595
101	0xc02c9cc7b78ecbee	-14.306211219960428
102	0x403b2ce21a1d66f2	27.175325042894606
103	0x405250c302f4fc5a	73.26190256046667
104	0x405ec851aee65844	123.12998554701431
105	0x40660b791289fbb0	176.358529347895
106	0x406d0fb90e23c44b	232.49133975015351
107	0x407230f28d348c79	291.05921669508785
108	0x4075f908994d4538	351.56459932502503
109	0x4079d7bc7604d9f2	413.483510989142
110	0x407dc48c7e2af376	476.2843000104689
111	0x4080db2c51ca4a8f	539.3966403774265
112	0x4082d1d2b6bb2a5f	602.2278875944429
113	0x4084c14afeb1b4f4	664.1616186030719
114	0x4086a46abf0ffd8b	724.5521222352266
115	0x408875b4c17b48a1	782.7132596618213
116	0x408a2f84b865c70f	837.9398048354504
117	0x408bcbde668d95ec	889.4835940419557
118	0x408d44773490bf1a	936.5582057293243
119	0x408e92c9790fbb33	978.3483754376415
120	0x408fafdf955e73bc	1013.9841716174192
121	0x40904a3ae8faafd8	1042.5575293702914
122	0x40909c769ab62a61	1063.115824552857
123	0x4090ca9a2045e4fe	1074.6505137368217
124	0x4090d070b5c0978d	1076.1100683300494
125	0x4090a9751bde553f	1066.364364122346
126	0x409050fd9c3c6e33	1044.2476663057575
127	0x408f841616a9d8f0	1008.5107854146318
128	0x408deec536e9340e	957.8462961405764
129	0x408bd6dc1f08e8fc	890.857481069193
130	0x408930ac00675c14	806.0839851450896
131	0x4085effd1e009980	701.9985923811764
132	0x408212b7025563dc	578.3393599196529
133	0x407bdbbdd836e369	445.7338487762523
134	0x40743576069984ea	323.34131488769947
135	0x406a39196d0f183e	209.7843537611788
136	0x40592593ee9ace96	100.58715405576581
137	0xc00628a9f1618099	-2.7698553903465606
138	0xc05874fa90b87f86	-97.82779329316517
139	0xc066bea6c6da9d0f	-181.95785849283172
140	0xc06f8a6cf6df82fa	-252.32580131201377
141	0xc0731ed0a9a62af2	-305.9259430399826
142	0xc075385a66ea41d2	-339.522070803706
143	0xc075da8a0e893680	-349.6587052688483
144	0xc074ca27521fa338	-332.6345998035281
145	0xc071c753bd100d95	-284.4579439761231
146	0xc0691b27fa7ef394	-200.8486301879426
147	0xc0534d4dc518baa4	-77.20787169852207
148	0x4056baf88e11739f	90.92142059044134
149	0x4072a7e737b6c86e	298.4939496173819
150	0x407ff05a5555c613	511.02205403809893
151	0x40863807b63648e0	711.0037655106535
152	0x408c86a8d0c529b4	912.8324294474937
153	0x40917e82d663b934	1119.62777095621
154	0x4094c39608ad5c7a	1328.8965174758619
155	0x4098065becb339e8	1537.5897701267331
156	0x409b39a10c750f9f	1742.4072740832123
157	0x409e4ed00f722fe8	1939.7031839219799
158	0x40a09afe25c735f8	2125.4963819745426
159	0x40a1eecde1d24610	2295.4021135054136
160	0x40a3192d5559c3f5	2444.5885417987542
161	0x40a40f6792e28639	2567.702292517552
162	0x40a4c5adcaaee15c	2658.8394369745347
163	0x40a52ed586f2f903	2711.417045205018
164	0x40a53c634cb773a4	2718.1939446762717
165	0x40a4e4a2026cc110	2674.3164247499153
166	0x40a44e5b8375b3bb	2599.1787373334787
167	0x40a3c34927782a02	2529.6428792525558
168	0x40a3339283bfff26	2457.7861614226304
169	0x40a2842a80d89525	2370.0830142671643
170	0x40a1b25e973892a8	2265.1847474745773
171	0x40a0becfbbee5e70	2143.405730675724
172	0x409f54b39152c8af	2005.17535905218
173	0x409cebefa3564ad6	1850.9840215190102
174	0x409a45880d29257e	1681.3828627041944
175	0x4097642b836e4f27	1497.0424935565768
176	0x40944af1653149cd	1298.7357375813765
177	0x4090fd701e0b2613	1087.359489607047
178	0x408b001ddb04e378	864.0145779020231
179	0x4083afef79afbaac	629.991931317219
180	0x40782db9b7f612ce	386.85784145471996
181	0x406111d0ad55315a	136.5567232765123
182	0xc05da52649434968	-118.58046180315944
183	0xc077793d64a8c7e2	-375.5774885743141
184	0xc083b589dde96669	-630.6923177942637
185	0xc08b7956f46804b8	-879.1674583555641
186	0xc0916afea17dd62f	-1114.748662916372
187	0xc094c4936ec070ef	-1329.1439771717958
188	0xc0979c46daba09fc	-1511.069193751201
189	0xc099b3c32f68589b	-1644.9406105331498
190	0xc09ab0fd93e6da82	-1708.247634512984
191	0xc09a0f0a7a9e480b	-1667.7602333766433
192	0xc096ff87349ddd8c	-1471.8820366541358
193	0xc09032fa75ae3899	-1036.7445895406765
194	0xc06aff9da3ee258a	-215.98799320710197
195	0x4093c862b9382432	1266.096409680566
196	0x40af21d20cff6d9d	3984.9102554150872
197	0x40c1fdffff6d5c36	9211.999982519173
198	0x40d1ab5f2e66c172	18093.487207116043
199	0x40d1ab5f2e66c172	18093.487207116043
200	0xc08ebfa0fe2cee08	-983.9536098013059
201	0xc08fa055f64d2efd	-1012.0419736890759
202	0xc090b3ef23b2bee5	-1068.9835346154225
203	0xc091aaa112840edf	-1130.6572971948697
204	0xc0928f424f1327e4	-1187.814754771528
205	0xc09360abbc8181d6	-1240.1677112803932
206	0xc0941f93bed65ef0	-1287.894282674355
207	0xc094ccc93d684c09	-1331.1965233131798
208	0xc095690cce317016	-1370.2625053143179
209	0xc095f5441271eb44	-1405.3164766120763
210	0xc096724acf2a1f68	-1436.5730558950108
211	0xc096e10fe22dc849	-1464.2655112412924
212	0xc097428bfeadcc5e	-1488.636713710402
213	0xc09797bc49641037	-1509.9338737139603
214	0xc097e1b8b9d84cb4	-1528.4303964421097
215	0xc0982194500213b8	-1544.3948364567314
216	0xc0985880bce20dda	-1558.1257205315546
217	0xc09887af1e21989e	-1569.9210133790398
218	0xc098b06c7923250a	-1580.1059308520657
219	0xc098d40e0f842af8	-1589.0137310649134
220	0xc098f40061d65970	-1597.0003732196892
221	0xc09911b964b2dabf	-1604.431048197366
222	0xc0992ecf01487712	-1611.7021533320117
223	0xc0994ce266c9bbae	-1619.221095230179
224	0xc0996db1510c3df2	-1627.4231607353981
225	0xc099930b048e3b1b	-1636.7607595656943
226	0xc099bedcd4a9a266	-1647.7156549935694
227	0xc099f3367b971c8d	-1660.803205834501
228	0xc09a3233623ef585	-1676.5501794659951
229	0xc09a7e192275d8de	-1695.5245455182662
230	0xc09ad95a339e74a7	-1718.338087535734
231	0xc09b4668db235f17	-1745.6023984457768
232	0xc09bc6c13952ebab	-1777.688695235857
233	0xc09c524e73d9d0b1	-1812.576613810885
234	0xc09cd968a0ca78e7	-1846.3521758686345
235	0xc09d5ec238f75918	-1879.6896704338196
236	0xc09de7ecad875f42	-1913.9811307098284
237	0xc09e7538e57f7988	-1949.3055629651953
238	0xc09f06456804fb2b	-1985.5677796152402
239	0xc09f9aa1923ef4a6	-2022.6577844464132
240	0xc0a018e4c2344a81	-2060.446794160933
241	0xc0a0659f55393af0	-2098.8111970791288
242	0xc0a0b33f07e7024a	-2137.6231071653647
243	0xc0a101715b43461c	-2176.7213994048197
244	0xc0a14fe6f836d59f	-2215.951112474038
245	0xc0a19e4a6727ebab	-2255.1453182673627
246	0xc0a1ec4057a3cb74	-2294.125668638788
247	0xc0a239648fa5a1dd	-2332.6964084396445
248	0xc0a28557045f58d3	-2370.6699552341393
249	0xc0a2d13ad3d00a09	-2408.6148972522974
250	0xc0a322a0b965fe2c	-2449.3139144776123
251	0xc0a37c8c26212012	-2494.2737284042023
252	0xc0a3dd47458f4666	-2542.63920257315
253	0xc0a444d93cb5854a	-2594.424291298409
254	0xc0a4b42548f16ec5	-2650.072822136661
255	0xc0a52c33c4745434	-2710.1011082032
