robot_pepper/robot_pepper_primitives/bow_respectful_weights.npy (npy, 38528 bytes, 1 tensors)

array f8 [48, 100]
0	0x404c8af8eda9c740	57.085721691035815
1	0x4050fe806ee24365	67.97658893676778
2	0x40553d05cb849f5e	84.95347869826716
3	0x405984dddedcff4c	102.07604190427554
4	0x405c1d389f673626	112.4565809734273
5	0x405d4435a46991ac	117.06577406224704
6	0x405f447578f05298	125.06966994732863
7	0x406138959260497c	137.7682582741362
8	0x4062e2bd07990af7	151.0855749119871
9	0x40649e34c3ae0a48	164.9439409636709
10	0x4066dee4fa27f5e6	182.96545131497186
11	0x4069b024fbbe6fcf	205.5045145720928
12	0x406b960a33e4db13	220.68874544809714
13	0x406babfe6cb35264	221.37480769180104
14	0x406be5e1493f0346	223.1837507467955
15	0x406d78cf00cba3f2	235.77526893399732
16	0x406f54fdc9405360	250.65597975314722
17	0x40706ea3e3ac3c72	262.91501204757435
18	0x4071183ff6b5d3d9	273.51561614061717
19	0x4071b4ff3c86de0a	283.312313582254
20	0x4072465c7ad063f7	292.39757806208166
21	0x4072caf228458971	300.6841204372677
22	0x4073410706cfb0b0	308.06421548012713
23	0x4073a6e37c51a2f9	314.4305384816103
24	0x4073fbead3146867	319.7448302075558
25	0x4074455405775013	324.33301302534636
26	0x40748dbbaea36967	328.8583208449622
27	0x4074bb6c8b724c65	331.71400017402476
28	0x40747ffceaed5b33	327.99924748151096
29	0x4073ee338ac8a4bf	318.8875835263861
30	0x40738acfdac6185b	312.6757457483379
31	0x40738ef0a2a05748	312.9337488425558
32	0x4073f11ff665cbf6	319.0703033424792
33	0x4074957ef373b8c0	329.34349389270574
34	0x4075384c8598b5b9	339.5186820950726
35	0x4075b0fc7ab34d0a	347.06164045371463
36	0x40760e4953e534e7	352.89290227445457
37	0x407666671b356bf7	358.400172432593
38	0x4076c15e70f5a87c	364.08555694542133
39	0x40771fdf178bea96	369.9919658151133
40	0x4077813b5a5325de	376.0769904373136
41	0x4077e6be8da83a4d	382.42152181352577
42	0x4078538beb15f7a6	389.2216597421742
43	0x4078c5f827aab41a	396.3730847042185
44	0x407939b911f38fab	403.60768313542457
45	0x4079afcf4a00517e	410.9881076824603
46	0x407a2ae55d03a46e	418.68099690840506
47	0x407aab6ce7ff4f22	426.71408843736765
48	0x407b31337e538c15	435.0750716460764
49	0x407bbc5ba5674fa5	443.7723745380011
50	0x407c4d31eaad468c	452.82468669591685
51	0x407ce41002e3090a	462.25390900312107
52	0x407d8158e3e2fd22	472.084201704669
53	0x407e2577f831cdcf	482.3417894311396
54	0x407ed0e0e203c2ef	493.05490304440804
55	0x407f84128e55f5e6	504.2545302732309
56	0x40801fc733a19dbf	515.9722664476648
57	0x4080819182d48c8c	528.1960503201858
58	0x4080e3926a198b64	540.4464914317764
59	0x40812e970dd4b262	549.8237568489969
60	0x4081225550198f61	548.291656684578
61	0x4080867e2b91650e	528.8116065367665
62	0x407f26ce9ef1e645	498.4254445504378
63	0x407d2054b61a9ed1	466.0206814803942
64	0x407afeaba1c349a5	431.9169023159432
65	0x40797c4725691063	407.76736966171865
66	0x40784abfb65dc589	388.6718047774271
67	0x40761e0114858e89	353.8752637116491
68	0x4074bb7b8e715d6e	331.7176651409453
69	0x407518e184708f4d	337.5550579449526
70	0x4074a68103e4a5a6	330.40649785342464
71	0x4072bc8f25263dac	299.7849475377832
72	0x4070a97e515f4a25	266.59333932135115
73	0x406d92824f90e6bb	236.57840708066018
74	0x4069d2cf5188d20a	206.5878074333453
75	0x4065ebfd1e80c663	175.37464833403928
76	0x4061d647a7f140eb	142.69624707336274
77	0x405aa8a4c7b019d1	106.63505737492893
78	0x404ccfa495419895	57.62221017554217
79	0xc0326953c65cfcdc	-18.411434552862247
80	0xc057ac0c4d43e5c1	-94.68825084334004
81	0xc058efb7133a5174	-99.74554901785979
82	0xc04bd51415486e1c	-55.66467538868548
83	0xc04b4e3bad90fb8e	-54.61119622782927
84	0xc05739f45c770e07	-92.9055396235127
85	0xc05ef4ea942325e5	-123.82681754524636
86	0xc06144375a5b196c	-138.13175695221742
87	0xc061b17177991af5	-141.54510097411517
88	0xc061107788a376f0	-136.51459152151756
89	0xc05df4a7a8956103	-119.82273306453503
90	0xc051865029a2afa1	-70.09864273917493
91	0x40401ccc4fdcfd1e	32.224985106377275
92	0x40613d9760845645	137.92472864005154
93	0x4064b04d5b9a166d	165.50944309325442
94	0x405cbadf8218a6b9	114.91989185721731
95	0x404a6b5abf176a1e	52.83870686190879
96	0x40324aa7ae24dad3	18.29162109756255
97	0xc024a863a60667d5	-10.32888525798982
98	0xc05106af19ed8c1f	-68.10443733404144
99	0xc05106af19ed8c1f	-68.10443733404144
100	0xc04b10b5ac4b3a30	-54.13054422066887
101	0xc0525df8049640a8	-73.46826281235792
102	0xc05a524296b23428	-105.28531424906453
103	0xc0616c02e61556e1	-139.37535385291906
104	0xc0644739b4abf899	-162.22579415882208
105	0xc065d75617388df5	-174.72925911947064
106	0xc06830ee52e58142	-193.5290922625082
107	0xc06ba99b3063d8bd	-221.30019397259994
108	0xc06f582c9de99cc9	-250.75544639232092
109	0xc071a2a5f39f00fe	-282.1655155383195
110	0xc07437fa396e1eda	-323.4985899259169
111	0xc07779af71f55fe3	-375.6053332886642
112	0xc079bbd4dd3e20bc	-411.7394688059683
113	0xc079f6747c7beb42	-415.4034390297494
114	0xc07a577c9336641f	-421.46791383024714
115	0xc07c3eb9ab2c5b83	-451.92032925917755
116	0xc07e7e75b64d4844	-487.90373830974954
117	0xc08032d6c7892656	-518.3548727717232
118	0xc0810af5073990f4	-545.3696426865922
119	0xc081d6b90fb9849a	-570.8403620236961
120	0xc08297b4a05b4f58	-594.9631964810933
121	0xc0834c4124de3e60	-617.531808601645
122	0xc083f25a3b9a9375	-638.2940589977503
123	0xc084881137fb4091	-657.0084075573997
124	0xc0850da5f4aba526	-673.7060330781721
125	0xc0858eec00754a02	-689.8652352488718
126	0xc086250c7ff15247	-708.6311034062609
127	0xc086aa91bb017359	-725.321157466252
128	0xc086904dd114d965	-722.0379964474529
129	0xc085e34dcdcc8a81	-700.4129901866692
130	0xc08579b605515a7b	-687.2138773303735
131	0xc0859679bd74a471	-690.8094433891948
132	0xc085fd18be59f843	-703.6370818165673
133	0xc0868e9572c67593	-721.822972822631
134	0xc08722b9d774fcb3	-740.3407429828279
135	0xc0879bbfb782979f	-755.468611736538
136	0xc08801e57e488c6c	-768.2370572727064
137	0xc08864b56e5e1936	-780.5885894156879
138	0xc088ca4d3e2fcb8e	-793.2877162679667
139	0xc08933e53fb7471d	-806.4869379347398
140	0xc089a1d67a2d4608	-820.2297252213475
141	0xc08a1394bcc69b39	-834.4476256862755
142	0xc08a87d6bd458094	-848.9798531942238
143	0xc08aff91e11786d6	-863.94623010998
144	0xc08b7cfcf9d87f08	-879.6235234178321
145	0xc08bfff80795566e	-895.9961082140924
146	0xc08c87a984fdedce	-912.9577731931874
147	0xc08d144130064847	-930.5318298807914
148	0xc08da643156e7ecd	-948.7827557213255
149	0xc08e3e15e8a9b342	-967.760697675498
150	0xc08edc1723d8a5db	-987.5112988401046
151	0xc08f80aa187784e2	-1008.0830544793537
152	0xc090161d23b3ffd2	-1029.5284565091029
153	0xc0906f9e3c32f52b	-1051.9045265161647
154	0xc090cd17e4a9600a	-1075.273333212363
155	0xc0912ecfbfc9c61e	-1099.702880051343
156	0xc091950db4e9c551	-1125.2633854414637
157	0xc091ffd72fcfc5c5	-1151.9601433243236
158	0xc0926c5326835e6d	-1179.0812016035445
159	0xc092c891fe390c9c	-1202.1425713457056
160	0xc092e1b075202172	-1208.422321798364
161	0xc092875073738750	-1185.8285654116953
162	0xc091dbe1dd7c24da	-1142.9705714604847
163	0xc0910e08ee35779d	-1091.5087211946732
164	0xc09022d3b10da7af	-1032.7067300923916
165	0xc08ee49ac2c5d2f2	-988.5755668120385
166	0xc08db403ab72f5bb	-950.5017918568841
167	0xc08b9ab31f6ad1b3	-883.3374622674222
168	0xc08a440cd35558d0	-840.5062624614457
169	0xc08a83c725389983	-848.4722389623497
170	0xc089e9df177389f0	-829.2339314485998
171	0xc087dc6cd0e61a9d	-763.5531328179237
172	0xc085a6355b594247	-692.7760531400062
173	0xc083a9b40daedb22	-629.2129167233109
174	0xc081b6067b7f3f43	-566.7531652394467
175	0xc07f690141ccfc70	-502.56280689308824
176	0xc07b414a30ee12ac	-436.080613069508
177	0xc076b5863fbca3c3	-363.34527562796956
178	0xc0707fa5e2cc6482	-263.9779994949423
179	0xc05af43f86c8cf44	-107.81637734995189
180	0x40484c8778d22c52	48.59788427603111
181	0x404c28142b7505a4	56.31311553205458
182	0xc03efeb2041365e4	-30.994903807388155
183	0xc030f8017d5a5523	-16.96877273040185
184	0x4054a59fdd77b92d	82.58788239185078
185	0x40649ca19a646b1f	164.8947269402788
186	0x406aa3878ec120bf	213.11029756279274
187	0x406e742dc5d7671b	243.63058750220156
188	0x4070e2ce7c809375	270.1754117033482
189	0x4072966436018299	297.3994655665388
190	0x4070828430420461	264.15727258480007
191	0x405431ecbacce306	80.78007383354642
192	0xc06287f8b4de417d	-148.2491096821722
193	0xc06ab53e16a7978c	-213.66382916195687
194	0xc05dec9f998b53fa	-119.6972411976457
195	0xc021e54c9a280a27	-8.947850053203252
196	0x404434201c890d11	40.40722996417947
197	0x40451260f52f806d	42.143583915895626
198	0xc0254db0b3212061	-10.651738736909637
199	0xc0254db0b3212061	-10.651738736909637
200	0x3edb4bd9e8388d9d	6.507943570297113e-06
201	0x3edbe505a34d418e	6.65059501588106e-06
202	0x3ed3444133244d88	4.593520133394805e-06
203	0x3ecf28fbb395f0fb	3.7145722699400233e-06
204	0x3edce2138f8cdc98	6.886270278275802e-06
205	0x3ee05527f8a23029	7.788010197872022e-06
206	0x3ed478945ecf6ed4	4.8806700591837405e-06
207	0x3ece97b45d8f471e	3.6469216237810465e-06
208	0x3ecc409f763ac58d	3.367952489196404e-06
209	0x3ecebb9561270170	3.66362906698019e-06
210	0x3ed6f4f480ef7604	5.473340947551641e-06
211	0x3ed5c46e44ee62bc	5.189730542997411e-06
212	0x3ed55406d0c8397c	5.085046052245831e-06
213	0x3ee010bb5c06889a	7.66056007323419e-06
214	0x3eda10e15b5c020f	6.21460406136132e-06
215	0x3ec5784e554f2d48	2.559416922375737e-06
216	0x3edcaf12c0a03bbc	6.838769886398829e-06
217	0x3ee6a99954017309	1.0806320119788255e-05
218	0x3ed75d113f817cf5	5.570303066886779e-06
219	0x3ed500538e16e7c7	5.007094132586675e-06
220	0x3eec1a195dfe3752	1.3400053773950493e-05
221	0x3eea69a789931af7	1.2594562848978234e-05
222	0xbecb2764f85a5008	-3.2369952716691137e-06
223	0xbec346d34f8f0d56	-2.297957163639788e-06
224	0x3ef57b8cd0b2117e	2.048742048234427e-05
225	0x3ee54bb827baeed1	1.0154618613859343e-05
226	0xbf01f2648c746c4e	-3.423089361317325e-05
227	0xbf076251c154b786	-4.460155484263457e-05
228	0xbee2952e726be4dd	-8.86094092099543e-06
229	0x3efce565de534c82	2.7557454718895893e-05
230	0x3f07ca41c716ffdd	4.537595021814032e-05
231	0x3f009a6f5abb248e	3.1668208377030456e-05
232	0xbef1a05093931555	-1.6809682368520058e-05
233	0xbf04fdd0a0414485	-4.0038041362885426e-05
234	0x3e9c5be253130e4e	4.2258087080643227e-07
235	0x3f08b2683440f74e	4.710560327268622e-05
236	0x3f0a1cd6253b6292	4.980591316234186e-05
237	0x3efaca96285c2a4d	2.555022594833761e-05
238	0xbeb1cc781640742c	-1.0608856309054198e-06
239	0xbeecfba9ec9eb70b	-1.3820200724125599e-05
240	0xbef076a17e3ea2b1	-1.5700723352248927e-05
241	0xbeff7919cdd74cc0	-3.0015039433295377e-05
242	0xbf03aba065ff64ff	-3.751834151417311e-05
243	0xbee845e6da9b1eca	-1.1574293995577664e-05
244	0x3ef7d261b0f41f70	2.2718241834445774e-05
245	0x3efe9823a121cff6	2.917699209388499e-05
246	0x3eec2408c67e8d5c	1.341855950426931e-05
247	0x3ee3d9dbf703a5d0	9.465700458527205e-06
248	0x3ee9d7e7defca427	1.232308474603996e-05
249	0x3ee719cfe683e7e8	1.1015333442266449e-05
250	0x3ee37fcd8b5d520b	9.29795747210088e-06
251	0xbec2759edf8b1969	-2.200538571225909e-06
252	0xbeec1817b700a3b2	-1.3396316461537986e-05
253	0xbeed2156f348d35e	-1.389037752473073e-05
254	0xbeed57e905f2312a	-1.3992023182995089e-05
255	0xbef4b33fc380bbff	-1.9741241175260518e-05
