robot_pepper/robot_pepper_primitives/celebrate_weights.npy (npy, 38528 bytes, 1 tensors)

array f8 [48, 100]
00000000: a76c 4a03 61d2 4540 27d6 1749 1edd 4540
00000010: bb9b 4ebc e602 4640 4ce6 fc57 933e 4640
00000020: 03e0 3930 cb57 4640 173c c4bd 0439 4640
00000030: 337a 52f8 31f4 4540 f4c9 8a94 3995 4540
00000040: 5af7 18a4 1748 4540 b651 dc00 2466 4540
00000050: d92f def2 d305 4640 9852 2287 c9df 4640
00000060: 61a2 06a1 94b4 4740 40b5 cd79 3167 4840
00000070: 4ed6 1212 12e9 4840 6347 8dac f93c 4940
00000080: 469c 4ba6 d065 4940 4644 0611 3057 4940
00000090: 6f2b 693d 7e07 4940 7494 591e 588f 4840
000000a0: 858b 03a6 b423 4840 3902 2362 17e5 4740
000000b0: 8647 dbdf 0ac7 4740 75ce 1565 a0aa 4740
000000c0: cc2b 4bb2 a378 4740 20de 21bf 4c23 4740
000000d0: f427 9d38 65a6 4640 4358 72e3 180e 4640
000000e0: 0bf4 85f5 6f75 4540 cd1d bc1a 5df0 4440
000000f0: cb1d d4e9 aa78 4440 9420 36f0 abfa 4340
00000100: e5f2 9354 386c 4340 7989 5005 7fcc 4240
00000110: f233 440b 0b0a 4240 76a4 2e1d bee3 4040
00000120: b7c3 e994 ae52 3e40 c9b2 030b 7226 3b40
00000130: 0819 15ed bde4 3a40 99df 72f3 c9fa 3c40
00000140: 1a0b 1a16 52df 3d40 7506 528a d281 3c40
00000150: e679 3e4c fe70 3a40 a293 6006 9f96 3840
00000160: f079 bab1 73eb 3640 8680 02e5 0546 3540
00000170: e2b7 1a32 348f 3340 50ac 786a 52c0 3140
00000180: fb6f 0730 deb7 2f40 e689 d448 39cf 2b40
00000190: 3fd8 7aba 0ed3 2740 4195 4d66 dace 2340
000001a0: d057 4cfe 1a75 1f40 71f0 783b 9539 1640
000001b0: b7e8 2ccc 5a54 0240 db33 9d2d 5266 01c0
000001c0: 49fa 893d f3f9 15c0 be31 5e93 010e 12c0
000001d0: 3566 dd0a 58ef f0bf 232c 33f7 dc45 c53f
000001e0: a18b 5dcc 6187 f2bf 79bb a767 4194 03c0
000001f0: c357 10f6 a38c 06c0 d636 e779 ae99 05c0
00000200: 4d2c 33a5 ff47 03c0 bc0b 9ed9 c151 00c0
00000210: 953c c9b2 1d00 fabf 64c5 1de3 9b44 f3bf
00000220: 5123 38f2 258b eabf 31db 7263 90be e1bf
00000230: f11a 96cc 98e2 d9bf d074 cdc3 59c1 d6bf
00000240: bb88 9ca9 04bb d6bf c314 4d23 fef9 d6bf
00000250: 0867 fadf 2c34 d6bf bfbf c2f3 4b3c d4bf
00000260: 5946 d802 b71b d1bf 41c2 9fc8 9198 c7bf
00000270: e4c2 dea0 9f9c 9ebf 444e 403b b3fb c53f
00000280: a9f2 8bea e244 d03f 1d81 84bd 24b4 be3f
00000290: 7f8b bd1f 5e83 a2bf d05f 7a0f 333f 97bf
000002a0: aef2 859b 1943 b53f 817b fe94 7819 c43f
000002b0: d0f9 b240 bd2c c83f ded8 a8ee 85e5 c93f
000002c0: ad03 bc27 0d19 ca3f b266 3207 63a9 c83f
000002d0: 3f55 9fba 345e c53f 5b87 085e b891 bf3f
000002e0: 4476 038d 9303 ab3f 228c f70e 98e7 adbf
000002f0: 0a6d 2e21 9e8c cabf da4e decd 7a11 d6bf
00000300: 54f0 3bc9 e734 d8bf cf7a 07d1 0a0a c9bf
00000310: f6a2 34d8 f35c bc3f f6a2 34d8 f35c bc3f
00000320: 556c c511 705e 4dc0 0606 7d27 ef71 4dc0
00000330: c688 ee57 9ea7 4dc0 509e 468e 64f7 4dc0
00000340: c6d3 8ab4 2721 4ec0 844a 4a2e 5e0c 4ec0
00000350: 4598 3069 7dcc 4dc0 2374 37ac e06c 4dc0
00000360: ebbc 9a33 5b15 4dc0 164d 70c5 c30a 4dc0
00000370: ac0c 1d63 bb2f 4dc0 cdfb 04cf c115 4dc0
00000380: 5ae7 3377 80a5 4cc0 1796 9f20 5e18 4cc0
00000390: 0d01 e041 e68d 4bc0 60e3 0b7f 8405 4bc0
000003a0: 1631 8a89 1c7d 4ac0 233e 7b92 cbf7 49c0
000003b0: 5e70 66c3 187a 49c0 6ee2 3bee 9a04 49c0
000003c0: 49c2 9a0d 8491 48c0 d29d 8b9a 1219 48c0
000003d0: e9d0 6238 8997 47c0 f849 b2be d60d 47c0
000003e0: dd87 8270 137f 46c0 ff4e ce65 05ef 45c0
000003f0: 6576 7ca2 0561 45c0 f8f4 199e eed5 44c0
00000400: 9354 54b9 d94a 44c0 8b22 4055 84bb 43c0
00000410: 8008 7c59 5226 43c0 c51f fc2e be8c 42c0
00000420: 7694 084e 6df0 41c0 404e ec90 8f4e 41c0
00000430: ee3e 6e38 e68e 40c0 148c b22e 29cc 3ec0
00000440: b476 cdff 4633 3bc0 fb15 ca3c 11d9 37c0
00000450: 4b0f 845d 9b8a 37c0 6afc b4cd b183 39c0
00000460: fb8f 869d 1fde 39c0 3eb4 c845 f4c2 37c0
00000470: cb7a 5445 bb4d 35c0 5185 1b12 d57c 33c0
00000480: 2d11 08b8 4909 32c0 b723 b562 6aae 30c0
00000490: 731c 1e2b 6fbc 2ec0 b7ef 92c4 1933 2cc0
000004a0: f84f 2d8f 45c4 29c0 54ec 706d e671 27c0
000004b0: 843c cc57 663c 25c0 f1f3 db84 4e22 23c0
000004c0: cde5 2877 c813 21c0 48a6 7e06 dc66 1dc0
000004d0: 4d49 fd6b af0b 16c0 02ca 6843 197f 06c0
000004e0: 364f 1fbb 1610 e8bf 2a4a 8ce7 30d1 f5bf
000004f0: abfd 4cac 083f 0bc0 0256 4222 2959 0ec0
00000500: 6e3e 8a82 312e 03c0 6807 e473 9bbd efbf
00000510: 9efe bb3f 2f7b c8bf b8ab 0787 845b d03f
00000520: 8928 18bf 315b e03f a89a 7cc3 698b e23f
00000530: 73b7 aff9 1ccb db3f 03f1 1f56 2522 b63f
00000540: 17c9 6cb5 d84e d7bf 2d3e f7aa 3bb4 e7bf
00000550: c102 4822 5415 edbf 556a f2d2 0e30 ecbf
00000560: 67db cc1f 2a6c e8bf d59e 348c ed79 e4bf
00000570: edc3 011b 5335 e1bf 2709 55ca f01b ddbf
00000580: 3a31 7027 bf6b d8bf cd6e 19d8 9213 d3bf
00000590: fcee d99e 6230 c6bf f40c 6570 dcb3 97bf
000005a0: 953a a3bd b714 a33f ac17 cca5 7909 acbf
000005b0: b6a8 ebb5 4ce4 c3bf 6bc2 2d55 ebbc c0bf
000005c0: c1cf 41a6 9ec5 a4bf 98b0 7eb1 065c 9a3f
000005d0: f2d8 3b83 14b4 af3f 5725 506f 9f4b b63f
000005e0: f7ad 393e bdbc bb3f 2d9d 75e4 c82a c03f
000005f0: 2a38 26e4 affe c13f 47d4 6c87 5943 c33f
00000600: c9b8 6080 31bd c33f 4fff df08 5cff c23f
00000610: dfb7 77f1 3ea2 c03f 769b df52 3913 b93f
00000620: f0e6 6a97 284c ac3f e7fb 10af 9d56 adbf
00000630: fd16 160a 75d3 cdbf fd16 160a 75d3 cdbf
00000640: bf96 7441 fac9 36c0 c5d1 3236 abdc 36c0
00000650: a2ca df70 f604 37c0 feb7 6587 833d 37c0
00000660: 5b75 79df 7b62 37c0 7f5d 564a ce62 37c0
00000670: 6b8b ef0e 5b44 37c0 4617 2943 7c0b 37c0
00000680: 740b 8956 d3d4 36c0 1d9c ec85 ced2 36c0
00000690: 2b56 152b 1af8 36c0 8d76 8124 4b00 37c0
000006a0: 0184 bb9a bedb 36c0 14ee f216 77ab 36c0
000006b0: 14c9 0b67 ae7e 36c0 e0db 261f 8051 36c0
000006c0: 81b6 68ec 3a20 36c0 dd9d 0543 0fea 35c0
000006d0: e3ee 3c23 f9ae 35c0 03fa 9794 116f 35c0
000006e0: 9bf6 874b 6c2a 35c0 8a01 bf9d 13e1 34c0
000006f0: 9eec c4ab 1a93 34c0 02eb 6e9d 9d40 34c0
00000700: d9b0 eaa1 afe9 33c0 9e57 4585 618e 33c0
00000710: 84a8 1459 d22e 33c0 6ef4 2d1c 20cb 32c0
00000720: e950 8dcf 5863 32c0 ffa0 f582 91f7 31c0
00000730: 1c98 4d21 f287 31c0 2fb4 2631 9814 31c0
00000740: f5ba 040a 5c9d 30c0 f5ab f6a5 6c1f 30c0
00000750: bb0d 5516 e00e 2fc0 b548 b43c ad32 2dc0
00000760: e91e 6168 244d 2ac0 3642 6746 6996 27c0
00000770: 611e d2cd 784f 27c0 0e36 3968 3ce5 28c0
00000780: 9dd7 a455 ef3f 29c0 7761 44a5 0eaa 27c0
00000790: 9cc4 22f2 6ec2 25c0 f996 8e11 094f 24c0
000007a0: 44e8 4d18 461b 23c0 08a1 cb47 eaf2 21c0
000007b0: b55b f4da 1eca 20c0 b25c be45 1a41 1fc0
000007c0: 5787 7e67 91ee 1cc0 55de d2f8 d09e 1ac0
000007d0: 38f3 e985 9c53 18c0 5a3a 24f5 a00d 16c0
000007e0: ee8d 7dbe 87bf 13c0 6390 6c39 d50c 11c0
000007f0: 2134 f9d8 86ec 09c0 da23 ee7a 8e3c fcbf
43.643585597362566 43.72748674072164 44.02266649092004 44.48887157295812 44.68588831735544 44.44545719224714 43.90777496363844 43.16581970955659
42.56322146624616 42.797973735406615 44.04553066109629 45.748337642439935 47.41078579734745 48.806197381442416 49.82086397094518 50.47636944673902
50.79542998020092 50.68115437322608 50.05854003558385 49.119876664867576 48.278950454455334 47.78977610310944 47.55501936156274 47.333019862792675
46.94249561949218 46.27577962068267 45.299964024292336 44.11013453562966 42.91747921982468 41.87784132180568 40.9427158628201 39.958372141293836
38.845469066849354 37.59762636597129 36.078462036421016 33.77923931863272 30.322976405211843 27.150177658465314 26.893523042345834 28.979644027276297
29.872346288069004 28.50711884024209 26.441380276921244 24.58836402757482 22.919734104181714 21.27352744399152 19.559390193484326 17.751257566891866
15.859117031963242 13.90473392099825 11.912221744056408 9.904010006876549 7.864360783967598 5.556233338600678 2.29118880760242 -2.174961429939214
-5.4940919509377375 -4.513677885650791 -1.0584335731895298 0.1661945540457462 -1.1580522521041774 -2.447390374952587 -2.818672106145614 -2.7000398181615806
-2.4101555734864974 -2.0399205209118616 -1.6250283225852276 -1.2042502280931666 -0.829485867580937 -0.55451220916334 -0.40445537547240834 -0.35555118676513775
-0.35516468585604927 -0.3590083451020513 -0.34693452713837347 -0.316180217788311 -0.26731658246817386 -0.1843435506448419 -0.02989434642194312 0.17174377816319197
0.2542044916624869 0.11993627192396557 -0.036158505796968214 -0.022702024287894862 0.08305511519388162 0.15702731394864247 0.18886533412110262 0.2023169913606528
0.2038895076766755 0.1926692757740987 0.1669374381296311 0.12331726356253851 0.05276166054111944 -0.05840754683210771 -0.2074163114565198 -0.34481687645278003
-0.378229090230666 -0.1956189652109601 0.11079334286172213 0.11079334286172213 -58.73779508724025 -58.890110908552785 -59.30951975962812 -59.932756218415875
-60.259024207865465 -60.09662417056555 -59.597577236869746 -58.850606467320425 -58.16684575133862 -58.0840994642587 -58.37290610235627 -58.16997707122173
-57.29298296007501 -56.19037254135417 -55.10858939588261 -54.04310596542814 -52.97743338821071 -51.935900030305014 -50.95388071538831 -50.03597810672805
-49.136842442098505 -48.19588023965083 -47.18387512993815 -46.10811599450602 -44.992780746207906 -43.86735222409879 -42.75798445775289 -41.67134453074863
-40.58476940744108 -39.46497598296727 -38.29938810879048 -37.0995539408755 -35.87833571833555 -34.61375628984797 -33.116400770026175 -30.797503393736477
-27.200302112257035 -23.84791927274453 -23.541433186284205 -25.514431816755327 -25.867669911720423 -23.761539803981798 -21.30363877594463 -19.487626201361596
-18.036281110734468 -16.681310815070642 -15.368035647798228 -14.099805968224116 -12.883343195229813 -11.722461147341313 -10.61796831482048 -9.56700530228588
-8.538638805143728 -7.350448705177378 -5.511411368688937 -2.8120599047044843 -0.7519639639599294 -1.3635720295757303 -3.405778261279655 -3.7935354877943164
-2.3975553701819114 -0.9918954146853425 -0.19125929462460517 0.2555857962276451 0.5111321193992505 0.5795182054615298 0.4342720449775392 0.08645852425246763
-0.3641874095657313 -0.740751108090938 -0.9088535947376714 -0.8808664436395001 -0.7632036801431753 -0.6398837793721791 -0.5377593543508944 -0.4548303581142527
-0.381576336397092 -0.298069678339499 -0.17335160023127816 -0.02314705310824379 0.037267438792345654 -0.05475978993312877 -0.15540465243186014 -0.1307653585349898
-0.04057021884446455 0.025741676886966575 0.06192077733969538 0.08709141223530047 0.1083486821095717 0.12630568652387222 0.14058493270971556 0.15049285042337798
0.15421122330139372 0.14841795380925268 0.1299513510743386 0.0979495837524221 0.05526854370459755 -0.057301452274707114 -0.23301566116804642 -0.23301566116804642
-22.788974848712993 -22.861987483412822 -23.019385389935117 -23.240288221677467 -23.384702651169714 -23.385960241399058 -23.267014440043038 -23.044864842922173
-22.831349762399853 -22.823463793054646 -22.969149296483163 -23.001146585089874 -22.858377142696558 -22.66978591376217 -22.494848671319303 -22.318361231791528
-22.125899100842165 -21.914295376654866 -21.683489038826234 -21.4338620062863 -21.16571495122353 -20.87920556939347 -20.57462571675989 -20.25240501363715
-19.91283618907696 -19.55617554610182 -19.182897155326387 -18.79345871087974 -18.388073894501677 -17.967064080207816 -17.531038361972705 -17.080447265576534
-16.614685655741557 -16.12275159141787 -15.529053399927639 -14.59897794438107 -13.150668393950996 -11.793771934609236 -11.655218536280872 -12.447726494773658
-12.624872852680534 -11.832142986867195 -10.879752699607984 -10.154366062789892 -9.553269156942527 -8.974443667990741 -8.39476665718926 -7.813576783889561
-7.232976548288057 -6.655094039793387 -6.081651775745563 -5.513309316955736 -4.937041260159715 -4.262532136203023 -3.240491576294986 -1.7647843172037398
