robot_pepper/robot_pepper_primitives/old_point_left_weights.npy (npy, 38528 bytes, 1 tensors)

array f8 [48, 100]
0	0xbff15b6f477803fb	-1.0848229209661884
1	0x4019c56f3a061990	6.442807108518892
2	0x4033e70f6a446351	19.902578965851095
3	0x4041128d32a26ffb	34.14493401462092
4	0x4047ce7ed77d6a05	47.61324590324151
5	0x404e3543d07e14a5	60.416132031977476
6	0x40521a1d57414605	72.40804082273833
7	0x4054d38064b2ac51	83.30471150826021
8	0x405731ede73b4185	92.78014546190941
9	0x40591efacbadd92e	100.48405734994296
10	0x405a83b4a9f28559	106.05790184673005
11	0x405b4e66156f4e50	109.22498069638937
12	0x405b856a2f3fc0d8	110.0846059916106
13	0x405b5cd004cf996f	109.45019645951628
14	0x405b1f7c797d1976	108.49197232453102
15	0x405af0943440f4d7	107.75904566138648
16	0x405abfc5757197c6	106.9964269265466
17	0x405a752a9e66a6f0	105.83072624230022
18	0x405a07d552f27d9b	104.12239526444175
19	0x405977d910b22f8e	101.87262360955194
20	0x4058c775d0b97b5d	99.11656587708917
21	0x4057f93b7349b3df	95.89425356099626
22	0x40570fd32d099c09	92.24726415575437
23	0x40560e017daf8f1e	88.21884100098075
24	0x4054f6ab0b0ec720	83.85418964808605
25	0x4053ccd8f375c6ed	79.20074163915315
26	0x405293bcb9f0e205	74.3083939411518
27	0x40514eb405a53de0	69.22973767411122
28	0x4050014c5a21587d	64.02028516060268
29	0x404d5e8dc7d8b5b5	58.73870180207761
30	0x404ab938ea3b64ba	53.44704940700599
31	0x40481b037d87ff3f	48.21104401722413
32	0x40458cd7b7320a5f	43.10033311789879
33	0x4043182a73f3cb6c	38.18879556087526
34	0x4040c705e18cd836	33.55486697556664
35	0x403d482a4d0dbb88	29.28189546189563
36	0x403975623879e4d4	25.45852997756886
37	0x40362ddc85d0b373	22.179146159603487
38	0x40338b57c255dceb	19.544307847941052
39	0x4031a93e8bb11f6a	17.661110621207094
40	0x4030a4273b81c3c9	16.641223639660698
41	0x403094d5019dbc44	16.581375218400595
42	0x40317b698224ec3d	17.482078680052144
43	0x40331c6528ed9c38	19.110918577204046
44	0x403508c7a9e8ef7d	21.034296626442927
45	0x4036f161908de358	22.9428949686438
46	0x4038d54adc7f0ed0	24.83317354299544
47	0x403acf36653813bc	26.80942375773496
48	0x403ce72e68f9dcce	28.903051911355583
49	0x403f142020409c3a	31.07861520364188
50	0x4040a3925777495f	33.277903493161595
51	0x4041b7ba5c031470	35.43537473822005
52	0x4042bd70e4a68325	37.48000772600634
53	0x4043aadb406a3dd1	39.334816028476446
54	0x404475436262c5a0	40.916118906239035
55	0x404510fd47bab93c	42.13272949807512
56	0x404571493fd5343c	42.885047892669235
57	0x4045883260a67e6e	43.064037400527795
58	0x404546685bc1eed1	42.55005976647738
59	0x40449b13d998160d	41.21154327322083
60	0x404373a5bb15b19d	38.903495202629735
61	0x4041bbbb56978c21	35.466654609678024
62	0x403ebc4bd16e0bbe	30.735531892172496
63	0x4038982434a893f4	24.59430245509789
64	0x4031227886b763a5	17.134651584408534
65	0x40218f319f738fb5	8.779675467354403
66	0x3fa1c7c4fbf71f69	0.03472724509953091
67	0xc021db6f00794dfd	-8.928581251914688
68	0xc0323d3b5c9f51cc	-18.239187039276473
69	0xc03c047bf764c0e1	-28.017516576860434
70	0xc04323603489d561	-38.27637345056679
71	0xc0487cbef436b224	-48.974577452380146
72	0xc04e06eeaea1069b	-60.054159000993614
73	0xc051dca5ab9f80e8	-71.44761171890752
74	0xc054c4ed3aa63d80	-83.07697931513212
75	0xc057b680f44cd732	-94.85162074569669
76	0xc05aaa957790f7ff	-106.66537274510482
77	0xc05d992687d8d270	-118.39297672437692
78	0xc0603c56216cf190	-129.8855139854245
79	0xc0619edd2f5904de	-140.96450011621977
80	0xc062ed40a87a4144	-151.41414283636016
81	0xc0641f12da1d32f0	-160.97105127051282
82	0xc06529ee793e830b	-169.3103605481086
83	0xc06600dae33dbe8c	-176.02671968516768
84	0xc0669372f8d315a5	-180.60778466441585
85	0xc066ccb06ca9876d	-182.39653618918547
86	0xc066912b42df6bcf	-180.53653091084422
87	0xc065bc7e02b39e32	-173.89038214761382
88	0xc0641d4740bb3683	-160.9149478584769
89	0xc0616ed988382529	-139.46405421224452
90	0xc05a9dc3daac18ec	-106.46507899099714
91	0xc04caedd8f1da2b7	-57.366136445494185
92	0x402db42c976a53a6	14.851902705888119
93	0x405e5d3172cbac28	121.45614309205905
94	0x4071825d494a8d75	280.14777497408005
95	0x407fc6f6c93fe6b1	508.4352505203379
96	0x40882932a9347890	773.149736795358
97	0x408b81edf2a72d77	880.2411854801893
98	0x407082e0f7d3480b	264.17992384464077
99	0x407082e0f7d3480b	264.17992384464077
100	0xc04a9bd6edae35fe	-53.21749659544365
101	0xc051193b281ce3c6	-68.39423563786758
102	0xc05513d7fd17f141	-84.31005790079236
103	0xc0587ec324aa7db7	-97.98066059731978
104	0xc05bbbd740126a68	-110.93501283453372
105	0xc05ed0fb81d33e6e	-123.26535077695164
106	0xc060d7ed9dc6e526	-134.74775589796735
107	0xc0622375343c2b6c	-145.10805713416937
108	0xc06341ea1b23f6a7	-154.05982739471548
109	0xc06429e434791898	-161.30910705234123
110	0xc064d207cdf4a665	-166.56345269950103
111	0xc065333f492c4877	-169.6014753212837
112	0xc0655031fa536949	-170.50610080996765
113	0xc0653ddebf8ca4e8	-169.9334409472424
114	0xc0651a7458276adb	-168.82670219134056
115	0xc064f44fdfe0a71f	-167.63475030782226
116	0xc064c54cf441ec41	-166.1656438148075
117	0xc0648449baa45ff0	-164.13400013069577
118	0xc0642e2621daa0fb	-161.44215481472915
119	0xc063c36238a3285f	-158.10573989741076
120	0xc06345636db320e6	-154.1683872698406
121	0xc062b5b640c6f37d	-149.67849768502847
122	0xc06215f8a07180dd	-144.68659994286182
123	0xc06167dafc0eccd8	-139.24548151865633
124	0xc060ad2296df9ad7	-133.4104723326952
125	0xc05fcf5774c6e7da	-127.23971290039427
126	0xc05e32d7a36e5d37	-120.79441152360674
127	0xc05c88e708e693dc	-114.13910124318448
128	0xc05ad5e1be8c2731	-107.34190334021402
129	0xc0591e6329c99e26	-100.47480244340167
130	0xc057674ac8e29e82	-93.61393949633387
131	0xc055b5c1544af956	-86.83992488214184
132	0xc0540f3e4a411254	-80.238176883265
133	0xc052798df33345aa	-73.89928894049686
134	0xc050fad7eb5faf3a	-67.91942867607295
135	0xc04f334c932cea30	-62.400774380618145
136	0xc04cb9dadcf38ec2	-57.45199167149032
137	0xc04a982928e88def	-53.1887560973663
138	0xc048ddfe35788d47	-49.73432033907243
139	0xc0479c27a080c8aa	-47.219959319002854
140	0xc046e436aa357079	-45.78291823968261
141	0xc046c5cb4f0c84d4	-45.5452669917228
142	0xc0474345cea7ac90	-46.5255678480836
143	0xc0483ebffc394ae5	-48.49023392484177
144	0xc0497e7ce386c237	-50.988186302948115
145	0xc04ada40844f683f	-53.705093897603085
146	0xc04c549b5547540c	-56.66099039061382
147	0xc04dff5e5314385d	-59.99506605613053
148	0xc04fe275f3e869a1	-63.76922463272354
149	0xc050fe63fa140129	-67.9748521037442
150	0xc052252f2d16340c	-72.58100440185825
151	0xc053634b0c6b0fde	-77.55145559745094
152	0xc054b63540f60306	-82.84700035118667
153	0xc0561b374662720c	-88.4252487145788
154	0xc0578f5f6fa3549b	-94.2401999564194
155	0xc0590f79422b89f1	-100.24177603008117
156	0xc05a9805128f4d87	-106.37530960077684
157	0xc05c252ea9a0dada	-112.58097305973516
158	0xc05db2c2af41baf0	-118.79313260477988
159	0xc05f3c22a09904c6	-124.93961348479488
160	0xc0605e1ba7c0434b	-130.9408758883604
161	0xc06116b3c8ab53cc	-136.70944627249116
162	0xc061c4e725077a38	-142.15321589909013
163	0xc0626663d6c5f299	-147.19968737279558
164	0xc062fbad283a7c00	-151.86488734648447
165	0xc06389d5b82d0e28	-156.30733879852164
166	0xc06416fcdbff3682	-160.71836662145876
167	0xc064a473f659ba1f	-165.13915555500805
168	0xc0652f30ba4e31bd	-169.47469821235964
169	0xc065b41d82f7aacb	-173.6286024892091
170	0xc066317630f13e0a	-177.54567763440747
171	0xc066a5feb9223550	-181.1873441379671
172	0xc0671072dae1e819	-184.51402038690938
173	0xc0676f5ef16320e8	-187.48033971177142
174	0xc067c112fa91044f	-190.03356674502945
175	0xc068039652b54a99	-192.1120999852035
176	0xc068349855a7fc3f	-193.64359553155552
177	0xc068515cb9e65b8d	-194.54256911269877
178	0xc06856a242ae7321	-194.70730718681537
179	0xc0684081db406b50	-194.01585161764024
180	0xc0680a435b3ac835	-192.320722212609
181	0xc067ae23fe5f8e9e	-189.44189375556465
182	0xc0672508c170af0f	-185.1573188019615
183	0xc0666613fa66ed9f	-179.18993873694578
184	0xc0656610f746b498	-171.18957103547723
185	0xc06416a109069f8e	-160.7071576241837
186	0xc062650904beb545	-147.15735089538262
187	0xc0603868e321ab39	-129.762803617248
188	0xc05ade0210a14c32	-107.4688760352299
189	0xc053b3c3d9e68d37	-78.80882880701834
190	0xc044d76724ea7706	-41.68283521126254
191	0x401c14298d6ad579	7.019689759870169
192	0x4052060d12aa1136	72.09454790695312
193	0x4064274187bb98a7	161.2267492927542
194	0x4071e41820640a71	286.2558902652591
195	0x407c88d1d070bfa9	456.55122417490435
196	0x4083efef67858ff8	637.9918966707764
197	0x40851e13205927ca	675.7593390431659
198	0x405d30a4b32b2425	116.76005248272902
199	0x405d30a4b32b2425	116.76005248272902
200	0xc00ea05ac6176d13	-3.8282981372736997
201	0xc00d4bea99b31d39	-3.6620685584818173
202	0xc0044b1cfe99dfe9	-2.536676396437532
203	0xbff0542de31f9c68	-1.020551573945136
204	0x3fe152bfca10cb7b	0.5413512178987355
205	0x4001572c37e118d5	2.1675648084229615
206	0x400eeb2a87561317	3.8648272107260584
207	0x40167ed9a57ae345	5.623877130151247
208	0x401db90ef0622977	7.430721050254184
209	0x4022899f00bd30b1	9.268791220755107
210	0x40263d2f627ff0db	11.119502142064837
211	0x4029ecd3f0767c90	12.96255446859712
212	0x402d8d5fed807ff4	14.776122495590222
213	0x403089765b1ae3da	16.536962217392876
214	0x403238704470233e	18.22046306359993
215	0x4033ccf7fd47475e	19.80065901746945
216	0x4035400dc9561d0c	21.250210364841266
217	0x40368a5539ba0a6d	22.540362937851047
218	0x4037a4115ee4f9b4	23.640890055563162
219	0x403885200c7cee50	24.52002027559348
220	0x403924f456085b44	25.14435327247635
221	0x40397a916e769f06	25.478781608543635
222	0x40397c99528e6bc4	25.486714515467398
223	0x40392225d0c721d9	25.133389519325508
224	0x4038678bdd4f0305	24.40447791270255
225	0x40375a8dabb36998	23.35372422342479
226	0x403621a8da51da56	22.13148273943292
227	0x4034e6003a7f27f8	20.89844098667524
228	0x4033b5324349f081	19.7077982001797
229	0x403287b0949f82cc	18.530038155501458
230	0x4031583149863d81	17.344502063058375
231	0x4030299316c7f3d6	16.162400649849438
232	0x402e04d7b8a2fc53	15.009458322425564
233	0x402bd4b6a361d501	13.915455918972386
234	0x4029d3039b2deb89	12.912136887889362
235	0x402810f930518220	12.033151159238571
236	0x4026a0e20a168abb	11.31422454381151
237	0x40259631a4ea50b4	10.793347505190788
238	0x4025059e4377050d	10.510973079947258
239	0x40250534c2218183	10.510168139066769
240	0x4025abfb6bbf5d88	10.835902564153699
241	0x40270e383f7ae5dd	11.52777288794726
242	0x40292de41231dab6	12.589630669198737
243	0x402be080682b983a	13.938479667016612
244	0x402ed52ec6c7d25d	15.416372501270581
245	0x4030e98294f87c67	16.912148771920695
246	0x40326de919ba0055	18.429338081274484
247	0x4034031d797cc273	20.01216849609268
248	0x4035ad92d89572a4	21.678021942602427
249	0x40376b73972dc034	23.419732521695735
250	0x403938dcaf23919a	25.222117372688082
251	0x403b115b61d36dfd	27.06780063068253
252	0x403cf01e72490abe	28.937964575607786
253	0x403ecfee8b017b80	30.812233627187652
254	0x40405590a224a669	32.66847636022141
255	0x40413dc5661d3141	34.48258663583193
