robot_pepper/robot_pepper_primitives/think_weights.npy (npy, 38528 bytes, 1 tensors)

array f8 [48, 100]
18.286878305930045 17.74207384615386 16.775751911786454 15.772106086874727 15.177139555243658 14.819813256298744 14.176910029166846 13.26570354020963
12.314972076599174 11.364798276784652 10.396694983715342 9.46761799803603 8.803076689929004 8.743569823760941 9.291376460305012 9.884861606201456
10.020709860022535 9.652409023255528 8.820215648545776 7.701294311700539 6.97871778234491 6.831309907607483 6.426257769991727 5.487759553615345
4.496863418090932 3.664449248350294 2.9499040444540365 2.329808816218826 1.811332174663596 1.4074621926442608 1.1023981506118763 0.7591399179664106
0.18827362073237075 -0.28485971322954984 0.1326382373578425 1.0965688985114093 1.4582978335364638 1.210176785088031 0.9359856943426771 0.7706831608530154
0.6173801186589213 0.4046962491589973 0.1974202357750738 0.17051742196201736 0.23551347246797613 0.2158549025788166 0.2385560223603195 0.3038953436026142
0.26793114906674553 0.18537466991707138 0.13417471960860813 0.1073960878712021 0.08688263837342355 0.06822343806297726 0.05165464896987034 0.03646087899083405
0.02249693312637178 0.011372330927653619 -0.0002128124782158491 -0.02203228426199647 -0.05490475951607989 -0.0690074845626502 -0.0415125467671773 -0.012059741556811044
-0.014495470380878214 -0.028177159765219013 -0.03542034294110102 -0.0371533878326872 -0.037201548911003746 -0.03912820791125585 -0.04278661547219895 -0.04288922907873129
-0.03732308784103782 -0.030733678297292347 -0.0263253775201268 -0.022486493558909443 -0.0177695724441868 -0.013203676632497325 -0.009215853102747014 -0.004237288130338182
0.002326417725029974 0.008739629111155549 0.013573359151556245 0.017561770131248367 0.02148866462290944 0.024520355157471488 0.025848250497919795 0.027093638005546282
0.029334070969509473 0.02970410821846955 0.02629998312492495 0.019517055202880756 0.0060873042656346054 -0.018630228720772756 -0.050172722020544055 -0.07503763331734746
-0.07834074076223094 -0.045833537995228185 0.03581094575415114 0.03581094575415114 9.64562943442868 9.492944066356927 9.177211321227318 8.802568097775694
8.535861051005455 8.341360863168289 8.048921912044712 7.657383396325988 7.239765344205911 6.8102932535945735 6.362046083353157 5.902307524289167
5.468656206008153 5.136476963283787 4.9641945990861736 4.914409237418624 4.879103654023282 4.744313237924183 4.392528981267227 3.8897433832435437
3.6638213798895247 3.7967913045421975 3.730229026418697 3.2957851088620096 2.809847174406068 2.400485956593029 2.034019235684861 1.6934400232671167
1.3838661418103655 1.1133722520953422 0.8773880207499936 0.6175959375483262 0.24258814712258017 -0.08425636141429353 0.07189920415463254 0.5543872846946187
0.7424954895738061 0.615133697006883 0.482144193009682 0.41311645336867475 0.3465677299342731 0.23568374811126866 0.12104356084556471 0.11321212306288923
0.15933654324895255 0.1493668063563265 0.15965581944703078 0.19512447132856234 0.1725552024843766 0.1234053612879956 0.09264631532370712 0.07634033798260195
0.06415780839117809 0.05323544038605736 0.04327894887774464 0.03417725664859109 0.02584429261937482 0.01836799259790559 0.010378270000475436 -0.0027964962072556257
-0.022186753743193413 -0.03115135199951054 -0.016280516179786812 -0.0005885814228643529 -0.0034912001325275565 -0.01235231067038678 -0.017028076523139243 -0.018769195990950133
-0.01964416778102246 -0.020550247686570544 -0.02180302986204536 -0.022741288832131747 -0.02257340916679844 -0.021625081860366258 -0.020808725351865075 -0.020142846234987483
-0.018387820196956214 -0.01537526279534795 -0.012964533356364981 -0.011631106297966829 -0.010073654592611683 -0.007952925696794162 -0.00577900518218981 -0.0038129138084566265
-0.002035706117130814 -0.000488222653650117 0.0006567968007329541 0.0014543699988644966 0.0021176891385795787 0.0023142057899849756 0.0014732621269432393 -0.0006031955440191488
-0.004197974188211469 -0.007903195489162641 -0.0028773423102892116 0.021329000576294704 0.04840801195485833 0.04188315159123226 -0.008710857193552659 -0.008710857193552659
-0.006106487737774551 -0.006131453502793777 -0.00616867846985185 -0.006210847221955559 -0.006261970851339832 -0.006320522765261137 -0.006376968615497925 -0.0064275166807763184
-0.006473851918326682 -0.006522737557483386 -0.006581849373464613 -0.006666901585269862 -0.006842533223360873 -0.007222404435787247 -0.007834216049492882 -0.008515030091613827
-0.009064882025845713 -0.009418486771329485 -0.009591652398701694 -0.009502003380611466 -0.008931596687692805 -0.007940468809436768 -0.006919280353922307 -0.005987620681986404
-0.005008015878364347 -0.003958609158463068 -0.0029024731541055305 -0.0018946521986953515 -0.0009633454582130861 -0.00012003136589699988 0.0006374830653033616 0.001393372360460361
0.0022898207185577373 0.0029254236115580172 0.002290023350413609 0.000775862505512525 -4.5410292704159115e-05 6.3106308110030665e-06 0.00018523534266052066 0.0002095108505826238
0.00015529120293412827 0.00011822370496795242 0.00010062481828987884 2.9402316615264504e-05 -8.548098861961095e-05 -0.00014522399898228783 -0.0001234967837214496 -7.790686895833791e-05
-6.091768956637976e-05 -6.793354757276236e-05 -7.269779713958077e-05 -6.569773120619712e-05 -5.119671605135027e-05 -4.927093260141145e-05 -5.976698234627968e-05 -6.056573356914985e-05
00000000: c4e6 4ddb 7049 3240 a172 348d f8bd 3140
00000010: abee 62ad 97c6 3040 c756 307d 518b 2f40
00000020: f132 2909 b25a 2e40 c042 2990 bea3 2d40
00000030: 4736 8bf3 935a 2c40 7943 5f4b 0a88 2a40
00000040: 174b 2005 44a1 2840 bfda f8d6 c6ba 2640
00000050: dc16 db9a 1bcb 2440 e62b 51a0 6bef 2240
00000060: 9ad9 2ede 2c9b 2140 03b1 162f b57c 2140
00000070: 25ab 9f4b 2f95 2240 193e 9894 0cc5 2340
00000080: c800 977b 9a0a 2440 dffe 348e 084e 2340
00000090: d457 344e f3a3 2140 a37f 9618 20ce 1e40
000000a0: 7abd 8cfe 34ea 1b40 470f 88e7 4253 1b40
000000b0: 161f b7ea 7cb4 1940 9d5b 8c3d 77f3 1540
000000c0: 081e 8dc3 c9fc 1140 5f21 7cc4 ca50 0d40
000000d0: 4f25 aa4a 6799 0740 19bd fccd 72a3 0240
000000e0: 99f6 4572 37fb fc3f 8237 7c13 f784 f63f
000000f0: 42c8 403e 6ca3 f13f 971f 18cc df4a e83f
00000100: 785d df99 5919 c83f ec34 113c 243b d2bf
00000110: 9754 d32d 4afa c03f 0aad 4ed4 8b8b f13f
00000120: 44de ed1b 3055 f73f e14d 2555 e25c f33f
00000130: 8738 5745 98f3 ed3f a821 6ebb 6fa9 e83f
00000140: bde6 5af3 93c1 e33f a7e9 bc18 8be6 d93f
00000150: 8f7c 1cf8 1045 c93f f8cf 5ccf 83d3 c53f
00000160: a738 0233 4e25 ce3f a9ee a029 22a1 cb3f
00000170: d594 26f5 0089 ce3f a983 8b74 0573 d33f
00000180: 6091 b4b0 c825 d13f 9b7a 6670 5bba c73f
00000190: e39f 5520 a32c c13f 2d0a 205d 4f7e bb3f
000001a0: be6f 67ca f03d b63f 6819 4d5b 1777 b13f
000001b0: bb1e 0668 7a72 aa3f 1fb6 b215 00ab a23f
000001c0: bbfa 26a0 6f09 973f 67f9 4e6b 604a 873f
000001d0: 1316 ab44 cde4 2bbf 0920 7291 a18f 96bf
000001e0: 8359 0805 7a1c acbf eb34 6079 79aa b1bf
000001f0: 7f36 7aed 2141 a5bf 5a7f ad1c c7b2 88bf
00000200: 98dd ce19 cdaf 8dbf d23d be2e 79da 9cbf
00000210: b71b 177d 9d22 a2bf 339f 5ad3 c405 a3bf
00000220: 38da ddd7 140c a3bf e4ec a8ca 9c08 a4bf
00000230: fcb9 5194 20e8 a5bf c3d3 7cb8 93f5 a5bf
00000240: c773 5303 031c a3bf a1cc b03c a678 9fbf
00000250: ace3 032e 0af5 9abf 68b9 bf09 b306 97bf
00000260: 2df7 0bd2 2f32 92bf bd99 967a 870a 8bbf
00000270: 57c4 72dd c2df 82bf 76b4 185f 1e5b 71bf
00000280: 3782 7701 da0e 633f 3c52 b129 15e6 813f
00000290: 4fed 386d 59cc 8b3f 1d8c 7e71 b6fb 913f
000002a0: 2112 29df 1f01 963f 3459 f32d dd1b 993f
000002b0: b584 30ba f677 9a3f 5668 a744 6fbe 9b3f
000002c0: a3ed e32d c009 9e3f 17b2 6bf5 c06a 9e3f
000002d0: 96ab a0fd 61ee 9a3f cb0d 3e67 47fc 933f
000002e0: d702 de4b 00ef 783f d376 4a7c cd13 93bf
000002f0: b685 7530 3db0 a9bf 1f37 1195 aa35 b3bf
00000300: 7ea8 8487 230e b4bf a4bb 7f55 7e77 a7bf
00000310: 84b0 b4f1 cf55 a23f 84b0 b4f1 cf55 a23f
00000320: 8d69 f4f0 8f4a 2340 4085 272a 63fc 2240
00000330: f84d 3a71 bb5a 2240 e284 a934 ea9a 2140
00000340: 8889 3261 5c12 2140 5fe2 ded9 c6ae 2040
00000350: 6494 f84a 0c19 2040 369d f01c 29a1 1e40
00000360: 7550 e00b 85f5 1c40 b96e c183 bd3d 1b40
00000370: 3896 5e35 bc72 1940 dc06 ef80 f69b 1740
00000380: 657d 9769 e7df 1540 54d8 f79d c08b 1440
00000390: 4438 38d4 55db 1340 407e 27e5 5aa8 1340
000003a0: e04b 8fbf 3384 1340 f974 db3f 2dfa 1240
000003b0: 8919 051e f391 1140 46e8 66c7 311e 0f40
000003c0: bc16 6895 814f 0d40 a2f7 951e d45f 0e40
000003d0: 3e77 d850 82d7 0d40 28a6 4995 c45d 0a40
000003e0: 14a8 c627 917a 0640 3d98 30fb 3134 0340
000003f0: 759c 85e0 ab45 0040 47b7 da90 5418 fb3f
00000400: 20e0 d1d2 5024 f63f b15f 306c 5fd0 f13f
00000410: a0bf e00a 9013 ec3f 5c33 3d8e 58c3 e33f
00000420: b9f4 24df 200d cf3f e31c c12c d391 b5bf
00000430: e5db 737a fc67 b23f b49c 2267 8abd e13f
00000440: 46b4 a4e6 85c2 e73f 04fd e9dc 2caf e33f
00000450: 91b4 3b51 73db de3f 221c 2afe 7f70 da3f
00000460: 9caa 7a6a 2a2e d63f bb15 2b93 e22a ce3f
00000470: 331c 39f7 b5fc be3f abda 103e 78fb bc3f
00000480: aded 27cd 2365 c43f 0846 3496 731e c33f
00000490: d80e 9215 9a6f c43f 13b3 80b3 d6f9 c83f
000004a0: 3868 b6f3 4916 c63f a70c e266 7e97 bf3f
000004b0: 8e04 693e abb7 b73f 7e38 0057 0a8b b33f
000004c0: 95b9 d268 a56c b03f 067e e4f6 ac41 ab3f
000004d0: b001 128c a828 a63f 9438 256f ae7f a13f
000004e0: a097 5a1e ed76 9a3f e933 011e 0fcf 923f
000004f0: c9c5 edd1 3341 853f e216 1d78 ade8 66bf
00000500: b4f9 ecd6 1fb8 96bf b59e 41d8 23e6 9fbf
00000510: ce7b 37f2 d6ab 90bf c588 2afb 6049 43bf
00000520: dc6d 93cc 9399 6cbf 41ef df12 2b4c 89bf
00000530: 8c67 1fdf ce6f 91bf b539 d06b 3b38 93bf
00000540: 10de b4c8 991d 94bf a03e f4c6 1f0b 95bf
00000550: d243 d890 8853 96bf 572a 360f 7e49 97bf
00000560: ccc2 85d8 7b1d 97bf 7d52 74ad e224 96bf
00000570: a34a 6eeb e14e 95bf b57d 4f87 53a0 94bf
00000580: ec07 90b9 41d4 92bf 3dc6 fcd6 107d 8fbf
00000590: d91a 3036 268d 8abf 051b 54a9 0cd2 87bf
000005a0: 8834 3608 7fa1 84bf b7b5 339e 9f49 80bf
000005b0: 32ba 2ce4 b9ab 77bf 2a62 8383 423c 6fbf
000005c0: 59a4 5066 2fad 60bf 07c8 a154 04ff 3fbf
000005d0: 87f8 be63 9c85 453f e7c3 35e5 11d4 573f
000005e0: 1343 fcb2 1d59 613f f6f5 e4c5 3df5 623f
000005f0: 8c82 d529 4f23 583f 7561 3c91 f8c3 43bf
00000600: 22ac 901d e531 71bf 875e 47f1 8c2f 80bf
00000610: b627 e863 3992 67bf 7be8 b9ff 44d7 953f
00000620: d0c5 6b58 efc8 a83f f3ed ac5c b571 a53f
00000630: aea8 2176 ffd6 81bf aea8 2176 ffd6 81bf
00000640: f9df 08d2 1d03 79bf 94d5 5784 4b1d 79bf
00000650: 31d1 9904 5444 79bf 2316 2e9b 8b70 79bf
00000660: fa7a 3d00 27a6 79bf cb70 2069 8ce3 79bf
00000670: ce3d 6b7a bc1e 7abf e0cd 035f bd53 7abf
00000680: d133 4b64 5384 7abf b725 d607 96b7 7abf
00000690: f74f e6bc 91f5 7abf 1fe1 63c4 c04e 7bbf
000006a0: 4476 a886 ea06 7cbf 7762 9a6d 3d95 7dbf
000006b0: 0d6a c7ad 620b 80bf 4cbc 24fe 5370 81bf
000006c0: 21ae bede 9b90 82bf b50c 49e5 ff49 83bf
000006d0: 23aa efca c9a4 83bf 7f31 214e c975 83bf
000006e0: 70ca 659d ba4a 82bf 3dbf cfae 1743 80bf
000006f0: 7fac 4f2d 6457 7cbf d8e5 28b0 7986 78bf
00000700: 3393 a506 4983 74bf b5cf f80d e736 70bf
00000710: 12e5 c768 edc6 67bf 4ea4 c34e bf0a 5fbf
00000720: 1d6c 6f9e 2091 4fbf 05a0 012a 2b77 1fbf
00000730: c4d9 6775 98e3 443f 8576 092e 3ad4 563f
00000740: bc73 3223 1ac2 623f 1383 a2d7 0ef7 673f
00000750: ee10 b5ec 86c2 623f 93e7 2e0b 686c 493f
00000760: 3a9e cac6 ddce 07bf ee9f 23fd fc77 da3e
00000770: 8bb8 427a 7747 283f 5ebf b880 0476 2b3f
00000780: cc81 a246 b55a 243f eb01 2ac9 dbfd 1e3f
00000790: 6ca1 0237 d160 1a3f a655 08d0 9fd4 fe3e
000007a0: a8a2 c333 8868 16bf 50bc 06a7 e808 23bf
000007b0: 01ac 634b dd2f 20bf da97 36d1 3d6c 14bf
000007c0: b0b5 1fe0 3bf0 0fbf 80a9 e375 f1ce 11bf
000007d0: 331e 13a5 aa0e 13bf 3fd4 846d e638 11bf
000007e0: 22ba d1c4 81d7 0abf ebf4 735a 08d5 09bf
000007f0: d1e1 5fe0 c955 0fbf d5b8 6ec2 fec0 0fbf
